scripts/model.pth (torch, 7140 bytes, 12 tensors)

weight f4 [10, 2]
0.10939423 -3.1737251 -0.13708077 0.33189395 -0.6656964 0.42406413 -0.14546975 0.35973623
0.07107641 -6.9455304 -0.011301176 -3.3966823 0.17427059 -2.2279499 0.087234676 4.2936616
0.094991885 -4.4316087 0.50426054 0.63936096
00000000: 150a e03d 501e 4bc0 e75e 0cbe 01ee a93e
00000010: 146b 2abf ef1e d93e 06f6 14be 592f b83e
00000020: 8290 913d c941 dec0 9128 39bc 3e63 59c0
00000030: fd73 323e bb96 0ec0 18a8 b23d ad65 8940
00000040: 1b8b c23d bdcf 8dc0 3817 013f 29ad 233f

bias f4 [10]
1.362816 -0.42706516 -0.11852216 -0.3050039 1.4785628 5.8717012 3.7496893 -0.5816953
-0.029781697 -5.5100174
00000000: c170 ae3f 49a8 dabe bfbb f2bd 7929 9cbe
00000010: 8c41 bd3f fae4 bb40 e9fa 6f40 fce9 14bf
00000020: bff8 f3bc 1052 b0c0

weight f4 [10, 10]
-0.1776753 0.29995957 0.20872924 -0.28812703 -3.5057065 -3.1472547 0.069831595 0.8234697
-0.07410965 0.11102175 0.14407194 -0.13379547 0.23714703 0.00374466 -1.0437047 -0.16195396
-0.25594255 1.41085 -0.38619217 0.102508426 0.0728739 -0.15077162 0.17159595 -0.07686778
0.4108403 1.1704493 0.56837857 -0.62052894 0.22305444 0.3454276 -0.22651546 0.20540403
0.19198245 0.2804608 -0.6295979 0.5028971 0.35624307 0.5992568 -0.7015279 -0.23891504
0.43540978 -0.074152865 0.15446885 0.018028125 -0.13197476 1.0891199 0.59594 -0.2046732
-0.2984003 0.24621895 -0.32511473 -0.23859668 0.019231196 -0.05388748 0.1838886 -1.1491407
-0.51875776 1.159644 0.14650159 0.44970378 -0.117296405 -0.23713139 0.06352962 0.07595683
-1.3742005 -0.07501349 0.11480727 1.6045283 -0.61662954 0.014668721 0.70022684 -0.058508866
0.17828657 0.13692763 -0.045150526 0.829061 0.8760507 -0.61602 0.3533617 0.24675547
0.15256341 0.23620905 0.2998518 -0.20984274 1.1145898 0.7183295 0.34393403 -0.069938265
0.11899681 -0.35377717 0.33074552 0.039727174 0.31517312 -0.19975336 1.2202411 1.8138703
0.10721878 -1.4976321 1.0227269 0.20255926
00000000: 84f0 35be 4d94 993e 1ebd 553e 6385 93be
00000010: 7f5d 60c0 9f6c 49c0 de03 8f3d e9ce 523f
00000020: cdc6 97bd 5f5f e33d 9887 133e ae01 09be
00000030: acd6 723e f868 753b 1e98 85bf 42d7 25be
00000040: e70a 83be bc96 b43f fbba c5be f0ef d13d
00000050: e93e 953d e063 1abe d9b6 2f3e db6c 9dbd
00000060: a959 d23e 48d1 953f 4281 113f fcda 1ebf
00000070: 6268 643e e3db b03e abf3 67be 6f55 523e
00000080: 0c97 443e 8f98 8f3e 542d 21bf ddbd 003f
00000090: 7e65 b63e e568 193f 5597 33bf 25a6 74be
000000a0: 08ee de3e 75dd 97bd 152d 1e3e b8af 933c
000000b0: 6424 07be 4868 8b3f 868f 183f da95 51be
000000c0: edc7 98be d220 7c3e 7075 a6be b052 74be
000000d0: be8a 9d3c 1eb9 5cbd 4b4d 3c3e 0b17 93bf
000000e0: 4fcd 04bf 376f 943f 8304 163e 933f e63e
000000f0: 1939 f0bd 92d2 72be d11b 823d 418f 9b3d
00000100: cde5 afbf aca0 99bd 1320 eb3d 2f61 cd3f
00000110: 6fdb 1dbf 1355 703c 1142 333f fea6 6fbd
00000120: c190 363e c236 0c3e c2ef 38bd 573d 543f
00000130: dc44 603f 7db3 1dbf d3eb b43e 77ad 7c3e
00000140: 9539 1c3e c9e0 713e 2d86 993e 04e1 56be
00000150: e1aa 8e3f 71e4 373f 1f18 b03e cb3b 8fbd
00000160: 99b4 f33d 4822 b5be 7a57 a93e f6b8 223d
00000170: 5f5e a13e 258c 4cbe dc30 9c3f e72c e83f
00000180: 8595 db3d 69b2 bfbf b7e8 823f b26b 4f3e

bias f4 [10]
-1.9182993 -1.1448362 2.9926882 3.0373898 2.8626404 -2.0752993 0.15755242 2.6554298
0.70823115 -0.06854341
00000000: d58a f5bf fe89 92bf 3488 3f40 9864 4240
00000010: 8035 3740 b4d1 04c0 6c55 213e 90f2 2940
00000020: a34e 353f 7d60 8cbd

weight f4 [10, 10]
3.02486 -0.38855124 -0.09092587 -4.4471307 0.37986743 0.006485808 -0.71223164 0.44020832
-6.8581715 0.75109434 -6.018576 0.95118475 -0.1313839 4.8839498 -0.5431108 1.433306
0.71115625 -0.51535463 3.458838 -0.3939839 -4.2222705 1.1215824 -0.074204214 3.0814176
-0.3769968 0.8737751 0.5729624 -0.2385551 2.8891578 -0.2976686 -4.0796547 0.6144264
-0.39551395 3.308291 -0.044125542 1.096875 0.6952316 -0.30223784 2.127154 -0.15636766
-15.128816 -0.3350683 0.31515995 -6.848431 0.045925707 -0.26404285 -0.03926693 0.0738554
1.022214 0.26969764 -1.63864 -3.352155 -0.45309284 0.47510633 0.06476228 -1.8936143
0.31713715 -0.06104191 -0.62643737 -0.43558705 3.2215154 0.3756277 0.38953763 -2.0284686
0.6697644 0.38086247 -0.034219902 0.39968157 -4.590211 0.46866903 -3.7863967 0.3824584
-0.35100895 3.0324075 0.003024376 1.0257818 0.9406657 -0.44364092 3.0327115 0.10572461
-4.3168583 -1.4732885 0.19569445 -6.937675 0.17773752 -1.3498191 -0.5494947 0.35157615
0.9703288 0.7290374 -1.4470007 -6.2797804 1.2655308 -5.976941 0.6954914 -3.2546995
-8.237957 0.91767 -1.6250658 -0.093784496
00000000: 4e97 4140 30f0 c6be 5837 babd e54e 8ec0
00000010: fc7d c23e e786 d43b d054 36bf fc62 e13e
00000020: 2476 dbc0 b847 403f 2d98 c0c0 d880 733f
00000030: 8089 06be 5149 9c40 4f09 0bbf 9276 b73f
00000040: 560e 363f 48ee 03bf 9a5d 5d40 42b8 c9be
00000050: d71c 87c0 0390 8f3f 61f8 97bd f235 4540
00000060: b905 c1be baaf 5f3f aaad 123f ca47 74be
00000070: f6e7 3840 0568 98be 888c 82c0 0c4b 1d3f
00000080: ce80 cabe 0abb 5340 fcbc 34bd 6666 8c3f
00000090: b3fa 313f ebbe 9abe 4b23 0840 d81e 20be
000000a0: a10f 72c1 128e abbe a55c a13e 5926 dbc0
000000b0: 981c 3c3d a030 87be 5cd6 20bd 8041 973d
000000c0: e9d7 823f cf15 8a3e f5be d1bf b589 56c0
000000d0: c9fb e7be 2341 f33e 16a2 843d f461 f2bf
000000e0: cd5f a23e 1507 7abd 335e 20bf 4405 dfbe
000000f0: 4f2d 4e40 4652 c03e 7a71 c73e 6ed2 01c0
00000100: ae75 2b3f 6800 c33e 2b2a 0cbd 10a3 cc3e
00000110: 02e3 92c0 63f5 ef3e 5354 72c0 96d1 c33e
00000120: 72b7 b3be f712 4240 9c34 463b d14c 833f
00000130: 78cf 703f e724 e3be f217 4240 2586 d83d
00000140: b423 8ac0 b894 bcbf 2064 483e 6f01 dec0
00000150: d300 363e dfc6 acbf afab 0cbf ca01 b43e
00000160: 7867 783f 32a2 3a3f 5237 b9bf f6f3 c8c0
00000170: eafc a13f 1a43 bfc0 b90b 323f ff4c 50c0
00000180: acce 03c1 6cec 6a3f 2802 d0bf 1612 c0bd

bias f4 [10]
1.3782508 0.14722425 -1.4672252 -1.9254234 -2.387239 0.30336207 2.2614803 -2.0198383
-3.0560071 2.6479135
00000000: 866a b03f f4c1 163e 09ce bbbf 4674 f6bf
00000010: 86c8 18c0 4652 9b3e 18bc 1040 0845 01c0
00000020: 9f95 43c0 6a77 2940

weight f4 [10, 10]
0.27875662 -0.10741205 0.014182926 0.14103061 0.03788958 -0.15835187 0.18238068 0.19439602
-0.01832714 -0.03892844 0.28737044 0.2764238 -0.17929426 0.30939332 0.07825768 -0.21005772
0.17310703 -0.23608759 0.2921719 -0.20329623 0.08943806 0.09629142 0.075217284 0.26228634
-0.13134503 -0.13350196 -0.27403393 -0.012977894 -0.1498036 0.012671 -0.06482621 0.10492237
0.27356115 0.093311906 -0.10186968 -0.15517177 -0.275799 0.26608887 -0.05990623 0.06383218
0.011697619 -0.20152156 0.1780936 0.17721996 0.01592522 -0.17970873 -0.13436727 0.004354791
-0.18067269 -0.1764419 -0.047170766 -0.09105791 0.07762784 -0.08311905 -0.041920137 -0.1206983
-0.28898808 0.27579075 0.060330663 0.28277862 -0.050963603 -0.0794721 -0.29728767 -0.12004343
0.2073733 -0.30972788 -0.11060554 0.19266468 0.1822564 0.11676561 -0.06259574 -0.023943394
-0.060053814 -0.11657434 0.1319696 -0.10770809 -0.17765062 0.07173956 -0.22857131 -0.06748768
0.1615967 0.118183635 0.26921675 -0.2156822 0.0027494517 -0.093382925 -0.1768715 -0.17789504
0.079669185 0.033085212 -0.16141798 -0.22289614 -0.2620036 0.30992365 -0.053899582 -0.07312301
-0.116282634 -0.15816632 -0.28919414 -0.18564436
00000000: 30b9 8e3e d9fa dbbd 815f 683c 546a 103e
00000010: 1b32 1b3d fe26 22be 00c2 3a3e c00f 473e
00000020: cc22 96bc 6e73 1fbd 3822 933e 6c87 8d3e
00000030: ea98 37be cd68 9e3e 9045 a03d 5f19 57be
00000040: f842 313e f2c0 71be 8e97 953e e32c 50be
00000050: 4d2b b73d 7034 c53d 850b 9a3d 654a 863e
00000060: 507f 06be bdb4 08be 2d4e 8cbe 3ca1 54bc
00000070: 1d66 19be 079a 4f3c 9bc3 84bd 8ae1 d63d
00000080: 3510 8c3e 501a bf3d 0da1 d0bd 59e5 1ebe
00000090: 8735 8dbe cd3c 883e 3c60 75bd 72ba 823d
000000a0: 5fa7 3f3c ab5b 4ebe 2b5e 363e 2679 353e
000000b0: 9b75 823c 9105 38be 9397 09be a2b2 8e3b
000000c0: 4302 39be 2fad 34be 2236 41bd 927c babd
000000d0: 58fb 9e3d 523a aabd 73b4 2bbd ac30 f7bd
000000e0: 3ff6 93be 7234 8d3e 491d 773d 5cc8 903e
000000f0: 36bf 50bd 45c2 a2bd 1736 98be 54d9 f5bd
00000100: ab59 543e a794 9ebe 2885 e2bd e449 453e
00000110: 6ca1 3a3e cf22 ef3d 3232 80bd f024 c4bc
00000120: fdfa 75bd 87be eebd 0a23 073e 0f96 dcbd
00000130: 0bea 35be 31ec 923d 990e 6abe fb36 8abd
00000140: 9b79 253e 430a f23d c7d6 893e cbdb 5cbe
00000150: 2530 343b 8c3f bfbd cd1d 35be 1e2a 36be
00000160: 9929 a33d 5c84 073d c14a 25be e33e 64be
00000170: 5625 86be 50ae 9e3e cfc5 5cbd 84c1 95bd
00000180: 9725 eebd 5af6 21be 4111 94be 8e19 3ebe

bias f4 [10]
0.19328742 0.06930948 -0.111552075 -0.1195064 0.20201068 0.22795108 0.3046647 0.092245415
0.15277316 -0.025408348
00000000: 23ed 453e 21f2 8d3d 6a75 e4bd c5bf f4bd
00000010: e3db 4e3e 026c 693e 03fd 9b3e 2aeb bc3d
00000020: 9170 1c3e 2b25 d0bc

weight f4 [10, 10]
-0.184878 -0.30980256 0.19261251 -0.045962717 0.12992087 0.015565285 -0.29514202 -0.15513971
0.08896507 -0.06400464 -0.3053693 0.110888265 0.012127896 -0.10162947 0.12774698 0.06676186
-0.116625756 0.28408265 0.158645 0.0397064 -0.06073199 -0.26785752 0.24415232 -0.081599474
-0.20435447 0.20275003 0.11230862 0.07825648 -0.062701784 -0.09868528 0.05366337 0.24471255
0.04528511 -0.14952764 0.31413692 0.0067631947 0.24998361 0.077070974 0.2834528 0.18245514
-0.16122149 0.22213586 0.002034334 -0.25384152 -0.06626426 -0.285431 -0.1638383 -0.2240271
0.21628448 -0.0664357 -0.054636866 0.1515412 0.12869541 -0.20870018 0.1165409 0.13434069
-0.25143567 0.2749401 -0.19241856 -0.12366112 -0.26047227 0.28902522 0.06021531 0.26627478
0.020649932 0.17188361 -0.100966945 -0.2522788 0.05076328 -0.028200738 -0.031929225 -0.15530415
0.006546473 0.09081548 0.114078514 -0.2547418 0.15277602 0.03251862 0.21810786 0.22348256
-0.249034 0.30367988 -0.31099445 0.18178853 0.022257421 0.14964175 -0.17100534 0.19011499
-0.15647985 -0.27951247 0.105946794 0.17309026 0.31346387 -0.033049814 0.30420437 0.20315668
-0.1568376 -0.24392052 0.17736068 -0.17325357
00000000: a950 3dbe 719e 9ebe 373c 453e 6743 3cbd
00000010: fa09 053e 8a05 7f3c db1c 97be f2dc 1ebe
00000020: 5233 b63d dd14 83bd 5d59 9cbe 6319 e33d
00000030: 15b4 463c 1d23 d0bd 1bd0 023e 71ba 883d
00000040: 7cd9 eebd 4873 913e d673 223e 2ea3 223d
00000050: 1bc2 78bd 9f24 89be 1103 7a3e a01d a7bd
00000060: 4c42 51be b49d 4f3e 1002 e63d ef44 a03d
00000070: cb69 80bd 821b cabd 1fce 5b3d ed95 7a3e
00000080: e17c 393d c61d 19be 8ed6 a03e ca9d dd3b
00000090: b4fb 7f3e 63d7 9d3d ba20 913e 85d5 3a3e
000000a0: 3f17 25be 9577 633e 7652 053b 84f7 81be
000000b0: 8eb5 87bd 0324 92be 3ac5 27be 5c67 65be
000000c0: ae79 5d3e 710f 88bd e8ca 5fbd 9e2d 1b3e
000000d0: bbc8 033e 80b5 55be ffac ee3d 9b90 093e
000000e0: 2dbc 80be f3c4 8c3e 5f09 45be 0b42 fdbd
000000f0: 9f5c 85be 1dfb 933e 54a4 763d 2b55 883e
00000100: 0c2a a93c 4202 303e c2c7 cebd b02a 81be
00000110: 28ed 4f3d 3c05 e7bc 38c8 02bd 0d08 1fbe
00000120: cc83 d63b 77fd b93d ffa1 e93d 846d 82be
00000130: 5171 1c3e 3f32 053d ab57 5f3e 9dd8 643e
00000140: c502 7fbe ee7b 9b3e aa3a 9fbe c626 3a3e
00000150: 3255 b63c b03b 193e 061c 2fbe 81ad 423e
00000160: 413c 20be 421c 8fbe a2fa d83d 933e 313e
00000170: 567e a03e 3e5f 07bd adc0 9b3e 4e08 503e
00000180: 099a 20be 4dc6 79be 0a9e 353e 6269 31be

bias f4 [10]
0.14505203 -0.27082914 0.23071027 0.09477908 -0.036354434 0.14503093 -0.22513728 -0.069129586
0.0031001118 -0.18272486
00000000: 8588 143e 1eaa 8abe 503f 6c3e 891b c23d
00000010: 63e8 14bd fd82 143e 638a 66be d093 8dbd
00000020: 3f2b 4b3b 3a1c 3bbe

weight f4 [1, 10]
-0.8006449 -9.042246 5.2539625 4.945449 2.4142058 1.1372194 -0.78618675 3.6283865
3.5558188 -7.9273868
00000000: 10f7 4cbf 0aad 10c1 7620 a840 1e41 9e40
00000010: 5982 1a40 6890 913f 8943 49bf 7c37 6840
00000020: 8992 6340 27ad fdc0

source_pos f4 [2]
0.0 0.0
00000000: 0000 0000 0000 0000
