scripts/old/model.pth (torch, 7140 bytes, 12 tensors)

weight f4 [10, 2]
000000 05 37 cc 3e cd b9 92 bf e7 5e 0c be 01 ee a9 3e
       0.39885727 -1.1462952 -0.13708077 0.33189395
000010 14 6b 2a bf ef 1e d9 3e 06 f6 14 be 59 2f b8 3e
       -0.6656964 0.42406413 -0.14546975 0.35973623
000020 2d 57 a7 3d 37 de 78 40 05 5d 16 3e d0 5a 3c 3f
       0.08170924 3.888563 0.14683922 0.7357607
000030 f3 63 25 3e 3a 11 75 c0 32 4e a4 bd 7b f5 25 40
       0.16151409 -3.8291764 -0.08022727 2.593108
000040 e9 ef 77 3e 2a 63 8a 3e 99 8a 2e 3f 11 ef 03 40
       0.24212612 0.2702878 0.68180233 2.0614665

bias f4 [10]
000000 68 f0 e5 3e 49 a8 da be bf bb f2 bd 79 29 9c be
       0.44909978 -0.42706516 -0.11852216 -0.3050039
000010 dc a5 a1 3e 92 1a f0 be f3 50 80 40 eb 56 f5 3f
       0.31571853 -0.46895272 4.0098815 1.916715
000020 67 d5 30 bf e4 bb a6 3f
       -0.69075626 1.302609

weight f4 [10, 10]
000000 d0 7b 68 3d 4d 94 99 3e 1e bd 55 3e 63 85 93 be
       0.0567587 0.29995957 0.20872924 -0.28812703
000010 c7 cb a9 be 7c 79 3b be cb fc 7b 3e 45 02 ac bd
       -0.33163282 -0.18308061 0.24608152 -0.083988704
000020 3d ab d5 3d d9 e7 36 be 55 99 8c 3e ae 01 09 be
       0.10433052 -0.1786188 0.27460733 -0.13379547
000030 ac d6 72 3e f8 68 75 3b 37 74 3e bc 30 9b 54 3e
       0.23714703 0.00374466 -0.011624387 0.20762324
000040 01 51 6d be d4 79 e3 3f 7b 58 61 be 3b a8 05 bc
       -0.23175432 1.7771554 -0.22006409 -0.008157785
000050 22 a6 be be e0 63 1a be d9 b6 2f 3e db 6c 9d bd
       -0.37236124 -0.15077162 0.17159595 -0.07686778
000060 8a fd b4 3e df e3 a0 3e fe 09 d4 bd ab 19 8c 3f
       0.35349685 0.31423852 -0.10353468 1.0945333
000070 e0 25 50 3e 56 fa 87 3d 65 52 51 be 6f 55 52 3e
       0.20326948 0.06639545 -0.20441587 0.20540403
000080 0c 97 44 3e 8f 98 8f 3e d4 84 35 be 81 35 55 bd
       0.19198245 0.2804608 -0.17726451 -0.05205298
000090 f6 bb c8 bb 08 2f 3d 3d 36 c0 75 be b7 c9 65 be
       -0.0061259223 0.04618743 -0.23999104 -0.2244023
0000a0 d4 a0 52 3e 75 dd 97 bd 15 2d 1e 3e b8 af 93 3c
       0.20569164 -0.074152865 0.15446885 0.018028125
0000b0 0e 66 64 3e 6d 30 ff 3d f4 d3 5c 3e 49 e4 cf 3e
       0.22304556 0.12460408 0.21565229 0.40603855
0000c0 40 29 a0 be 3c 57 6b 3e 67 ef 47 be b0 52 74 be
       -0.3128147 0.22982496 -0.19524918 -0.23859668
0000d0 be 8a 9d 3c 1e b9 5c bd 9d 38 38 3f 60 6c a6 be
       0.019231196 -0.05388748 0.71961385 -0.3250456
0000e0 80 5a 09 be 39 8b 10 40 f3 27 73 bf 95 66 d7 3e
       -0.1341343 2.2584975 -0.9498283 0.4207045
0000f0 da b4 26 3e 92 d2 72 be d1 1b 82 3d 41 8f 9b 3d
       0.16279927 -0.23713139 0.06352962 0.07595683
000100 5f 18 27 be 52 f2 27 be bb 1c d6 3e d6 8a c1 3e
       -0.1631789 -0.16401032 0.41818795 0.37801236
000110 19 0c d3 be c9 52 f0 ba 4c f7 97 3e fe a6 6f bd
       -0.41220167 -0.0018335219 0.2968086 -0.058508866
000120 c1 90 36 3e c2 36 0c 3e b8 a8 6d be 93 f5 a3 be
       0.17828657 0.13692763 -0.23208892 -0.32023296
000130 96 b1 07 3f 1b 09 15 c0 f9 51 a3 3d ac 52 b5 3d
       0.5300535 -2.3286808 0.079746194 0.08853659
000140 87 d8 1d 3d c9 e0 71 3e 2d 86 99 3e 04 e1 56 be
       0.038536575 0.23620905 0.2998518 -0.20984274
000150 87 39 c1 bc a6 a6 71 3e e4 a3 29 3e e3 6b 08 3e
       -0.023587001 0.23598728 0.16566426 0.13322406
000160 47 5a 6a be cf ef 94 be 98 e0 16 be f6 b8 22 3d
       -0.22886 -0.2908921 -0.14734113 0.039727174
000170 5f 5e a1 3e 25 8c 4c be e0 14 b3 3e af de 98 bd
       0.31517312 -0.19975336 0.34976864 -0.074643485
000180 c8 94 74 be da 73 55 3f e1 a1 5a 3e ab 24 c6 3e
       -0.2388488 0.833799 0.21350814 0.3869985

bias f4 [10]
000000 ab f8 68 be 48 e9 14 3f e9 70 07 bf 22 94 56 3e
       -0.2275111 0.5816846 -0.5290666 0.20954946
000010 fb 2f 7a 3f 43 6d c5 3f 20 13 0a 40 b3 00 d7 3f
       0.9772946 1.5423969 2.1574173 1.6797088
000020 40 0a 8f be e4 29 a8 3e
       -0.27937508 0.3284446

weight f4 [10, 10]
000000 36 61 14 be 6a 03 0b 3d 80 a1 03 c0 7f f0 ec 3d
       -0.14490208 0.033938803 -2.0567322 0.115693085
000010 10 68 b6 3d 08 61 ab bf 40 b2 3a 3f 69 6c d3 3d
       0.08906567 -1.3388987 0.7292824 0.10323412
000020 fa b3 45 3e 04 5d 5b 3e bc 52 db bd 5a 30 9e 3e
       0.19306937 0.21422201 -0.1070914 0.30896264
000030 3d be 15 bd 43 00 32 bc 83 d2 98 be fd 69 50 be
       -0.03655838 -0.01086432 -0.29848108 -0.20352931
000040 d7 2c 3d be 0a 81 0a be 65 39 66 3e 79 a2 d3 bd
       -0.18474136 -0.13525787 0.22482832 -0.103337236
000050 a6 d8 71 be 12 97 e1 3e 0b 80 80 c0 c0 bb 51 3e
       -0.23617801 0.4406057 -4.0156302 0.20481777
000060 35 6d 91 bc f6 c1 c7 3f 79 2f b7 bf a8 db 8c bd
       -0.01775227 1.5606067 -1.4311363 -0.068778336
000070 2f 0d 6e be 0e 77 a9 3d 1b 46 c6 bd e1 b1 0c 3e
       -0.23247217 0.08274661 -0.0968134 0.1373973
000080 50 de 54 bf f2 f9 9f 3d b4 13 d0 3e a6 05 9e 3f
       -0.8315172 0.07811345 0.40640032 1.2345474
000090 00 08 80 3f 0c 34 08 3e 23 8c 59 be 98 db a9 3e
       1.0002441 0.13301104 -0.21244864 0.3317535
0000a0 1f f3 a1 bd d6 6e d1 bc ee 7b 8b be 48 da 7f bd
       -0.079077 -0.025565546 -0.27242988 -0.06246403
0000b0 b1 db 50 be 5f c7 94 3e 31 f9 8b be f2 68 7c be
       -0.20396306 0.29058358 -0.27338555 -0.24649408
0000c0 1b ee 2f bc ce 17 2f be f8 cb e7 3d 79 0e f8 bd
       -0.010737921 -0.17098925 0.11318201 -0.121121354
0000d0 0b c3 83 bf d3 b8 92 3c cd 83 a3 3e 08 e5 30 3f
       -1.0293897 0.017910397 0.31936494 0.69099474
0000e0 d6 02 72 3f 78 5b a7 3e 9c 64 a1 3e d7 80 0d be
       0.9453558 0.32686973 0.3152207 -0.1381868
0000f0 bb d9 9c 3d 68 ba d5 bc 63 6e 9b 3d b4 38 fb bd
       0.07658716 -0.026089862 0.07589414 -0.12266675
000100 7a 7e 4c 3e 86 13 95 bf 03 4e c6 bf ac 89 7e bd
       0.19970122 -1.1646583 -1.5492557 -0.062143013
000110 45 30 5c 3d 2d 53 97 3e 92 db 4f 3d 9f 16 df 3d
       0.05375697 0.29555646 0.050746508 0.108929865
000120 ea 9e b7 bf b9 e9 6b 3e 41 75 bf 3e ba 6c 9f 3f
       -1.4345372 0.23038377 0.37394145 1.2455056
000130 70 f8 82 3f df 91 d6 bd ab bc e4 bd 53 2b be 3e
       1.0232067 -0.104770415 -0.11168798 0.3714243
000140 68 9e 76 be 42 ef 94 3e ea e4 9a bf 81 19 64 be
       -0.24083865 0.2908879 -1.2101109 -0.22275354
000150 e4 7d 7d 3e ed 6d 2f 3f 21 38 38 3f 05 29 b5 3e
       0.24755055 0.6852711 0.71960646 0.35382858
000160 b1 1e 82 3e 12 c4 c4 3e 95 6a 83 bd 7f a3 84 be
       0.2541404 0.3843084 -0.06416813 -0.25905988
000170 1a d6 98 3e 8d f6 89 bd b3 b8 12 be 6d fd 15 bc
       0.29850847 -0.06736479 -0.1432827 -0.00915466
000180 b4 f5 93 be 90 65 47 3e 65 f2 4a 3e 91 3a 87 be
       -0.28898394 0.19472337 0.19819029 -0.2641187

bias f4 [10]
000000 d1 d8 b4 be fd eb e2 bc fa 41 3e 3f aa cc 3e 3f
       -0.35321668 -0.027700419 0.7431942 0.7453104
000010 51 33 24 be ae 8f 43 3f 96 8b 8c bf 97 ea 1a 3f
       -0.160352 0.7639111 -1.0980098 0.60514206
000020 2d e2 11 3f fb 87 7b 3e
       0.5698574 0.24563591

weight f4 [10, 10]
000000 30 b9 8e 3e d9 fa db bd 81 5f 68 3c 54 6a 10 3e
       0.27875662 -0.10741205 0.014182926 0.14103061
000010 1b 32 1b 3d fe 26 22 be 00 c2 3a 3e c0 0f 47 3e
       0.03788958 -0.15835187 0.18238068 0.19439602
000020 cc 22 96 bc 6e 73 1f bd 38 22 93 3e 6c 87 8d 3e
       -0.01832714 -0.03892844 0.28737044 0.2764238
000030 ea 98 37 be cd 68 9e 3e 90 45 a0 3d 5f 19 57 be
       -0.17929426 0.30939332 0.07825768 -0.21005772
000040 f8 42 31 3e f2 c0 71 be 8e 97 95 3e e3 2c 50 be
       0.17310703 -0.23608759 0.2921719 -0.20329623
000050 4d 2b b7 3d 70 34 c5 3d 85 0b 9a 3d 65 4a 86 3e
       0.08943806 0.09629142 0.075217284 0.26228634
000060 50 7f 06 be bd b4 08 be 2d 4e 8c be 3c a1 54 bc
       -0.13134503 -0.13350196 -0.27403393 -0.012977894
000070 1d 66 19 be 07 9a 4f 3c 9b c3 84 bd 8a e1 d6 3d
       -0.1498036 0.012671 -0.06482621 0.10492237
000080 35 10 8c 3e 50 1a bf 3d 0d a1 d0 bd 59 e5 1e be
       0.27356115 0.093311906 -0.10186968 -0.15517177
000090 87 35 8d be cd 3c 88 3e 3c 60 75 bd 72 ba 82 3d
       -0.275799 0.26608887 -0.05990623 0.06383218
0000a0 5f a7 3f 3c ab 5b 4e be 2b 5e 36 3e 26 79 35 3e
       0.011697619 -0.20152156 0.1780936 0.17721996
0000b0 9b 75 82 3c 91 05 38 be 93 97 09 be a2 b2 8e 3b
       0.01592522 -0.17970873 -0.13436727 0.004354791
0000c0 43 02 39 be 2f ad 34 be 22 36 41 bd 92 7c ba bd
       -0.18067269 -0.1764419 -0.047170766 -0.09105791
0000d0 58 fb 9e 3d 52 3a aa bd 73 b4 2b bd ac 30 f7 bd
       0.07762784 -0.08311905 -0.041920137 -0.1206983
0000e0 3f f6 93 be 72 34 8d 3e 49 1d 77 3d 5c c8 90 3e
       -0.28898808 0.27579075 0.060330663 0.28277862
0000f0 36 bf 50 bd 45 c2 a2 bd 17 36 98 be 54 d9 f5 bd
       -0.050963603 -0.0794721 -0.29728767 -0.12004343
000100 ab 59 54 3e a7 94 9e be 28 85 e2 bd e4 49 45 3e
       0.2073733 -0.30972788 -0.11060554 0.19266468
000110 6c a1 3a 3e cf 22 ef 3d 32 32 80 bd f0 24 c4 bc
       0.1822564 0.11676561 -0.06259574 -0.023943394
000120 fd fa 75 bd 87 be ee bd 0a 23 07 3e 0f 96 dc bd
       -0.060053814 -0.11657434 0.1319696 -0.10770809
000130 0b ea 35 be 31 ec 92 3d 99 0e 6a be fb 36 8a bd
       -0.17765062 0.07173956 -0.22857131 -0.06748768
000140 9b 79 25 3e 43 0a f2 3d c7 d6 89 3e cb db 5c be
       0.1615967 0.118183635 0.26921675 -0.2156822
000150 25 30 34 3b 8c 3f bf bd cd 1d 35 be 1e 2a 36 be
       0.0027494517 -0.093382925 -0.1768715 -0.17789504
000160 99 29 a3 3d 5c 84 07 3d c1 4a 25 be e3 3e 64 be
       0.079669185 0.033085212 -0.16141798 -0.22289614
000170 56 25 86 be 50 ae 9e 3e cf c5 5c bd 84 c1 95 bd
       -0.2620036 0.30992365 -0.053899582 -0.07312301
000180 97 25 ee bd 5a f6 21 be 41 11 94 be 8e 19 3e be
       -0.116282634 -0.15816632 -0.28919414 -0.18564436

bias f4 [10]
000000 23 ed 45 3e 21 f2 8d 3d 6a 75 e4 bd c5 bf f4 bd
       0.19328742 0.06930948 -0.111552075 -0.1195064
000010 e3 db 4e 3e 02 6c 69 3e 03 fd 9b 3e 2a eb bc 3d
       0.20201068 0.22795108 0.3046647 0.092245415
000020 91 70 1c 3e 2b 25 d0 bc
       0.15277316 -0.025408348

weight f4 [10, 10]
000000 a9 50 3d be 71 9e 9e be 37 3c 45 3e 67 43 3c bd
       -0.184878 -0.30980256 0.19261251 -0.045962717
000010 fa 09 05 3e 8a 05 7f 3c db 1c 97 be f2 dc 1e be
       0.12992087 0.015565285 -0.29514202 -0.15513971
000020 52 33 b6 3d dd 14 83 bd 5d 59 9c be 63 19 e3 3d
       0.08896507 -0.06400464 -0.3053693 0.110888265
000030 15 b4 46 3c 1d 23 d0 bd 1b d0 02 3e 71 ba 88 3d
       0.012127896 -0.10162947 0.12774698 0.06676186
000040 7c d9 ee bd 48 73 91 3e d6 73 22 3e 2e a3 22 3d
       -0.116625756 0.28408265 0.158645 0.0397064
000050 1b c2 78 bd 9f 24 89 be 11 03 7a 3e a0 1d a7 bd
       -0.06073199 -0.26785752 0.24415232 -0.081599474
000060 4c 42 51 be b4 9d 4f 3e 10 02 e6 3d ef 44 a0 3d
       -0.20435447 0.20275003 0.11230862 0.07825648
000070 cb 69 80 bd 82 1b ca bd 1f ce 5b 3d ed 95 7a 3e
       -0.062701784 -0.09868528 0.05366337 0.24471255
000080 e1 7c 39 3d c6 1d 19 be 8e d6 a0 3e ca 9d dd 3b
       0.04528511 -0.14952764 0.31413692 0.0067631947
000090 b4 fb 7f 3e 63 d7 9d 3d ba 20 91 3e 85 d5 3a 3e
       0.24998361 0.077070974 0.2834528 0.18245514
0000a0 3f 17 25 be 95 77 63 3e 76 52 05 3b 84 f7 81 be
       -0.16122149 0.22213586 0.002034334 -0.25384152
0000b0 8e b5 87 bd 03 24 92 be 3a c5 27 be 5c 67 65 be
       -0.06626426 -0.285431 -0.1638383 -0.2240271
0000c0 ae 79 5d 3e 71 0f 88 bd e8 ca 5f bd 9e 2d 1b 3e
       0.21628448 -0.0664357 -0.054636866 0.1515412
0000d0 bb c8 03 3e 80 b5 55 be ff ac ee 3d 9b 90 09 3e
       0.12869541 -0.20870018 0.1165409 0.13434069
0000e0 2d bc 80 be f3 c4 8c 3e 5f 09 45 be 0b 42 fd bd
       -0.25143567 0.2749401 -0.19241856 -0.12366112
0000f0 9f 5c 85 be 1d fb 93 3e 54 a4 76 3d 2b 55 88 3e
       -0.26047227 0.28902522 0.06021531 0.26627478
000100 0c 2a a9 3c 42 02 30 3e c2 c7 ce bd b0 2a 81 be
       0.020649932 0.17188361 -0.100966945 -0.2522788
000110 28 ed 4f 3d 3c 05 e7 bc 38 c8 02 bd 0d 08 1f be
       0.05076328 -0.028200738 -0.031929225 -0.15530415
000120 cc 83 d6 3b 77 fd b9 3d ff a1 e9 3d 84 6d 82 be
       0.006546473 0.09081548 0.114078514 -0.2547418
000130 51 71 1c 3e 3f 32 05 3d ab 57 5f 3e 9d d8 64 3e
       0.15277602 0.03251862 0.21810786 0.22348256
000140 c5 02 7f be ee 7b 9b 3e aa 3a 9f be c6 26 3a 3e
       -0.249034 0.30367988 -0.31099445 0.18178853
000150 32 55 b6 3c b0 3b 19 3e 06 1c 2f be 81 ad 42 3e
       0.022257421 0.14964175 -0.17100534 0.19011499
000160 41 3c 20 be 42 1c 8f be a2 fa d8 3d 93 3e 31 3e
       -0.15647985 -0.27951247 0.105946794 0.17309026
000170 56 7e a0 3e 3e 5f 07 bd ad c0 9b 3e 4e 08 50 3e
       0.31346387 -0.033049814 0.30420437 0.20315668
000180 09 9a 20 be 4d c6 79 be 0a 9e 35 3e 62 69 31 be
       -0.1568376 -0.24392052 0.17736068 -0.17325357

bias f4 [10]
000000 85 88 14 3e 1e aa 8a be 50 3f 6c 3e 89 1b c2 3d
       0.14505203 -0.27082914 0.23071027 0.09477908
000010 63 e8 14 bd fd 82 14 3e 63 8a 66 be d0 93 8d bd
       -0.036354434 0.14503093 -0.22513728 -0.069129586
000020 3f 2b 4b 3b 3a 1c 3b be
       0.0031001118 -0.18272486

weight f4 [1, 10]
000000 80 b9 63 be d3 a5 0b be 54 46 83 40 68 52 ea 3e
       -0.22238731 -0.13637476 4.102335 0.45765996
000010 9c a4 8b 3e cd 00 f5 3e c3 c9 33 bf e7 29 c8 3e
       0.27274024 0.47852173 -0.7022974 0.3909447
000020 05 d8 81 3e 6b e3 61 be
       0.25360122 -0.2205941

source_pos f4 [2]
000000 00 00 00 00 00 00 00 00
       0.0 0.0
