models/cross01_10_10.pth (torch, 41916 bytes, 69 tensors)

weight f4 [10, 2]
00000000: 027f 473f 015a 48bf 9b68 4abd cb1c f0bb
00000010: 0e58 4b3e 98f8 783e b6a0 c5be 19f8 0c3f
00000020: f82d 57be c2b8 3dbf fd6e 173f 5a00 ab3a
00000030: eaf3 af3d 5070 1bbf 6cd6 a53e 7bef 093f
00000040: abc1 793d 1310 5a3e db50 3e3d 5c29 443f
0.77928174 -0.78262335 -0.049416166 -0.007327651 0.19857809 0.24313581 -0.38599175 0.55066067
-0.2101363 -0.74110043 0.5915373 0.001304637 0.08591445 -0.6071825 0.32390153 0.53881043
0.06097571 0.21295194 0.04646383 0.7662561

bias f4 [10]
00000000: 9926 dd3e 8280 2ebf 6297 53be 9da8 cf3e
00000010: 521b 8a3f fe37 9e3e 04cd 003f f504 68be
00000020: 7cfc a13e 6ada 0d3f
0.4319351 -0.6816484 -0.20663217 0.4055833 1.0789587 0.30902094 0.5031283 -0.22658141
0.31637943 0.554114

weight f4 [10, 10]
00000000: 91a3 5abe 9a07 3bbe fa60 053e d531 ef3e
00000010: 7b40 b63e 79a4 0a3e 222b 033f 501e a3be
00000020: 05d2 ed3d f645 413e bb67 823e d913 ffbc
00000030: d73f 33bd 23af 903c 08fb babd 7fa7 c2bc
00000040: b104 b13e 6da9 42be 6b8d 17be f00e 0cbf
00000050: 8957 433e 4083 64be aa73 753e 778d a13e
00000060: be41 ddbe cdad 6b3d 2686 503e ce6d b83e
00000070: 26c1 3c3d c920 a4bd c94d a8be 1c48 01be
00000080: 994d 13be b31d 01be a515 733d b133 8abd
00000090: 4f42 cdbd 2fe8 623e 2b26 c7bd bfcc c23e
000000a0: 6d88 08be 8676 8dbe 5e83 90bd 054a 1ebe
000000b0: a525 843d ec22 8fbe e493 43be 9eaa 013e
000000c0: db6c 4fbe 7f55 a83e f9b6 c8bd 7c4f 60bd
000000d0: eeda 3c3e 193f 873e 2351 17bd 64f9 823e
000000e0: 6783 083f 526c 65be 30fc 82bd f726 01bd
000000f0: e413 0fbe 5b70 353e 7986 1d3c 86ac d53c
00000100: e74c 39be 3e5a 34bd afef 3bbe 16b5 82bd
00000110: 6fd7 a13e 8329 0dbe bfb9 adbe 4d37 833e
00000120: ca7a 9a3d f9ba ccbd b922 153e 76c1 e73c
00000130: fa9b 26be 85fa 493c 02fa c23e 8d42 893e
00000140: d27a b1be c666 7bbe 23c0 473d 12f4 553e
00000150: 5838 e43c c42e 8fbe b9a0 9d3d 82e5 2a3d
00000160: 5a1b 833e 7604 d23e b790 f0be 20df 2fbd
00000170: 61b9 303e 9e44 7a3e 2fc6 2d3c ab15 193d
00000180: b788 73be edf3 86bd 3106 aa3e 5375 043e
-0.21351458 -0.18264619 0.13025275 0.46717706 0.3559607 0.13539304 0.5123769 -0.31859064
0.11612324 0.18874344 0.25469765 -0.031137394 -0.043762054 0.017661637 -0.09129912 -0.023761509
0.34573892 -0.19009943 -0.1480004 -0.5471029 0.19076361 -0.22315693 0.23969904 0.31553242
-0.4321422 0.057538796 0.20363674 0.36021274 0.04608264 -0.08014066 -0.32871845 -0.12625164
-0.1438507 -0.12608986 0.059346814 -0.067481406 -0.10022413 0.22158884 -0.09724077 0.38046834
-0.13333292 -0.2762949 -0.07056306 -0.15457924 0.064524926 -0.2795633 -0.19099385 0.12662742
-0.20256369 0.32877728 -0.09800524 -0.054763302 0.1844289 0.26415327 -0.036942612 0.25580895
0.53325504 -0.22404602 -0.06395757 -0.0315313 -0.13972431 0.17718641 0.00961458 0.026083242
-0.18095742 -0.044031374 -0.18353151 -0.06382196 0.31609675 -0.13785367 -0.33930776 0.2562813
0.075429514 -0.099966 0.14564027 0.028290492 -0.16270438 0.012327795 0.38081366 0.26808587
-0.34664017 -0.24550924 0.04876722 0.20893887 0.027858898 -0.27965367 0.07696671 0.041722782
0.25606805 0.41019028 -0.4698541 -0.042937398 0.17258216 0.24440238 0.010606333 0.03737418
-0.23782621 -0.06589494 0.3320785 0.1293538

bias f4 [10]
00000000: f3c2 343f def5 84bf ea22 ed3e ad65 cfbc
00000010: 70f9 093e 4c24 1ebc 0a0e 7ebe 8b3c 82be
00000020: 3783 a8be 7508 bdbe
0.7060997 -1.0387533 0.463157 -0.025317037 0.13474059 -0.009652209 -0.24810043 -0.25436816
-0.3291261 -0.36920515

weight f4 [10, 10]
00000000: 18ec 67be cceb d9bd 6d34 03be ce42 863e
00000010: 196b a8be 35b2 323e 7b9a 503e 1f02 0ebe
00000020: b25a 85bc 22d7 69bd 2160 0ebf 947c fd3e
00000030: dc2e 3c3c 872d 123d cafc 3e3e 23f6 3a3e
00000040: 3ebe 9dbe 262a df3e 6e75 a03e d888 6c3e
00000050: aa9e 1b3f 996f dfbe 23f2 c83e d981 e4bd
00000060: dec0 a9bd e1e0 863e b092 513d 845f 92bd
00000070: 9ce5 1dbe 8502 fcbd 3a2c 8dbf 7b88 a63e
00000080: 6e05 703e d666 473e 4df8 5abc d689 3b3e
00000090: 31bd 88be 0e35 b73e 2c28 a13e ac2c 483e
000000a0: bff9 00bf 0571 123f 4540 65bd afd1 bbbe
000000b0: f975 50be f48d 9d3d 1f7f b43c 1aa6 4fbe
000000c0: bc91 1ebe 45c4 a43d a8c4 ebbe fac8 adbd
000000d0: c9dd b53d b3b2 f13e 6f79 32bd facc bdbe
000000e0: d297 fdbd a0e1 a43e ca9f 103e db13 793e
000000f0: e1a4 b9bd 9d04 e93d 977c 04be 9f14 8e3e
00000100: 0a0f 88bd 6979 39bd 9e55 4e3e 7f36 533d
00000110: 8775 49be 02a6 69bd f852 21be b167 113f
00000120: 56ad 853e f4f2 c03e f15d ec3e 2952 ac3c
00000130: 1332 e3bd 54bb f23e eb2e 083f 31ea 9c3e
00000140: 3d3b 25bf 31cf 073f 1281 b4bd b82d 593d
00000150: 4fb2 c1be c202 b73e c1f6 833e ed79 e6bc
00000160: d8fd c0be 90a7 a9bc c855 efbe 163c 633e
00000170: a0ea 023e 6d70 f53e bd64 323e 3e80 05be
00000180: e2e4 d0bc 2704 023f 2017 4d3c 88bc 59bd
-0.22648656 -0.10640678 -0.12812968 0.26222843 -0.3289421 0.17450793 0.2037143 -0.13867997
-0.016278598 -0.057089932 -0.5561543 0.49509108 0.0114857815 0.03568795 0.18651119 0.18257956
-0.30809206 0.43586844 0.31339592 0.23099077 0.6078898 -0.4363983 0.39247236 -0.11157579
-0.082887396 0.26343444 0.051165283 -0.071471244 -0.1541962 -0.12305168 -1.1029122 0.32526
0.23439571 0.19472823 -0.013364864 0.18314299 -0.26706842 0.35782665 0.3147596 0.19548291
-0.5038108 0.57203704 -0.055969495 -0.36683413 -0.20357503 0.07693091 0.022033272 -0.20278206
-0.15485281 0.08045248 -0.46048474 -0.08485599 0.08880193 0.4720665 -0.04357284 -0.37070447
-0.12382473 0.32203388 0.14123455 0.2432398 -0.09064651 0.11377833 -0.12938152 0.27750108
-0.066434935 -0.0452818 0.20149848 0.051565643 -0.1967374 -0.057043083 -0.15754306 0.56798846
0.26108807 0.3768536 0.46165422 0.02103527 -0.11093535 0.47408545 0.5319659 0.30647424
-0.64543515 0.53050524 -0.08813681 0.053022116 -0.3783135 0.35744292 0.25774196 -0.02813431
-0.37693667 -0.020709783 -0.46745133 0.2219089 0.12784815 0.47937337 0.17421241 -0.13037202
-0.025499765 0.50787586 0.01251772 -0.053158313

bias f4 [10]
00000000: acd1 fb3c a6b9 2fbf a36d 203f 701e 253e
00000010: 42e4 e9be 5720 a53e 0003 c0bd d1cc b8bd
00000020: 09ed cabe 0bda 89be
0.030739628 -0.6864265 0.6266729 0.16124892 -0.4568196 0.32251236 -0.09375572 -0.09023441
-0.39633968 -0.26924166

weight f4 [10, 10]
00000000: 5345 433d 0762 22be 9c66 933e 0bb0 963d
00000010: a136 84be 96e6 67be 38c0 913e f8ef 02be
00000020: d581 4e3e efa7 703e fd1d 91bc 1f33 d53e
00000030: 0d7f debe 9171 193e 8e11 ca3d a1ac 6b3e
00000040: dc21 c13d af66 9b3e c927 043f 2d9f 533e
00000050: e7e0 89be d852 913e 4290 4dbe 982c 983e
00000060: aa89 233c d70f 723e 06b4 c03d 987f 83be
00000070: 72b2 e1bd 18d1 e03e 3019 1dbe 5f36 8f3e
00000080: 971f bbbd 7ff3 7d3e a637 c53e 025d 433e
00000090: fb93 0ebe fd51 d83e c82b da3e 53cd ba3e
000000a0: 0304 89bd cc0f 5c3e 9337 07be de61 13be
000000b0: a8d8 de3e 3b1f a43e 68c1 d4bd 8936 c53e
000000c0: 6263 713e d62c d13e 0d8b 493d cb0a 703e
000000d0: 5ed9 eebe 47d6 9a3e 3cc7 003f 5584 9cbd
000000e0: 11e2 a23d d477 8f3d b825 983e 29df f7bd
000000f0: 80f8 973e 1e02 5bbd e429 7ebe 07c2 19bb
00000100: 1773 a43e 3b63 b8bd 1664 5bbe 2a84 c93e
00000110: 0bdf 183f 5aca 263e f235 74bd d01f 68be
00000120: 2fd2 82be 67e8 8c3e 5e97 0a3d cd0a 7c3e
00000130: 70c7 56be 7997 af3d e45a 643e 9da9 70be
00000140: 06c5 a33d 1bac 8f3e dcb2 043e 7413 283e
00000150: 303d b6be 1552 a53d de96 37be 3ef5 01be
00000160: 1aff 603d 31ee 9fbc 6008 b7bd a372 dabd
00000170: 10cb 24bc 11ab 66be 5fcd bf3e 0d61 523e
00000180: b339 69bc 03b0 5abd b962 963e ef47 63be
0.047673535 -0.15857707 0.28789222 0.07357796 -0.2582293 -0.22646555 0.28466964 -0.12786853
0.20166714 0.23501562 -0.017714495 0.41640565 -0.43456307 0.14984728 0.098666295 0.23015071
0.09430286 0.3035178 0.5162321 0.2066619 -0.269294 0.28383517 -0.20074561 0.29721522
0.009981552 0.23638855 0.09409337 -0.25683284 -0.11020364 0.43909526 -0.1534164 0.2797117
-0.09136885 0.24799918 0.3851902 0.19078448 -0.13923638 0.42250052 0.42611527 0.36484775
-0.06690218 0.21490401 -0.13204794 -0.14392802 0.4352467 0.32055077 -0.10388452 0.3851817
0.23573068 0.4085452 0.049204875 0.23441617 -0.46650213 0.30241606 0.5030401 -0.07642428
0.07953275 0.07005277 0.29716277 -0.12103111 0.29681778 -0.053468816 -0.24820668 -0.0023461597
0.32119057 -0.09003302 -0.21424899 0.39358646 0.59715337 0.16288128 -0.05962176 -0.22668386
-0.25550982 0.2752106 0.03383576 0.24613495 -0.20974517 0.08573813 0.22300297 -0.23502202
0.079965636 0.28060994 0.12958854 0.16413671 -0.35593557 0.080722965 -0.17928645 -0.12691209
0.054930784 -0.019522758 -0.08937144 -0.106663965 -0.0100581795 -0.22526194 0.37461373 0.20544834
-0.014234948 -0.053390514 0.29372194 -0.22195409

bias f4 [10]
00000000: 1f0d 3d3f 821c ccbe e679 f1bd 94bd 9cbc
00000010: d5e9 bebd d49c 3dbf 7739 bebe b958 863f
00000020: 0471 3e3f e99a 6c3f
0.73848146 -0.398655 -0.117908284 -0.019133367 -0.09321944 -0.74067426 -0.37153217 1.0495826
0.743912 0.92423874

weight f4 [10, 10]
00000000: 3897 8bbe 7dc3 3ebe 1147 f53d 0211 b9bd
00000010: d0b7 7f3e 5d1f 6abd 039f 9abe 3a5c 70bc
00000020: 2e5d 8cbe 3adf d93d 710f 50bf 6694 e63e
00000030: 7951 c63c 71e2 f73e 66e6 f53e 634e 84be
00000040: af4d b83e 9edf 2cbe 95b4 c6be 2540 953e
00000050: 3b12 17bf 65b7 e43e d804 fabb 6f79 6d3e
00000060: 54bb f63e 64bf 313f 72e0 f53e 9f2b 4dbf
00000070: 80fb 01bf bab2 993e 13c0 1a3e 0cab cebd
00000080: 04e0 b73e 51a3 80bd 697b 3abe c12d 64be
00000090: b0d1 d23d d7dc 323f bfb4 893e 437f 453f
000000a0: 09ac a13e eeb9 ecbd 490c 263e cb31 cabd
000000b0: f231 2bbd 236a 59bd cc1c 42be f7e6 723f
000000c0: 0cf3 9e3e c5dd 143f 2a97 0fbf dd15 0b3e
000000d0: 3457 b23e 5feb 1d3e 97cf be3e 39e2 2b3f
000000e0: 1238 2b3e cc80 0fbf 9ce7 06be cc36 6e3d
000000f0: 5167 82be 3b91 0fbe 2b27 47be 47b0 713d
00000100: d5fb f6bd 83df 8dbd 5ed4 6e3e 192d 12be
00000110: 7ae1 ca3d e35b 1ebd 5489 84be 8b98 c83b
00000120: 0280 00be c9a8 4a3d 28de 93be 3e84 87be
00000130: 5cf7 893d 82ac bfbc 8517 ae3d 67c9 a9be
00000140: dd40 28bf d63a fa3d 7ca1 223f b17e 5a3e
00000150: 6162 e63e e30d 3b3e 29b6 bf3e 9ce7 2ebf
00000160: ab98 e33c 5d2d 813f 838c a3bf b16a fb3e
00000170: 3651 a93e 8657 9b3e 60c3 cdbd 67fd ecbd
00000180: a5e8 ff3c 0527 1abf 9cb6 fdbd 85a0 23be
-0.27263808 -0.1862926 0.119764455 -0.09036447 0.24972463 -0.057158817 -0.3019944 -0.014670426
-0.2741484 0.1063828 -0.8127356 0.45035094 0.024208771 0.4841495 0.48027343 -0.25841054
0.35996768 -0.16882178 -0.38809648 0.291505 -0.5901219 0.4467117 -0.007629972 0.23190854
0.48189795 0.69432664 0.480228 -0.80144686 -0.50774384 0.3001917 0.15112333 -0.10091218
0.35913098 -0.0628115 -0.1821114 -0.22283079 0.10293901 0.69868225 0.2689571 0.7714731
0.31576565 -0.11558901 0.16215624 -0.098727785 -0.04179568 -0.053079735 -0.18956298 0.94883674
0.31044805 0.58150893 -0.56090033 0.13582559 0.34832156 0.15421818 0.37267753 0.67142063
0.16720608 -0.56055903 -0.1317429 0.058157727 -0.2546945 -0.14020245 -0.19448535 0.059006
-0.12059752 -0.06927397 0.23323199 -0.14275016 0.099062875 -0.03866185 -0.25886023 0.0061217
-0.12548831 0.049477372 -0.2888043 -0.2646808 0.06736633 -0.023397688 0.0850058 -0.3316147
-0.65723974 0.12218253 0.63527656 0.21337391 0.44996932 0.18267016 0.37443665 -0.6832216
0.027782759 1.0091969 -1.2777256 0.49104837 0.33069772 0.30340213 -0.100470304 -0.1157177
0.031238863 -0.6021579 -0.123883456 -0.15979202

bias f4 [10]
00000000: b3ef 83be 20da 2e3e 4440 aebe 143d fa3e
00000010: 8355 053f 63f7 443c f2fb 16be 9ff0 31bc
00000020: 37ca 32be a236 853e
-0.25768813 0.17075396 -0.34033406 0.48874724 0.52083606 0.012021872 -0.14744547 -0.010860591
-0.17459951 0.26018244

weight f4 [10, 10]
00000000: f83a babd b364 e83e b484 f93d f0d6 963f
00000010: fa57 e1bd d997 8a3d 2bc6 22be 6510 00be
00000020: 16c3 7e3e 7751 e33e fb84 c1bd 3aa1 293d
00000030: 5334 763e 156e 3a3d 45d8 9cbe 77aa 70be
00000040: ea46 313e befa 6a3e 0c74 66be 5d0a 21be
00000050: 0d8f 733e d902 d43d 46db c33e 2a43 0d3f
00000060: 3fbb 093f 27f8 113e 1202 2d3e 771a c63d
00000070: 21db d23c 575b 983e bdee 463e fb12 013e
00000080: 8e10 863e 4cf2 1bbe 1e6b 2abf f702 b63e
00000090: a27b 52be 4eff 483e 8789 ee3e 05ef 553e
000000a0: 3472 25be 5ddf 193e e7ba 283e 6c77 fe3e
000000b0: 23c6 6e3e 1a87 6bbe dd24 45be b751 0c3e
000000c0: c092 abbc 7bcc 25bf 37c2 33bd c647 25be
000000d0: ff90 debd 1e3f 2e3f 276d 4e3f 5566 8abd
000000e0: 5f37 963e 828b 85be 7b97 3d3e 32e9 673d
000000f0: e334 6d3e 98d9 b63c 1bfe 5dbe 4cc9 f03e
00000100: f7e2 2b3f 22cd 8d3a 1285 853e 4852 c53d
00000110: b4fe fb3d 5443 73bd 9a7b 813e 9d19 8d3d
00000120: 19d5 df3e 260f 0e3f c8c6 f9bd b924 c23e
00000130: 8730 93bd 3c5c 2a3e b4bf a83e 4b75 c83e
00000140: 3b4a 84bd 4bec bd3e 67eb 6dbe aad7 033f
00000150: 75de 723e 5e71 00be 69b5 99be 69f1 433d
00000160: d1fa 46be 65f0 25bc 6823 78be bb10 063e
00000170: eee5 c83e 5335 f1be 6690 f5be d7c7 ea3e
00000180: b841 93bd 90d0 ee3d e330 e73e e404 bf3c
-0.09093279 0.45389327 0.12183514 1.1784344 -0.11003108 0.06767244 -0.15895908 -0.12506254
0.24879107 0.4439809 -0.09449192 0.041413523 0.24043398 0.04551514 -0.3063375 -0.23502527
0.17312208 0.22947213 -0.22505206 -0.1572661 0.23785038 0.10352106 0.3825323 0.5518061
0.5380134 0.14254819 0.16895321 0.096730165 0.025739254 0.29757187 0.19427009 0.12604897
0.26184505 -0.15229148 -0.665697 0.35549137 -0.20554975 0.19628641 0.465893 0.2089196
-0.16156846 0.15026613 0.16477548 0.49700487 0.2331777 -0.23000756 -0.19252343 0.13703047
-0.020944 -0.6476514 -0.04388639 -0.1614066 -0.108674996 0.6806506 0.80635303 -0.067577995
0.2933912 -0.26083 0.18514816 0.056618877 0.23164706 0.022320554 -0.21678965 0.47028577
0.67143196 0.0010818581 0.26078087 0.096348345 0.1230444 -0.05939038 0.25289613 0.06889651
0.43717268 0.55491865 -0.12196118 0.37918642 -0.0718699 0.16636747 0.32958758 0.39151987
-0.06459471 0.3709434 -0.2323433 0.5150095 0.23717673 -0.12543246 -0.30021217 0.04783765
-0.19431616 -0.010128115 -0.24232256 0.1309232 0.39237922 -0.47110996 -0.4796173 0.4585559
-0.07190269 0.11660874 0.45154485 0.023317762

bias f4 [10]
00000000: a7d2 b83e ac9f 81be 6879 9f3e 437a 87bc
00000010: a21b b93e 3312 6e3f 3cef f83e 21f9 9c3d
00000020: 5564 533f b51d 79be
0.36098215 -0.25317132 0.31147313 -0.016537791 0.36153895 0.9299652 0.4862002 0.07664705
0.8257497 -0.24327739

weight f4 [10, 10]
00000000: 718d 4b3e a2cd 44be 7c73 463e b2ae 98bd
00000010: d131 113f 3edd 8e3f a4d1 4d3f 6df5 17be
00000020: 9f41 3f3f fd7f edbd b6af a2bd 2ff4 b43c
00000030: f0ae 003f 03c3 10be fe61 efbe a786 ba3f
00000040: 1e32 953f 0dd4 be3c 0c32 6a3f 15bf 29be
00000050: ee2d c73e c96d 22be a129 463e 5de7 d03c
00000060: cdfd 9f3d 0a4d 91bf 3d7d 44bf 122a 86bd
00000070: 138f 63bf 24bc d73e 481b fc3e 0e78 963d
00000080: d9ad 7ebd b5ce 843e 3b66 ca3f 349d d9be
00000090: 54d6 19bf 07e5 2e3e 93de 93be dbb4 e93d
000000a0: 0815 33be 643b 193e a82f cfbd 7f70 4e3e
000000b0: 3ada 493e 2fea e1bc f04a f3bd ae85 2dbe
000000c0: 53aa e1bd 3a90 003e c915 49be d759 2abd
000000d0: be73 283e 7204 2e3d 9e38 6d3e 9278 0c3f
000000e0: dc9d 7b3e 66ed 2d3e ad00 35be ca04 18be
000000f0: b048 0ebd f523 d2bd f2bd 2bbe 9b4a 423e
00000100: ce09 d8bd 7622 8cbe b6c2 963e b689 a4be
00000110: 9b2b 873d 5af1 2c3e 92a8 413e 1c1d 55be
00000120: 8ad9 1e3e 4942 68be e216 263f 5e5d 913f
00000130: 43bb 483f 591b 523e 397f 3e3f c38d 9abe
00000140: 6319 2f3e 6d84 893e 23f0 19bd 7353 433e
00000150: bdf8 d43e 153a a63f 7273 863f b449 2dbe
00000160: c23a 133f ea06 2abe 93f4 003f a3b7 93bd
00000170: 39af e73e 3ff5 ea3e a4c4 b9be 2f66 92bf
00000180: 75af 9cbf c473 013f f31d 1cbf 35f4 8b3e
0.19878174 -0.19219068 0.19379991 -0.074551955 0.5671664 1.1161268 0.8039801 -0.14839716
0.74709505 -0.115966775 -0.079436705 0.022089092 0.50266933 -0.14136891 -0.4675445 1.4572343
1.165592 0.023294473 0.91482615 -0.16576798 0.3890223 -0.15862192 0.19351818 0.025500948
0.078120805 -1.1351635 -0.767536 -0.06550993 -0.8889019 0.42135727 0.49239564 0.07347117
-0.062177513 0.25938955 1.5812448 -0.4250275 -0.60092664 0.17079554 -0.28880748 0.114114486
-0.17488492 0.14964062 -0.101165116 0.20160101 0.19712153 -0.027577488 -0.118795276 -0.16945526
-0.11018815 0.12555018 -0.19637217 -0.041589584 0.16450402 0.042484708 0.23166129 0.54871476
0.24571937 0.16985092 -0.17676039 -0.14845577 -0.03473729 -0.102607645 -0.16771677 0.18973772
-0.10548745 -0.27370042 0.29445428 -0.32136315 0.06600114 0.16888943 0.1891196 -0.20811886
0.15512672 -0.22681536 0.64878666 1.1356618 0.7841074 0.20518245 0.74412876 -0.3018628
0.17099528 0.26858845 -0.037582528 0.19074802 0.41596022 1.2986475 1.0503981 -0.16922647
0.5751153 -0.166042 0.5037319 -0.0721276 0.45250872 0.45890233 -0.36282837 -1.1437434
-1.2241045 0.5056727 -0.609832 0.27334753

bias f4 [10]
00000000: f103 193f 16f8 6b3f 4c2f e73d 5503 8bbc
00000010: 9366 94bc f942 c13e 7a23 65be a546 033f
00000020: 53da 043f bd66 57be
0.5977164 0.92175424 0.11288318 -0.016969362 -0.018115317 0.3774641 -0.22376814 0.5127967
0.51895636 -0.21035285

weight f4 [10, 10]
00000000: ed37 2ebe 9a54 8dbf eebf 843e decc 723e
00000010: 812d 87be c5a2 1ebe c6b4 903d 369e 2bbf
00000020: 0e03 70bf 3d4d 913e 4052 a4be ba3b bf3d
00000030: b94a a4be b292 a83d a06d 2ebe 48ac 7ebd
00000040: df24 21be d2a6 fbbd 80df 823e e0d0 3bbd
00000050: a6ab 44bf ceac 62bf 0638 243e dbef 9f3d
00000060: ccda 79bd 644c 9ebe 7cba d0bd 4401 31bf
00000070: a926 5abf 5a78 c13e 9a66 2cbf a1c3 e0be
00000080: 4e92 243e eb02 a03e c305 b6bd 125c b6be
00000090: 1845 57bd 2258 54bf bae8 02bf 171b 123e
000000a0: 33d3 afbe 3b18 0cbf ea92 863d 38ef 1a3e
000000b0: bc65 8cbd cd32 78be 9ab2 023d 1a86 7dbf
000000c0: 16b5 44bf ac00 923e 7dd3 0bbf 8626 35bf
000000d0: 741f f63e 8f1c ad3e 6be2 4ebe dd9d c43d
000000e0: e089 3f3e 731b 37bf 1204 1ebf f164 513e
000000f0: 6fa6 003f e7dd d73d ee3f 943c 82d0 d53e
00000100: 33b8 f4bc f663 623e 28d7 10be 2256 133f
00000110: 6780 853e fd9c 9abd f46d 07bf 8aea 8cbf
00000120: 9cc1 d03e ee0d a23e 7229 49be 917d 803e
00000130: bfdf 793e 7ce3 b5be e4c4 48bf 029f 013f
00000140: a3c5 e6be 665b 95bf 2067 8e3e cdd7 8f3e
00000150: b3b5 743e 7055 20be e784 65be ba7a 96bf
00000160: 9be3 49bf 521e a93e bd26 29bf 4c0f 29bf
00000170: 9264 63bd d705 8a3e 5637 983e ab9a b5be
00000180: 8125 f3bd 7a33 fabe 5e53 18bf 713e 773e
-0.17013521 -1.1041443 0.2592768 0.23710963 -0.26401904 -0.15491779 0.0706573 -0.67038286
-0.9375466 0.2837924 -0.32094002 0.09337564 -0.3208826 0.08231105 -0.17034006 -0.06217602
-0.15736721 -0.12287678 0.25561142 -0.045853496 -0.76824415 -0.8854493 0.16036996 0.07809421
-0.060999677 -0.30917656 -0.10191819 -0.69142556 -0.8521524 0.37787133 -0.6734406 -0.43899253
0.16071436 0.31252226 -0.08887818 -0.3561712 -0.052556127 -0.8294698 -0.5113636 0.14268146
-0.3434082 -0.5472447 0.065709904 0.15130317 -0.06855342 -0.24238129 0.03190861 -0.9903275
-0.76838815 0.28516138 -0.5461958 -0.7076191 0.48070872 0.3381085 -0.20203559 0.096004225
0.18704939 -0.7152626 -0.6172496 0.20448662 0.5025396 0.105403714 0.01809689 0.4176064
-0.02987299 0.22108445 -0.14144576 0.57553303 0.26074526 -0.075494744 -0.5290215 -1.1009076
0.40772712 0.31651253 -0.19644716 0.250958 0.24401759 -0.3552512 -0.7842543 0.5063325
-0.4507266 -1.1668518 0.27813053 0.2809433 0.23897438 -0.15657592 -0.2241398 -1.1756203
-0.78862923 0.33030945 -0.66074735 -0.66038966 -0.055515833 0.2695758 0.29729718 -0.35469565
-0.11872388 -0.48867399 -0.5950221 0.24144913

bias f4 [10]
00000000: 47b1 923e fa93 02bc 0e09 6f3d f807 943e
00000010: e0f7 753d b410 55be 3ba5 cc3e 6ffd 82bd
00000020: 3a73 bd3e 9f01 e4bd
0.28650877 -0.007969851 0.058358245 0.2891233 0.060050845 -0.20807153 0.3996981 -0.06395995
0.37001973 -0.11133122

weight f4 [10, 10]
00000000: 5aba 0dbf b2e0 44be d796 05be af1b edbc
00000010: b7aa 79be 231c 843e 1124 da3b 5ad7 9a3d
00000020: 7417 0abf 3624 343d 25e7 d83e 9155 1a3e
00000030: 7c2d cf3e cee0 c53e 6c64 c1ba 31bc fe3e
00000040: 45a2 79be 3b08 303e 28cd 803e 48c9 ae3e
00000050: 34b3 993e 7a26 8f3e c3a7 313e f3e4 adbd
00000060: eba4 323e 95b0 273e de2c 3ebe 6d87 de3e
00000070: 4c43 993e 3f56 3c3d 5f93 013f 2f54 073e
00000080: d067 1abc 7928 c53e c151 973e 8717 eb3e
00000090: fea5 bb3d 5581 dc3e d5f8 be3b c613 7b3e
000000a0: c945 63bd e4b5 373e b6b3 4bbe 6e8c a0be
000000b0: 0eb8 debc 1d89 84bc 5959 d63d 1440 bb3d
000000c0: 9fe6 4ebe 7e7c 45be c058 813e 0697 5a3e
000000d0: 02c3 223b fa09 a0be c31c 0e3e c11f b2be
000000e0: 093e 2abd 983b 41be 9bdc 8f3e c595 843e
000000f0: cb94 f03d 78fe 70be 4290 00bf 9be9 08be
00000100: d5b2 d0be e805 12bd 0dc8 df3e f3e6 c63b
00000110: baae 13be ee7d 8cbe 406e 59be f98a 0cbc
00000120: d06d f5be d545 1dbf e3b9 9fbe 8af8 df3d
00000130: f30e 143f 83ac 5f3e e982 1fbe fbc6 0cbf
00000140: 2f77 d4be c4ec 703e 7199 b4be 1019 9dbe
00000150: b086 1dbe 0168 60bd 7cb9 033f 97dd 193e
00000160: 0158 57be f921 2abd cdb3 b8bd 40cd 843d
00000170: 0495 17bf 77c2 a2be 4a81 20bf 6a82 503e
00000180: 392e c63e 0557 b03e 3824 bfbe a416 c8be
-0.55362475 -0.1922634 -0.13045822 -0.028943865 -0.24381529 0.25802717 0.0066571315 0.07560606
-0.53942037 0.043979846 0.4236385 0.15071703 0.4046439 0.38648075 -0.001475466 0.49752954
-0.24378307 0.1719064 0.25156522 0.3413794 0.30019534 0.27959043 0.17349152 -0.08490934
0.17445724 0.16375954 -0.18571803 0.43462697 0.29934156 0.04598069 0.50615495 0.13215707
-0.009424165 0.3850744 0.2955456 0.45916387 0.0916252 0.43067423 0.005828003 0.24519262
-0.055486474 0.1794048 -0.19892773 -0.3135714 -0.027187373 -0.016178662 0.104662605 0.09143081
-0.20205162 -0.19285771 0.25263023 0.21346673 0.0024835472 -0.31257612 0.13878159 -0.3478985
-0.041563068 -0.1887039 0.28097996 0.25895515 0.1174713 -0.23534572 -0.5022012 -0.13370363
-0.40761438 -0.035650164 0.43707314 0.0060700118 -0.14422122 -0.27439827 -0.21233463 -0.008578056
-0.47935343 -0.6143468 -0.31196508 0.10936077 0.5783531 0.21843152 -0.15577282 -0.5499112
-0.4149718 0.23527819 -0.35273317 -0.30683184 -0.1538341 -0.054786686 0.514549 0.15025936
-0.21029665 -0.041536305 -0.09018669 0.06484461 -0.59211755 -0.3178899 -0.6269728 0.20362249
0.3870714 0.3444139 -0.3733232 -0.39079773

bias f4 [10]
00000000: fb75 f8be 9072 69be 4173 1f3d ef27 abbe
00000010: 293b 9d3f 655c a7be 6170 9a3f 9e8e cf3e
00000020: d5cf aa3f 2234 173e
-0.48527512 -0.22797608 0.038928274 -0.33428904 1.2283679 -0.3268768 1.2065545 0.40538496
1.3344675 0.14765981

weight f4 [10, 10]
00000000: 74f3 b7bc 338c 633e a540 05be bd5f 3ebe
00000010: 3b5e 833d 2bad b3bd 5eea 9c3e 77d3 9abe
00000020: ae8a 0bbe b3ec 8bbb 7ab0 bb3d de43 9d3d
00000030: e45b d9bd 2312 773e cb4f 973e 2bcf 1f3e
00000040: ab8f 58bd fc5c 063e 83a6 973e 08de 843e
00000050: a93f 41be 2818 853d 07a2 eb3c eb7d 7d3e
00000060: b782 9d3d 2623 863e d390 28be 21f7 6c3e
00000070: e11f 07be 6afb 86be b62a 09be d407 cb3c
00000080: 6e1e 23be 0004 2fbe d33b 3cbe 50f5 79be
00000090: 5a4f 3f3e f830 fdbd ed73 4ebe 325a 1bbe
000000a0: d801 99be 4b5b 8d3e 1b53 8b3e 5ed8 90be
000000b0: e622 9b3e 5414 313e e90d 3d3e 5322 55be
000000c0: 19f5 60be d50b a3bd aaf1 843e e69e 063e
000000d0: 7bb1 763e 8780 813d b0d6 54be 9348 aebb
000000e0: dcb5 8fbe 2969 2dbd d3da 18be 2a1c 59be
000000f0: 6714 573e f383 3dbe 2dee 8dbd 9041 28be
00000100: 67c9 25bd 7ee2 62be af54 753e d62b a1be
00000110: 44ca 5ebe 9018 27bd 80a7 c7bd 2e64 6a3e
00000120: 9ccd 723e 7166 5f3e 49fb 30be 9283 313e
00000130: 2b9c 80be fae8 adbd 8679 553e 5f5d 7cbd
00000140: b40b 7d3e 00bc a83d 8573 32be 1a30 9dbe
00000150: 4f4b 47be e698 aeb9 fdbd 8f3e b178 d33d
00000160: f619 853e 7878 9dbe aab2 3abb 92b1 8f3e
00000170: f899 6c3e da18 543e 7fb5 013c e619 9a3e
00000180: 384f 48be b276 b3bd dc63 98be fd3a 85be
-0.022454955 0.2222145 -0.13012941 -0.18591209 0.064144574 -0.087732635 0.30647558 -0.3023946
-0.13627121 -0.00427016 0.091645196 0.0767896 -0.1061323 0.24128012 0.29553065 0.15606372
-0.052871387 0.13121408 0.29619226 0.25950646 -0.1887194 0.06498748 0.028763784 0.24755065
0.076909475 0.2619869 -0.16461496 0.23141147 -0.13195755 -0.2636369 -0.13395199 0.024784006
-0.15929577 -0.1709137 -0.18382196 -0.24409986 0.18682614 -0.12362856 -0.2016141 -0.15171126
-0.2988422 0.27608714 0.27211842 -0.28290075 0.30300063 0.17292911 0.18462338 -0.20813875
-0.21968497 -0.07961241 0.25965625 0.13146552 0.24091141 0.06323343 -0.20785022 -0.00531871
-0.28068435 -0.042336617 -0.14927225 -0.2120215 0.21003877 -0.18507366 -0.06930194 -0.1643126
-0.040475275 -0.22156712 0.23958085 -0.31478757 -0.21756846 -0.04079491 -0.09748745 0.22889778
0.23711246 0.21816422 -0.17283358 0.17335346 -0.25119147 -0.084917024 0.20847139 -0.061612483
0.24711496 0.08238983 -0.1742688 -0.3070076 -0.19462322 -0.00033301784 0.28074637 0.103257544
0.2599637 -0.30755973 -0.002848784 0.28065163 0.2310561 0.20712605 0.007916807 0.30097884
-0.1956147 -0.08762874 -0.29763687 -0.26021567

bias f4 [10]
00000000: 2816 5bbb 7cf2 79be b969 8a3e e4d6 83bd
00000010: f246 0cbe b668 9ebd 46d6 633e a858 da3c
00000020: 3ea6 e23d ef30 b43c
-0.0033429954 -0.24408907 0.27033785 -0.064374715 -0.13698938 -0.07734816 0.22249708 0.026653603
0.110668644 0.02199599

weight f4 [10, 10]
00000000: 50b3 2e3e 1cb5 0cbd 1a21 5cbe 63fa 23be
00000010: ade2 0cbe 25ca 7fbe 3855 47be 581d 833e
00000020: a88a fd3d d74b 3d3e 41a9 833e bd44 833e
00000030: b35a 9b3b 8508 75bc aa38 913d a97c c9bd
00000040: 7c00 f63d befe 6dbe 45fb ec3d 8c19 9abe
00000050: 9331 d2bd 4485 10bd a835 973e 2333 123d
00000060: dbd8 8d3e eaf8 20be a1f1 38be bd21 1cbe
00000070: 9bfc 87bd 0c36 723e 1b42 4dbd d6d9 bdbd
00000080: 18a5 9bbc 8cf0 9a3e 5bc7 33bd ad2e 9fbe
00000090: f136 9abd 9e2a f9bb 294d 95be 7ba3 913e
000000a0: 38ec d43d 5635 38be 43cf 6fbe 4bb4 a53c
000000b0: 7722 9c3e 7e5a 893d 7fd9 b3bd 52d0 85bc
000000c0: 94cb 34be 7ee7 1b3e f9ce e5bd 1d76 16be
000000d0: f5d2 c0bd 8e51 3f3e d183 5ebe a829 fa3d
000000e0: c9bd 593d c56d f13d f86e c3bd 0c30 53be
000000f0: e880 253d 8077 25bc 613f 30bb fabd 94be
00000100: 694c 8ebc 18de 553c f547 873e c932 99be
00000110: 1c92 8fbe 6a55 c3bc 53b7 06be b283 efbc
00000120: ef88 893e d2e2 3c3d bc52 313d f5ca 88be
00000130: 8e58 5ebe f974 023d 3120 0a3e 1c94 54bc
00000140: 62f3 9f3d 7c77 873e 7989 20be 3799 75be
00000150: eae8 2e3e 8f13 03b9 56a4 473e 074c 93be
00000160: dda4 fd3d 9691 13be d24c 4cbe ef0c 79be
00000170: 460c 873e 79c5 0f3d 9cbc 86be 004a 81be
00000180: 95ca 513d c329 663e 8483 a03e b081 353e
0.1706059 -0.034352407 -0.21497002 -0.16013484 -0.13758345 -0.24979456 -0.19466102 0.25608325
0.12379962 0.18485962 0.25715068 0.2563838 0.004741037 -0.0149556445 0.07090886 -0.0983823
0.12011811 -0.23241708 0.11571363 -0.30097616 -0.10263362 -0.035283342 0.29533124 0.0356933
0.2770451 -0.15719953 -0.18060924 -0.15247245 -0.066399775 0.2365343 -0.05011187 -0.092700645
-0.018999621 0.30261648 -0.043891292 -0.31090298 -0.075300105 -0.0076039573 -0.2916043 0.28445038
0.10396618 -0.17989096 -0.23418908 0.020227572 0.30495045 0.06706713 -0.087817185 -0.016334686
-0.17655784 0.15225026 -0.112211175 -0.14693494 -0.09415237 0.18683454 -0.21729971 0.122149765
0.05315951 0.11788515 -0.0954265 -0.20623797 0.040406138 -0.010099292 -0.0026893246 -0.2905119
-0.01737042 0.01305344 0.26422086 -0.29921558 -0.2804116 -0.02384444 -0.1315587 -0.029237602
0.26862285 0.04611475 0.043291792 -0.26717344 -0.21713468 0.031849835 0.13488843 -0.012974765
0.078100935 0.26458347 -0.15677442 -0.23984228 0.17081037 -0.0001250042 0.19496283 -0.28768942
0.12384961 -0.14411005 -0.1995118 -0.2432134 0.2637655 0.035100434 -0.26315773 -0.2525177
0.051218588 0.22476868 0.31350338 0.17725253

bias f4 [10]
00000000: f899 853e 3089 1bbe 355d c13d 0ae9 973e
00000010: 5874 ddbd e157 023e 5c8e 643e e92c 9e3e
00000020: f386 7ebe 787d 473e
0.2609403 -0.15189052 0.09441606 0.29669982 -0.108132064 0.12728836 0.22319931 0.3089364
-0.24856167 0.19481456

weight f4 [1, 10]
00000000: 9683 9bbe a524 8dbe 7076 cdbe 4af2 93be
00000010: 1082 7a3f b881 873d 5f10 993f fff6 fe3e
00000020: fe47 7e3f 6edf c23e
-0.3037383 -0.2756702 -0.40129423 -0.2889579 0.9785471 0.06616539 1.1958121 0.49797818
0.993286 0.38061088

weight f4 [10, 2]
00000000: 4636 493f 04f2 b33e 4f38 64bf fbfd cf3d
00000010: d9fe c7bd 8326 143f 2a8d 40bf 5501 0abf
00000020: 914e 1fbf 5569 02bf 5a41 333f eff1 e63e
00000030: 31b3 8f3f c333 e03e a604 183f dda5 09bf
00000040: e65c 7fbd fba0 943d d9dd 92be 9206 19be
0.7859844 0.3514558 -0.8914842 0.10155865 -0.09765405 0.57871264 -0.752154 -0.5390828
-0.6222926 -0.50941974 0.70021594 0.45106456 1.122656 0.4378949 0.5938209 -0.5376871
-0.062344454 0.07257267 -0.2868488 -0.14943913

bias f4 [10]
00000000: 9627 243d 700d 75bf e928 4abe f831 babe
00000010: 213b 403f 55af 8c3e 19a9 4bbe 62c2 9c3e
00000020: 88cc a8bf 02eb 98bf
0.040076815 -0.9572363 -0.19742168 -0.36366248 0.75090224 0.27477518 -0.19888724 0.30617052
-1.3187418 -1.1946719

weight f4 [10, 10]
00000000: ebb2 193d 9371 73bd a21d 0dbe 111a 5e3c
00000010: 5c2b 2fbe d3c0 57be 8da9 96bd e28e 0f3c
00000020: d794 453e 37ff c43d c92c ab3e cecd 2dbf
00000030: 90dc 6dbe 55c3 813c 3da0 cb3c 83f4 d33e
00000040: 2d01 d43e f471 16bf 0100 693e 48c7 683e
00000050: 9ee6 b2bc 7354 1a3e 7b7e 95be 0c98 b33e
00000060: 85a3 083f d5e1 b83e c68e 04be a51b c8be
00000070: 9803 44be 46e0 8b3d 0123 f03e 4f47 bf3e
00000080: 4bd8 51be 44ef ba3d cefd 66bd 5bfe 763e
00000090: 7480 0bbe b774 4a3e 03d0 00be f241 073f
000000a0: 84e6 e7be 47d1 8b3e cf01 b53e cc77 2cbd
000000b0: 9429 80be b856 0fbe 496a 493d 1fda 383f
000000c0: 9841 403e ee16 303e 5bcc debd 6e18 8c3d
000000d0: 6ba8 b13e 8dd2 3f3e bcf9 4a3e c772 983e
000000e0: 858b 8a3e c620 963d 4541 8d3e 610e 723e
000000f0: e164 43be 4340 4ebe ca88 47be cbed 463c
00000100: 020f 89be 776c 273e c1c5 853d dc22 2dbe
00000110: aee8 0b3e 216c 183e 06f9 debd d1cc 563d
00000120: b80c 833d 32fe a23e 6684 393e 1911 bb3e
00000130: b0f1 113c 1d88 693d 023b de3d cb7a 893e
00000140: 4d0c 6b3e 792d ebbe 27d9 ab3e 059c 603d
00000150: 3de0 a8be e2c6 5dbd 33eb 833e 1bcd b1be
00000160: d510 663e 81ef efbe 8b96 8d3e a927 f03d
00000170: 9049 993d 79fb afbd 99b9 8dbe be77 a03e
00000180: 3764 193e c2ef 9a3e d2f6 e0bd 8df5 9fbc
0.037524145 -0.059434485 -0.13780835 0.013556019 -0.17106384 -0.2106965 -0.07356558 0.008762093
0.19295059 0.09618991 0.33432606 -0.6789216 -0.23228669 0.015840212 0.024856681 0.41397485
0.41407147 -0.5876763 0.22753908 0.2273227 -0.021838482 0.15071277 -0.2919806 0.3507694
0.5337451 0.36109796 -0.12945089 -0.3908359 -0.19141996 0.06829886 0.46901706 0.37359092
-0.20492665 0.091276675 -0.05639439 0.24120466 -0.1362322 0.19771086 -0.1257935 0.52835
-0.45293057 0.27308103 0.35352942 -0.042106435 -0.25031722 -0.13997924 0.049173627 0.72207826
0.18775022 0.17196247 -0.108788215 0.06840597 0.34698805 0.18732662 0.19821829 0.29775068
0.2705957 0.0733047 0.2758886 0.23638298 -0.19081451 -0.20141701 -0.19485775 0.012141655
-0.26769263 0.1634997 0.06531859 -0.16907829 0.13662979 0.14884998 -0.10887341 0.052441422
0.0639891 0.3183456 0.18116912 0.36536482 0.00890772 0.057014573 0.108510986 0.26851496
0.22953911 -0.4593313 0.33564112 0.05483629 -0.3298358 -0.054144748 0.2576538 -0.34726796
0.22467358 -0.46862414 0.27653918 0.117263146 0.07484734 -0.085928865 -0.27680662 0.31341356
0.14979635 0.30261046 -0.10984577 -0.019526267

bias f4 [10]
00000000: f3e1 45be 8bf3 a7bc 8d65 a03e 3c7e b03d
00000010: 5538 19be 67e7 06bf 1a11 28be 05be 043f
00000020: e649 f93e 2e99 c2be
-0.19324474 -0.020501873 0.31327477 0.08617827 -0.14962895 -0.5269684 -0.16412774 0.51852447
0.48689193 -0.38007492

weight f4 [10, 10]
00000000: 0092 d8bc 428b 2a3e 801b ce3e ce26 afbd
00000010: 2d90 febe 2eb3 40bd 4d32 cf3d 263e 0dbd
00000020: 3e34 4c3e 4655 0d3e 9ac0 7b3e e067 8b3e
00000030: 9e91 d1bd 76d2 8fbe fd8a 03be 6872 3bbe
00000040: 4530 003d da53 f63d 5803 45be f194 94be
00000050: 6d54 2bbe 92c9 cdbe 9254 c0be 4b8a 98bd
00000060: 27b3 7e3e 7d06 98bd d47a 983e f2d1 74be
00000070: 8fe5 c7be b65f b83c 58bf 67be 228f 02bf
00000080: e6fd 8e3b a77d 43bd ff51 063e f1bf 52be
00000090: dad1 9d3d 5d7a d03d fab6 96be 7119 0dbb
000000a0: 27b1 95be d564 d9be b834 9a3e dc1e d13e
000000b0: 2353 363e ab08 cd3e 4115 43be e843 923e
000000c0: a394 82be 1080 043e b74c a63d 6e49 ac3e
000000d0: c889 8e3d 34c4 223c c88e 2bbe ee6e 7f3e
000000e0: 2e98 663e 6907 b03e 55f9 b73d 6ab5 603d
000000f0: 15ec 9fbe 0640 593e e554 c03e 3d55 a03e
00000100: 0a31 c9bd d674 21be c1f7 bdbc 1e4b df3e
00000110: c753 5f3e 8ec1 7fbe 2ccb 80bd 4cf8 bb3e
00000120: acc2 2d3e c04d b8be 735f 92be c02a 8a3e
00000130: 5004 ad3d 9847 a7bd 676b 883e 2b26 163e
00000140: 9f69 953e 4e5b cd3d 61b8 873d 2f83 d1be
00000150: 4611 e5bd b002 873c 35fe 933e a567 3abe
00000160: ff1a a53e d1b6 8bbe f72d a0bc 3f74 eb3d
00000170: da80 0fbf df2f 49be b7b5 2c3e 2703 213e
00000180: 3994 143e 194a 2dbe 56ff d5be 04d5 7ebe
-0.026436806 0.16654685 0.40255356 -0.08552323 -0.49719372 -0.04704588 0.10117016 -0.034483097
0.19941804 0.1380206 0.2458519 0.27227688 -0.102328524 -0.28090256 -0.12845989 -0.18305361
0.031296033 0.12027712 -0.19239557 -0.29019883 -0.16731425 -0.40192848 -0.37564522 -0.07448252
0.24873029 -0.074231125 0.2978121 -0.23908213 -0.39042327 0.022506576 -0.22631586 -0.50999653
0.004363763 -0.047727253 0.13117217 -0.20581032 0.07706042 0.10179589 -0.29436475 -0.0021530057
-0.2923672 -0.4245974 0.30118346 0.40843856 0.17805152 0.40045676 -0.19051076 0.28567433
-0.25504026 0.12939477 0.08120101 0.33649772 0.069598734 0.009934474 -0.16753685 0.2494466
0.2251899 0.34380654 0.08983103 0.05486051 -0.31234804 0.21215829 0.3756477 0.31315032
-0.098238066 -0.15767226 -0.023189427 0.43611997 0.21809302 -0.24976179 -0.06288752 0.36712873
0.16968793 -0.3599682 -0.28588447 0.2698574 0.08448088 -0.08167952 0.2664444 0.14662997
0.29182145 0.100271806 0.06626964 -0.40920398 -0.11184935 0.016480774 0.28904882 -0.182036
0.3224716 -0.27287915 -0.019553168 0.114967816 -0.56055987 -0.19647168 0.16866194 0.15723859
0.14509667 -0.16922797 -0.41796368 -0.24885947

bias f4 [10]
00000000: e993 613e c506 863e 61b8 e33d cd7a 8c3f
00000010: 1990 79be 3547 fa3e 01b4 5e3f c5b1 13bf
00000020: 1164 24bf 7fcb cb3d
0.2202908 0.2617704 0.11119152 1.0974976 -0.24371375 0.48882452 0.86993414 -0.5769313
-0.6421519 0.09950923

weight f4 [10, 10]
00000000: d447 973e e257 883e b261 b23e f728 2a3f
00000010: 0217 a93c bc47 973d b1e4 acbe d670 d33e
00000020: 5b67 e63e b09a da3e 2377 8a3d e38e 7d3e
00000030: 307f 88be d838 133f 4272 acbd a2d3 023e
00000040: 4244 e43e 281b d0bd 0e12 bcbe d2a4 d43e
00000050: e8a6 e23e f7a0 1f3e db95 53bf 65b9 7ebf
00000060: 9ef4 b73e 1231 8fbd 0a07 773e 10c6 96be
00000070: 3d71 263d 8459 60bf 3622 2a3c feaa ed3d
00000080: a1b5 a3bf e689 55bf 2cd5 053f dd6b 4a3d
00000090: a2b3 313c f7f6 913e 6cf4 9ebd 637f 9bbf
000000a0: 238f 12bf 2e8a babc f5a5 943d cccc 6e3e
000000b0: b429 613e 1e49 be3d 4f80 22bd d481 693e
000000c0: 24e1 23bd 8eef 9c3e 7630 01bf 5ccd 0fbd
000000d0: f6c9 3c3e d047 893f 6807 37be 1541 973e
000000e0: 38b6 ac3e 59ed 96bc de44 20bd bbcd a13e
000000f0: d0ec 1c3f e9ba 203e 4fd3 00bf 1a18 8dbf
00000100: be6d 973e 6381 903e 58c2 b93e c9cd b83e
00000110: 1cff 1c3e e0f8 93bf 2a39 8ebe 56aa 953c
00000120: 86ed 47be 47dd fa3e b040 a33d 5669 b03e
00000130: bd6f ef3e 77ce 2bbe b053 26be f140 f13d
00000140: a8c2 243e aaf2 4f3e b233 313e 2088 bbbd
00000150: ae96 ddbe dd78 b73e 4406 503c 0bfe 293e
00000160: 8b9d ec3c ee07 913e 76b7 b1be 2324 ce3d
00000170: 246c de3e 6061 263f f287 48bd 9117 d53d
00000180: 1867 283e a8fd 9c3d f59a c9be 3f7c 143f
0.29546988 0.2662955 0.3484016 0.6646876 0.020640854 0.07386729 -0.33768228 0.41297024
0.4500073 0.42696142 0.06761005 0.24761538 -0.26659536 0.5750861 -0.084202304 0.12776044
0.44583327 -0.1016143 -0.36732525 0.41531998 0.44267964 0.15588747 -0.82650536 -0.9950164
0.35928816 -0.06991781 0.24123779 -0.29447985 0.040635336 -0.8763659 0.010384133 0.1160488
-1.2789804 -0.8341354 0.522784 0.049419273 0.01084605 0.28508732 -0.077614635 -1.214825
-0.5724966 -0.022770967 0.07258216 0.23320311 0.21988565 0.0929129 -0.039673146 0.22803432
-0.040009633 0.30651516 -0.5046457 -0.035107955 0.18436417 1.072504 -0.17873919 0.2954184
0.33732772 -0.018423723 -0.039128177 0.31602272 0.6129885 0.156963 -0.5032243 -1.102298
0.29575914 0.28223714 0.36281085 0.36094502 0.15331692 -1.1560326 -0.27777988 0.018269699
-0.19524202 0.48996946 0.079713225 0.34455365 0.46764937 -0.16777979 -0.16242862 0.11779965
0.1608988 0.20307413 0.17304876 -0.09156823 -0.43279022 0.358344 0.012696806 0.16600816
0.028883716 0.28326362 -0.34710282 0.10065486 0.4344188 0.6499233 -0.048957773 0.104048856
0.16445577 0.076655686 -0.39376035 0.58002084

bias f4 [10]
00000000: 415c a8be 0ef6 243f 40cd e9be 1170 6b3c
00000010: a3b9 4cbe b19a 583f c8b4 1fbf 5b4b 1c3f
00000020: b40e 02be 7fbe 523f
-0.32882884 0.6443795 -0.45664406 0.01436998 -0.1999269 0.8461104 -0.62385225 0.61052483
-0.12700921 0.82321924

weight f4 [10, 10]
00000000: 1e1a ac3e f036 76bc dd66 debd bd11 8f3b
00000010: c260 7a3d f22a 20bd b80e b33e ebd4 f5bd
00000020: b681 f0bc c09e 04bf 0356 91bc 212c ba3d
00000030: e866 8abe 6d6a 8abe 6e17 7bbe 50b8 0ebe
00000040: 01c1 2a3e 788b b5bd 6031 2bbe 01d0 8bbd
00000050: da26 783e 98dc 6f3e 57aa f03d 5e96 b9be
00000060: 687a 7d3d ce27 0fbd d38e 86bd 24dd 90be
00000070: 226a 193e 14c5 4cbe 083c c23e c2d0 15bd
00000080: 89d8 043f 7e97 b83e c2bc fdbb 4e52 12be
00000090: 33ee cb3e a7b6 2a3c 4f99 ce3e 4e38 fcbe
000000a0: ac0b 04bf 8ca8 ea3e f352 6abd bca6 013f
000000b0: e863 573c 9d9f bcbe f73f d23e 3792 d63e
000000c0: be65 06bf e3f8 15be 903f 3f3e 8e28 7cbd
000000d0: 81b8 e53e d0c4 c33e 300f 0e3e deea 0fbf
000000e0: 6194 803e 38f1 9b3e 8207 813e dbec 01bf
000000f0: 5416 00be 4b51 cb3e c73e 693e 8fad 2abe
00000100: 2e78 cbbe 8a3f e13d 2f57 6c3e 8f55 263e
00000110: 9365 bdbe 1a7d 72be da97 de3e 3078 ecbd
00000120: 9cb6 ecbe 2d41 d3bc a8dd 78be 5fb0 83be
00000130: 5e0e e13e af8e e8be fe26 ce3e 2f2f 71be
00000140: 6edd 0a3e 787b e83e 8138 cdbd afb8 863c
00000150: f80b 803d fe07 193f d741 25be 4783 b93e
00000160: ba8a 173d 37ca 1a3f 7ac8 b03c 14a5 cb3e
00000170: 8666 5f3e a82d c6bc ce2f a9be 5c7b 063e
00000180: 8d6e debc 7e80 c93c 43be c1be 7d0e 9b3e
0.33613676 -0.015027747 -0.10859463 0.0043661282 0.06112743 -0.039103456 0.34972167 -0.120035015
-0.029358726 -0.51804733 -0.017741209 0.09090448 -0.27031636 -0.2703432 -0.24520656 -0.13937497
0.16675188 -0.08864492 -0.16718054 -0.06826783 0.2423357 0.23423994 0.1175124 -0.36247534
0.061884314 -0.03495007 -0.0657021 -0.28293717 0.14981893 -0.19997054 0.37936425 -0.03657604
0.51892906 0.3605308 -0.007743449 -0.14289209 0.3983017 0.010419524 0.4035134 -0.49261707
-0.5158031 0.45831716 -0.057208013 0.5064504 0.013146378 -0.36840525 0.41064426 0.41908428
-0.52498996 -0.14645724 0.18676591 -0.061562113 0.44867328 0.38236094 0.13872981 -0.56217754
0.25113204 0.30457473 0.2520104 -0.5075204 -0.12508518 0.3971046 0.22777854 -0.1666777
-0.39740127 0.10998447 0.23080133 0.16243576 -0.36991557 -0.23680535 0.4347523 -0.115463614
-0.4623307 -0.025787914 -0.24303305 -0.25720498 0.43956274 -0.4542136 0.40264124 -0.23553155
0.13561031 0.454067 -0.10020543 0.016445486 0.06252283 0.5977782 -0.16138397 0.3623297
0.036997534 0.60464805 0.02157997 0.39774382 0.21816453 -0.024191692 -0.33044285 0.13132995
-0.027152324 0.024597403 -0.3784047 0.3028449

bias f4 [10]
00000000: ea58 5ebf f9a1 69be f098 92be 21f8 bfbe
00000010: a147 c93e 640f b3be 213d 1fbf ec99 363e
00000020: de04 5d3f 9b3b 0c3f
-0.8685442 -0.22815694 -0.28632307 -0.37493995 0.3931246 -0.3497268 -0.6220265 0.17832154
0.8633555 0.5477845

weight f4 [10, 10]
00000000: d27b bebe 0c62 8d3d f807 d53d bfda 88be
00000010: 73b8 b13e cffc 3a3e a7cf 14be 667f cebe
00000020: c8b5 883e 3c24 a03e aefa 7a3e 60dd 00be
00000030: 8188 53bd 0383 aa3e 6397 b6bb 453a d93d
00000040: add7 aebe f0ed b93e 2e1c aabe d408 06bf
00000050: dc73 993d 9e6f 01be 030e 0abe df1f febd
00000060: 25ae 0a3e b787 85bc 8cdd a5be e432 4bbd
00000070: 8630 ef3e 3206 3d3e 4e30 763e 5907 0abe
00000080: 9cc4 43be db64 063f 6a9a f83e 230b da3e
00000090: 297b 0cbd 6d98 803e 9968 25bf 2027 88be
000000a0: d0c4 a13e 136d 6c3e 613f 3ebd 94df 533e
000000b0: c00d b33e 8003 643e 6caa 2f3c 42ab 5f3e
000000c0: e985 e3be 016a 463e 25b7 903e 04a6 67be
000000d0: 05f9 68be 47b3 ff3e 3907 193c fa6e b93e
000000e0: 6d18 163f 51b6 643e 2b1d 8fbe 90b3 b23e
000000f0: db72 b0be 0af0 563e 15b7 4fbe b5de a4bd
00000100: 0b2c 473e 014c c7bd d061 173d 0e44 203e
00000110: 5163 143f 529e b53e 58c5 3dbe ec3f acbe
00000120: a98a 46be f7f3 623e 577a 0f3e 5333 9dbe
00000130: 1165 acbb cb1c fe3c ca69 9e3e bce9 a33e
00000140: 7da9 003f 5a90 553d 8bdc 373c dd55 a03e
00000150: ef57 983e 208d 75bd 1f9a d23e abcd dabd
00000160: e3aa 9dbe b2e5 883e 5bf8 aabd 1a67 7dbe
00000170: 15da 423e 387e 97be 1335 8f3c 99d4 403e
00000180: 093d 25be 6828 a93d 01b2 59bd c489 5bbe
-0.37203842 0.069034666 0.104019105 -0.2672939 0.34711036 0.18260501 -0.14532338 -0.40331572
0.26701188 0.31277645 0.24509689 -0.12584448 -0.051643852 0.3330308 -0.005572246 0.10606817
-0.34148923 0.36314344 -0.33224624 -0.5235722 0.074928015 -0.12640235 -0.13481908 -0.12408423
0.13542993 -0.016300065 -0.3239559 -0.04960908 0.46716708 0.18459395 0.24041864 -0.13479365
-0.1911797 0.52497643 0.4855531 0.42586622 -0.034297142 0.25116292 -0.6461273 -0.2659235
0.3159547 0.23088484 -0.04644716 0.20690757 0.34971428 0.2226696 0.010721784 0.21842673
-0.44438103 0.19376375 0.28264728 -0.22621924 -0.22751243 0.49941465 0.009340101 0.3621748
0.5863102 0.22335173 -0.2795194 0.3490262 -0.34462628 0.20990005 -0.20284684 -0.080502905
0.19450395 -0.097312935 0.036958516 0.15650961 0.57964045 0.3547235 -0.18532312 -0.3364252
-0.19388832 0.22163378 0.14011513 -0.3070322 -0.0052610715 0.031019589 0.30940086 0.32014263
0.5025862 0.052139618 0.011222015 0.31315508 0.29754588 -0.05994904 0.4113321 -0.10683759
-0.3079444 0.26737744 -0.08348151 -0.24746361 0.19028504 -0.29588485 0.017481362 0.188311
-0.16136564 0.0825966 -0.053148273 -0.21439272

bias f4 [10]
00000000: 7a5c 413f 9046 5bbe ed17 183f f1d3 51be
00000010: 124f 19bf 9486 87be 6d2b 7d3f f040 3c3f
00000020: 9819 e5be 4ec8 0d3c
0.75531733 -0.21413636 0.5941151 -0.20491005 -0.59886277 -0.26469862 0.9889439 0.73536587
-0.4474609 0.008653713

weight f4 [10, 10]
00000000: b95d 90be 36ea 3f3f cb6b 87be f1ff 853e
00000010: 0ccf 793d 5e68 033e 9d2a c4be 074f 23be
00000020: 708b 193e 824c 2b3e a181 91be abf1 863e
00000030: 6da3 67be 5605 59be 4fbe 783e 4fb7 62be
00000040: 43e4 a1be a58d 2abd f682 7abe 15b1 803e
00000050: b219 8cbe 37e3 193f 2b03 22be 65e5 803e
00000060: 21eb a63e 1327 a53e d7f8 39bf af34 96be
00000070: f54d c93e 260d 053e 51a6 043e 7c82 143f
00000080: 7f98 71be ff9f 2f3f 0222 ab3e d4ee 983e
00000090: e583 d5be ce58 16bf 77b2 94bd 5d18 50bc
000000a0: ad6a 4b3e 8e71 d8be e62d 1e3c 0d20 ba3e
000000b0: ed95 f13d 6b28 9f3e ec42 46be f270 a1be
000000c0: 6e17 a13e d537 513e c786 263f a5e5 3dbf
000000d0: 6db9 113e 95e8 2d3d 5972 e2bd 4bfa 603d
000000e0: 7d9d 2c3f 6c5f e23e f846 35be c8ee 43bc
000000f0: e897 d0be 4034 bf3e f0db a9be 6d94 153f
00000100: f6fb de3e 971e a2bc e745 22bf 8144 0fbf
00000110: b1c0 cd3d e06e a03e bfdf 85be d2c4 883e
00000120: 8416 01be 546f f8bc 8447 16bc c6c6 77be
00000130: f144 fb3d 59aa d2bc 53c5 193e 1a16 c5bd
00000140: 88c3 c6be 5816 483e 4e11 b6be 8dd9 873e
00000150: d2b7 833e 7ed7 cc3e 5581 22bf 91c4 4fbe
00000160: 9140 1f3c 88ca 6cbd d9df 623d ac2f dcbe
00000170: b37c 51be d7b1 c83d 7e64 963e d7b5 ea3e
00000180: b7b2 233d b773 953c c7b1 fa3e 8dde f93a
-0.28196505 0.7496675 -0.26449427 0.2617183 0.06098847 0.12832782 -0.3831376 -0.15948115
0.14994597 0.16728404 -0.28419212 0.26356253 -0.22620936 -0.21193442 0.24291347 -0.22140239
-0.31619462 -0.04163899 -0.2446402 0.25135103 -0.27363354 0.6011233 -0.15821521 0.25175014
0.32601264 0.32256374 -0.72645324 -0.2933707 0.3931729 0.12993297 0.1295407 0.58011603
-0.23593329 0.6860351 0.33424383 0.2986971 -0.4170219 -0.58729255 -0.07260602 -0.012701121
0.19864912 -0.42274135 0.009654498 0.36352578 0.11796174 0.31085524 -0.19361466 -0.31531483
0.31463188 0.20431454 0.65049404 -0.74178535 0.1423089 0.042458136 -0.11056966 0.054926198
0.6742781 0.44213426 -0.17702854 -0.011958785 -0.40740895 0.3734455 -0.33175611 0.58429605
0.43551606 -0.019789977 -0.6338791 -0.55963904 0.100465186 0.3133459 -0.26147267 0.26712662
-0.12606245 -0.030326523 -0.009172324 -0.2419692 0.12269009 -0.025715994 0.1501668 -0.09623356
-0.38821054 0.19539773 -0.35560077 0.26533166 0.2572618 0.40008157 -0.63478595 -0.20289828
0.009719984 -0.057810336 0.05538926 -0.4300512 -0.20457725 0.09799545 0.29373544 0.45841858
0.039965358 0.018243654 0.48963758 0.0019063518

bias f4 [10]
00000000: cc32 29bf 5ab7 86be 0880 a83e f3ed 073f
00000010: c8cb c3be 7fe2 333f 7514 a13d 05b2 afbe
00000020: 315d 3bbf b088 5dbf
-0.66093135 -0.2631176 0.3291018 0.53097457 -0.3824141 0.7026748 0.0786523 -0.34315506
-0.73189074 -0.86536694

weight f4 [10, 10]
00000000: 5b15 5abe 45da a03d d49c 2bbe ad70 20be
00000010: 4816 223e 084a 993e 947c c4be 2f1c 9ebd
00000020: 9443 e8bd ba4a 873e f09b 7ebe c9ad 98be
00000030: f4bc 23be bb54 8bbe e28f 8e3d 06d1 8e3e
00000040: 8fe0 8fbe 4323 113e 16ba 5a3c 5d33 973e
00000050: 1642 b6be 2311 be3d 71da d33d 1c0c 073d
00000060: d978 bc3e 2e3b 6c3f e90b 8cbe 3322 203c
00000070: a819 05bf 9751 2abe c9c3 6d3e bbc5 e63d
00000080: 42bc e33e 91d6 003f 2844 953e 7b48 02bf
00000090: 2f87 df3e 696f 83be 94f7 853e 4b4f 473d
000000a0: 33ea de3e 4a27 0d3e 2ade a83e 02c6 0c3f
000000b0: 988a 4f3e 70ad 43bd b059 b93e 6d26 a4bc
000000c0: e106 903e 1c2b 053e 342e 433e a192 053e
000000d0: ccb6 8f3e f06d 3f3d 3127 f73e 0944 d9bd
000000e0: fdce ff3e d6bb bebd c699 283f 24f1 e93e
000000f0: add3 83be cf80 b53d 85d6 40be 1829 0b3e
00000100: ea59 20be cf12 513f 398f 883d 8ec7 8bbe
00000110: 1762 21bf 3b6a 6b3e d615 8a3e 767a 11bc
00000120: 1515 be3e 1543 2c3f f67b 323e 3354 903e
00000130: 3177 ef3e e11a 30be 3296 803e 10bc 183f
00000140: 80ab 803e 6494 11bc b9a5 3fbd 9df3 cb3e
00000150: dacc b63e 0c73 d9bc 11dc de3e 679e 74be
00000160: f733 033f 31d3 e4bb 7a12 fe3d 3684 64be
00000170: 4968 89be 3287 483d c7f3 f0bd b739 02be
00000180: f621 02be 5d14 79be e1d9 a73d ca5a 1c3e
-0.21297209 0.078541316 -0.16759044 -0.15667982 0.15828812 0.29939294 -0.38376296 -0.07720219
-0.113410145 0.264242 -0.24864173 -0.29820088 -0.15990049 -0.27213082 0.06961037 0.27893847
-0.28101012 0.14173608 0.01335003 0.29531375 -0.35597295 0.09280612 0.10344399 0.032970533
0.3681095 0.922778 -0.27352837 0.009773779 -0.51992273 -0.16632687 0.23219217 0.11268183
0.44479567 0.503274 0.29153562 -0.50891846 0.43657824 -0.25670937 0.2616545 0.048659604
0.43538055 0.13784519 0.32981998 0.54989636 0.20267713 -0.047772825 0.3620124 -0.020037854
0.28130248 0.13004726 0.19060594 0.13044216 0.2806915 0.046735704 0.48272088 -0.1060868
0.49962607 -0.093131706 0.6585964 0.45691788 -0.25747433 0.08862459 -0.18831833 0.13589895
-0.156593 0.81669325 0.066679426 -0.27300686 -0.630403 0.22989742 0.26969784 -0.008879295
0.3712546 0.6728986 0.174301 0.2818924 0.46770623 -0.17197753 0.2511459 0.5966196
0.25130844 -0.008885477 -0.046788905 0.398343 0.35703164 -0.026544116 0.43527272 -0.2388855
0.5125117 -0.006983184 0.12405868 -0.2231606 -0.26837376 0.048957057 -0.11765247 -0.12717329
-0.12708268 -0.24324174 0.08195854 0.15269008

bias f4 [10]
00000000: 9879 b2bf 2e05 81bf 6972 853f 3e5a 85be
00000010: 3507 1cbf 7177 03bf f839 9b3f 12a8 253f
00000020: 34b5 39bf f7b6 0cbe
-1.3943357 -1.0079706 1.042554 -0.26045412 -0.609485 -0.5135413 1.2127066 0.6470958
-0.7254212 -0.1374167

weight f4 [10, 10]
00000000: 02df d8bd 7fd3 40be 3861 af3d 937e 023d
00000010: 0d4b 3dbe 4ce3 cb3d adf1 60bd eb07 8dbd
00000020: eed7 233e 9196 81bd 6aeb a4bf 9a68 dbbf
00000030: 0d13 733f 3e87 abbe 2db1 0f3d 3110 cc3d
00000040: e328 583f 3b4a 423d 2a1a ea3d 4b3b 513e
00000050: 5f8f 903f 8581 163f bafe 34bf d95c 173f
00000060: 4f38 f43e ecb3 103f 5f00 5dbf 02c7 183f
00000070: c6db af3e b2cb 503d 38f5 03be e1df 93be
00000080: 2827 8abe 31d2 44bd a3e1 8ebe cdc2 983d
00000090: f117 a0be 1baf 9d3d ad51 b3bd 0496 df3c
000000a0: be7a 083b 16a1 3cbe 232d ba3d 7855 023d
000000b0: f3f6 91be 561e e4bd b975 cfbd 640a 0bbe
000000c0: 6a61 6cbe a4d8 dc3d 6350 12be f058 213e
000000d0: 8abf 00be 3819 133e b9ca 343d 7483 85bc
000000e0: 6fff 233d bdef e1bd 693e 74be 9130 943e
000000f0: 3cee 7d3f de37 7f3f 32df 65bf 8aeb debc
00000100: 6a8d 033f 4cb0 073f fcbb dbbe 5756 8f3e
00000110: f9b7 a53e 22cf 28be 9ed2 babf 7a19 acbf
00000120: 127e 6c3f 63f6 2cbd 0f7f 39bd c428 eabd
00000130: 3318 5a3f 1a04 863e 10eb 6dbe a128 5c3e
00000140: f20f babd e42c 7c3e b194 64be 009a 07be
00000150: c69f 89be abb5 72be b912 08be f9bb 67bd
00000160: 0596 463e 6cf9 d4bd a6df 6c3e 7b92 1fbe
00000170: a5ad 77bd 019b 55be 2aff d9bc 2ff6 6e3d
00000180: d5ff 083d 29e9 84bd bb7a 133e d9a2 99be
-0.1058941 -0.1883068 0.08563465 0.03185899 -0.18485661 0.09955463 -0.05491798 -0.06886276
0.1600034 -0.063275464 -1.2884343 -1.7141297 0.94950944 -0.3350162 0.035081077 0.09964026
0.8443739 0.047434073 0.11430772 0.20432775 1.1293753 0.5879138 -0.7070118 0.5912605
0.4769921 0.5652454 -0.8632869 0.5967866 0.3434736 0.05097551 -0.12886512 -0.28881744
-0.26983 -0.048052017 -0.27906522 0.0745903 -0.31268266 0.07699414 -0.08755813 0.027293213
0.0020825113 -0.18420824 0.090906404 0.03181979 -0.2850872 -0.111385986 -0.10129876 -0.13578182
-0.23084036 0.107835084 -0.14288478 0.15756583 -0.12573066 0.14365089 0.044138644 -0.016298033
0.040038522 -0.110320546 -0.23851933 0.28943303 0.9919164 0.9969462 -0.89793694 -0.027211923
0.51387656 0.5300338 -0.42916858 0.2799556 0.32366922 -0.16485265 -1.4595525 -1.3445275
0.9237987 -0.04222716 -0.04528719 -0.11433557 0.85193175 0.26175004 -0.232342 0.21499874
-0.090850726 0.246265 -0.22322346 -0.1324234 -0.2687971 -0.23702113 -0.13288392 -0.05657575
0.19393165 -0.10399136 0.2313219 -0.15583222 -0.060468335 -0.2085991 -0.02661093 0.058340248
0.033447105 -0.06489784 0.14402287 -0.30007055

bias f4 [10]
00000000: 49a6 9fbe d51c 433f a122 7fbe 6734 99be
00000010: 6cbc 8fbe 4768 8ebe bf09 d9be b79c 793f
00000020: 7d64 05be 1244 20be
-0.31181553 0.7621587 -0.24915554 -0.29922792 -0.28073442 -0.27813932 -0.42390248 0.9750475
-0.13026614 -0.15650967
