models/cross01_10_30.pth (torch, 142972 bytes, 69 tensors)

weight f4 [30, 2]
0	0x3f1f5a52	0.6224719
1	0x3f2292bd	0.63505155
2	0x3e0faaa4	0.14029938
3	0xbe24300e	-0.16033956
4	0x3d81068e	0.06300078
5	0xbe9ee1b5	-0.31031576
6	0x3f26e0d2	0.651868
7	0x3ef7e19c	0.48414314
8	0xbf496a33	-0.7867767
9	0x3efd409f	0.49463364
10	0x3e9842fa	0.297386
11	0xbe86ca14	-0.26326048
12	0xbf62beee	-0.88572586
13	0x3f0bac30	0.5455961
14	0xbf07bcc0	-0.53022385
15	0xbf2823a6	-0.65679395
16	0x3ecccfbb	0.40002236
17	0x3f241e45	0.6410869
18	0x3ee60ee1	0.44933227
19	0x3f17b89f	0.59266084
20	0xbd89ac8a	-0.06722362
21	0xbe919c37	-0.28439495
22	0xbe4c6e5f	-0.19963978
23	0x3ebcb764	0.36858666
24	0xbe03d669	-0.1287476
25	0xbef28dc3	-0.4737378
26	0xbe914a0c	-0.28376806
27	0x3f0b8d52	0.5451251
28	0x3eac60c2	0.3366757
29	0xbda475f9	-0.08030314
30	0x3e4ba48c	0.19886988
31	0x3f286d0f	0.6579141
32	0x3f1d49f3	0.6144096
33	0x3e91c24d	0.28468552
34	0xbe4a7b8e	-0.19773695
35	0xbf2cee1e	-0.6755084
36	0x3e0bace0	0.13640165
37	0x3eb8b3bc	0.36074626
38	0x3efdbdde	0.4955892
39	0x3f1fde21	0.62448317
40	0xbeffc166	-0.4995224
41	0xbe44c44d	-0.19215508
42	0x3e22df29	0.15905441
43	0xbe2e6240	-0.17029667
44	0x3f00716d	0.50173074
45	0x3ee8459d	0.4536561
46	0x3ea64e1c	0.32481468
47	0xbe93d8a3	-0.28876218
48	0x3f3ad4fc	0.7298124
49	0xbf25f72b	-0.64830273
50	0x3cabbc9e	0.020963963
51	0xbf550442	-0.8320962
52	0x3d85cc57	0.06533115
53	0xbeeb8641	-0.46000865
54	0x3e860f31	0.26183465
55	0x3f405ca4	0.7514136
56	0xbe356f9a	-0.17718354
57	0xbf0ce53f	-0.550373
58	0xbec4ef13	-0.3846365
59	0xbf1fd08d	-0.624276

bias f4 [30]
0	0xbf33c75b	-0.7022607
1	0x3f09f1c4	0.5388453
2	0xbf09373d	-0.5359991
3	0xbda3e62c	-0.08002886
4	0xbe46c332	-0.19410399
5	0x3d3666d7	0.04453167
6	0x3e348a4f	0.17630886
7	0x3ee88410	0.45413256
8	0xbeec8117	-0.46192238
9	0x3daee506	0.085397765
10	0xbd72e6d5	-0.05930217
11	0x3ee98d5a	0.45615655
12	0x3f5e809f	0.8691501
13	0xbf5a62d8	-0.85307074
14	0x3e57b25d	0.21064134
15	0x3f28a2ad	0.65873224
16	0x3f14b168	0.580832
17	0x3f1fa010	0.6235361
18	0xbf573a94	-0.8407376
19	0xbe6ad1dc	-0.22931617
20	0x3e5da883	0.21646313
21	0x3e269dbc	0.16271108
22	0x3e1a0d86	0.15044221
23	0xbe4d5ba0	-0.20054483
24	0xbda5ddcb	-0.08098944
25	0xbea68a8f	-0.32527587
26	0x3d018ba5	0.031627316
27	0xbe3d484e	-0.18484613
28	0x3eb56c2e	0.35434097
29	0x3f1d0db0	0.6134901

weight f4 [30, 30]
0	0xbd014709	-0.031561885
1	0x3e6c4a2a	0.23075166
2	0xbc8e42bc	-0.017365806
3	0xbe350d64	-0.1768089
4	0xbd93f31b	-0.07224103
5	0x3d5aa5fe	0.05338096
6	0xbca499b6	-0.020092826
7	0xbe808df3	-0.251083
8	0xbe4cd811	-0.20004298
9	0xbe24dd06	-0.16099939
10	0xbd18bb91	-0.037288252
11	0x3d6beec2	0.057600744
12	0xbe454e17	-0.1926807
13	0x3da18122	0.07885958
14	0xbd8336f8	-0.06406969
15	0xbea20892	-0.31647164
16	0x3e1dd6c3	0.15413956
17	0xbdfcb970	-0.12340057
18	0xbdea721e	-0.114475474
19	0xbe3e544c	-0.18586844
20	0xbe7801b6	-0.24219403
21	0x3e25c66b	0.16188972
22	0x3dfbdf2e	0.122984275
23	0x3e1c5460	0.15266562
24	0x3e827947	0.25483152
25	0x3e0a3cb3	0.13499717
26	0xbccb1883	-0.024791962
27	0x3b551b92	0.0032517654
28	0xbdc582af	-0.096440665
29	0xbef29577	-0.47379658
30	0xbe1b3215	-0.15155824
31	0xbce4d1f8	-0.027932152
32	0xbe085eba	-0.13317385
33	0xbdb19219	-0.08670444
34	0xbe0185c7	-0.12648688
35	0x3e0c090c	0.13675326
36	0x3d63cd41	0.055615667
37	0xbe2a7c99	-0.16649093
38	0x3de668d6	0.112504646
39	0xbda85cdc	-0.082208365
40	0xbd928889	-0.07154948
41	0x3d8212a8	0.06351215
42	0xbe077ef2	-0.1323202
43	0xbded6c9f	-0.115929835
44	0xbdaf713a	-0.08566518
45	0xbd12c78c	-0.035834834
46	0xbe0fab9a	-0.14030305
47	0x3e3357fd	0.17514034
48	0x3e28a3b7	0.16468702
49	0x3d360112	0.044434614
50	0xbe19e291	-0.15027834
51	0xbe31222c	-0.17298192
52	0xbdfe1e06	-0.1240807
53	0xbd8e0c51	-0.06935943
54	0x3daf6931	0.085649855
55	0xbda7b23e	-0.08188294
56	0xbc05e8ad	-0.00817315
57	0x3dc548d9	0.09633035
58	0xbb7a95a1	-0.0038236158
59	0x3d7f8511	0.06238276
60	0xbc804061	-0.015655698
61	0xbe0a5d0d	-0.13512059
62	0x3db6b10a	0.08920486
63	0x3e1563de	0.14588878
64	0x3e0a8821	0.13528492
65	0xbd116480	-0.035496235
66	0x3dfb6f63	0.12277105
67	0xbdbb96f3	-0.09159651
68	0x3e198165	0.14990766
69	0xbdb1c1aa	-0.086795166
70	0xbea7651f	-0.32694337
71	0x3e480168	0.19531786
72	0xbe4bd8ce	-0.19906923
73	0xbcf50981	-0.029911758
74	0x3d4fb4c5	0.050709505
75	0xbe1e736d	-0.15473719
76	0x3d3c34e3	0.045948874
77	0xbe2405a0	-0.16017771
78	0x3e2af009	0.16693129
79	0x3d9ff528	0.07810432
80	0xbe5bee2d	-0.21477576
81	0x3c68fa06	0.0142197665
82	0xbdb3dc1c	-0.08782217
83	0xbe441b9f	-0.19151162
84	0x3cb0755a	0.021540333
85	0xbdf58b6c	-0.11989483
86	0x3e0b54be	0.13606545
87	0x3e0dd98d	0.1385252
88	0xbe056e79	-0.13030423
89	0x3c9187d0	0.017764956
90	0xbdd9661b	-0.10615178
91	0xbc895177	-0.016762478
92	0x3d741426	0.059589528
93	0x3c9a975a	0.018870998
94	0xbe0d4eaa	-0.13799539
95	0x3e2bf417	0.16792332
96	0xbd951e3b	-0.07281157
97	0xbd87ca06	-0.0663033
98	0xbe21a2f6	-0.15784821
99	0xbbce87cb	-0.006302809
100	0xbe569281	-0.20954324
101	0x3c11c6b1	0.008897469
102	0xbddc3f85	-0.10754303
103	0x3de2f47d	0.11081789
104	0x3d58d686	0.05293896
105	0xbe2f228a	-0.1710302
106	0x3d501826	0.05080428
107	0x3d7bc944	0.06147124
108	0xbeab7231	-0.3348556
109	0xbdb8bfef	-0.090209834
110	0x3dd9171b	0.1060011
111	0xbbd60490	-0.0065313056
112	0x3d439447	0.04774883
113	0x3e1b6239	0.15174188
114	0x3dcaed4a	0.099085405
115	0x3de75528	0.11295539
116	0x3e8542e3	0.26027593
117	0xbe35dd8e	-0.17760298
118	0xbe6e1145	-0.23248775
119	0xbb7f09da	-0.0038915784
120	0xbd855e04	-0.06512073
121	0xbe46c410	-0.1941073
122	0x3d8c009f	0.06836056
123	0x3d84758b	0.06467732
124	0x3e178a3c	0.14798826
125	0xbe2d54d1	-0.16926886
126	0x3e1b4fd2	0.15167168
127	0xbc2c63e1	-0.01052186
128	0xbdda4ec7	-0.10659557
129	0x3d6d0ce6	0.05787363
130	0xbe0a09a4	-0.1348024
131	0x3de22102	0.11041452
132	0xbe099837	-0.13436972
133	0x3e7eaa95	0.2486976
134	0x3b0c2b69	0.002138818
135	0xbd6cc578	-0.05780551
136	0x3e158455	0.14601262
137	0x3de4a8f4	0.11165038
138	0xbdb7b1b2	-0.089694396
139	0x3d0200bc	0.03173898
140	0xbecfae5a	-0.40562707
141	0xbc8604e0	-0.016359746
142	0xbdde68b4	-0.10859814
143	0xbe48d271	-0.19611527
144	0x3d69df55	0.05709775
145	0x3d35259a	0.044225313
146	0x3d318e4e	0.043348603
147	0x3e1e0557	0.15431724
148	0xbdd6a699	-0.10480995
149	0x3ddfefbe	0.10934399
150	0xbdf75f83	-0.12078764
151	0xbdfdc832	-0.123917
152	0x3d7b3066	0.061325453
153	0x3e29f61e	0.16597793
154	0x3e23daa1	0.16001369
155	0xbd9cebc2	-0.07662155
156	0xbce840df	-0.028351245
157	0xbe2e988c	-0.1705038
158	0x3e30bafc	0.17258829
159	0xbdc64d5f	-0.09682726
160	0x3e095cc4	0.13414294
161	0x3e0a1884	0.13485914
162	0xbddc556e	-0.10758482
163	0x3e5caad5	0.21549542
164	0xbcd66b45	-0.026174197
165	0x3cab1361	0.020883264
166	0x3e14752f	0.14497827
167	0xbe4a4c2d	-0.19755621
168	0x3e19fef0	0.15038657
169	0x3e06762a	0.13131014
170	0xbeaddced	-0.33957615
171	0xbc8837ad	-0.01662811
172	0xbdf6f5c9	-0.120585985
173	0x3c25525b	0.010090436
174	0xbc8f6e38	-0.017508611
175	0x3e7f7645	0.2494746
176	0xbd3c897f	-0.046029564
177	0x3cfd83eb	0.030946692
178	0xbd26c784	-0.040717617
179	0xbeb519e2	-0.3537131
180	0xbcebe79b	-0.028796962
181	0xbe3cbf1c	-0.18432277
182	0xbd4b6644	-0.049658075
183	0x3c9a2cc9	0.018820183
184	0xbed9c45d	-0.42532626
185	0xbe3d8578	-0.18507946
186	0xbeb19092	-0.3468061
187	0xbe832d5c	-0.25620544
188	0x3d640f4b	0.055678647
189	0x3e16b24b	0.14716451
190	0xbe40652c	-0.18788594
191	0x3ebea5a1	0.3723574
192	0xbe4d0154	-0.20020038
193	0x3e029f12	0.12755993
194	0x3d72ddcb	0.05929355
195	0x3db0742d	0.08615909
196	0xbe41e4f5	-0.18934996
197	0x3db1be4d	0.08678875
198	0x3e0f67cd	0.1400444
199	0xbe12d4c2	-0.14338973
200	0xbd94f0e2	-0.07272507
201	0xbe54bfc9	-0.20776285
202	0xbd2cffe1	-0.042236213
203	0xbe214753	-0.15749864
204	0xbea575c4	-0.3231641
205	0x3e361e78	0.1778506
206	0xbd4e7a6f	-0.05040973
207	0x3e5e3e60	0.21703482
208	0xbe3344eb	-0.17506759
209	0x3d65f3fd	0.05614089
210	0xbe3ca895	-0.18423684
211	0xbd5c81a7	-0.053834584
212	0x3d7f1a39	0.062280867
213	0x3c546fa6	0.012966072
214	0x3e025f56	0.1273168
215	0xbd69661b	-0.05698214
216	0xbd006f57	-0.031356182
217	0x3d14abf2	0.036296792
218	0xbdb242b1	-0.087041266
219	0xbe2939dd	-0.1652598
220	0xbde4da79	-0.11174483
221	0x3cedc28b	0.02902343
222	0x3bf3f71b	0.0074452288
223	0xbce82508	-0.02833797
224	0xbe58dbc2	-0.21177581
225	0x3e442abb	0.19156925
226	0x3db8585a	0.09001227
227	0x3d7080dc	0.05871664
228	0xbdbc22bf	-0.09186315
229	0x3e2c693e	0.16837022
230	0x3de2bce1	0.11071182
231	0x3cbf0891	0.023319514
232	0x3de23010	0.110443234
233	0xbd3989a8	-0.045297295
234	0x3b5578ff	0.003257334
235	0x3e300a82	0.17191508
236	0x3e21a76f	0.15786527
237	0x3de9f3fd	0.1142349
238	0xbe233cb5	-0.15941127
239	0xbd4070e0	-0.046982646
240	0x3db2e79f	0.087355845
241	0xbe797c61	-0.24363853
242	0xbd82fa1a	-0.06395359
243	0x3d9ce7c2	0.07661392
244	0x3d1ecc97	0.03876933
245	0xbe088f32	-0.13335875
246	0x3dc06212	0.093937054
247	0xbdf6d55b	-0.12052413
248	0xbd30e2fe	-0.043185227
249	0xbd1d2d9e	-0.038373582
250	0x3d31486d	0.04328196
251	0x3e445182	0.19171718
252	0x3f8776fa	1.0583184
253	0x3da235d8	0.07920426
254	0x3bfa3db2	0.007636749
255	0xbcbf045b	-0.023317507

bias f4 [30]
0	0xbeb1cd74	-0.3472706
1	0x3dc6ace9	0.09700949
2	0xbe937b10	-0.28804827
3	0x3ef6044c	0.48050153
4	0xbecacbe8	-0.39608693
5	0xbe63b1c2	-0.22235778
6	0x3df39363	0.11893346
7	0x3ebc017b	0.3671988
8	0xbddc1676	-0.107464716
9	0xbebf9a36	-0.3742234
10	0xbe105cc5	-0.14097889
11	0xbebad1f5	-0.3648831
12	0xbe00d646	-0.12581739
13	0xbf076ee7	-0.529036
14	0xbe2c7224	-0.16840416
15	0x3d12e104	0.035859123
16	0xbe2c070e	-0.16799566
17	0xbf038a21	-0.51382643
18	0xbdd59cfa	-0.104303315
19	0x3df03734	0.11729279
20	0xbe1f3ba2	-0.15550092
21	0xbe85673e	-0.2605533
22	0x3db4ac6c	0.08821949
23	0xbe6cba34	-0.23117906
24	0xbd6eb270	-0.05827564
25	0xbe1b8c45	-0.15190227
26	0x3d8124f8	0.06305879
27	0xbd9ebde3	-0.07751062
28	0xbf0d2934	-0.55140996
29	0xbe963c11	-0.29342702

weight f4 [30, 30]
0	0x3b945c8c	0.004527634
1	0x3c7bc540	0.015366852
2	0xbeabd32e	-0.33559555
3	0x3e1719d3	0.14755945
4	0xbd213e81	-0.03936625
5	0xbd48764b	-0.048940938
6	0xbe1bf812	-0.1523135
7	0x3dbcd212	0.09219755
8	0xbe241a74	-0.16025716
9	0x3d086c00	0.03330612
10	0xbdd837f7	-0.105575494
11	0xbdb8e01a	-0.09027119
12	0x3d4d49b6	0.050119124
13	0xbd1d05b3	-0.038335513
14	0x3e0f9644	0.14022166
15	0x3d2ec182	0.042665012
16	0xbdfee648	-0.124462664
17	0xbe1e3553	-0.15450029
18	0xbed0a6fa	-0.40752393
19	0xbd79337a	-0.060840108
20	0xbe00644b	-0.12538259
21	0x3d3bf8ef	0.0458917
22	0xbe1471f4	-0.14496595
23	0xbdc9e832	-0.09858741
24	0x3e21888c	0.15774745
25	0xbaa0328b	-0.0012222094
26	0xbe5d6f63	-0.21624522
27	0xbd2dc6a0	-0.04242575
28	0xbe83c545	-0.25736442
29	0xbe2a777f	-0.16647147
30	0xbe0430d8	-0.12909257
31	0x3e2fa352	0.17152146
32	0xbe048eb9	-0.1294507
33	0xbe2a87ab	-0.16653316
34	0xbdb0a3d6	-0.08624999
35	0x3db97483	0.09055426
36	0xbbb387f2	-0.0054788524
37	0xbe0f6ce1	-0.14006378
38	0xbe3473ab	-0.17622249
39	0xbe0e14f6	-0.13875183
40	0x3e218f0b	0.15777223
41	0x3dcdbbf0	0.10045612
42	0x3e1f0edc	0.15533012
43	0xbdabd702	-0.08390619
44	0xbde9b1ce	-0.11410867
45	0x3ca4738d	0.02007463
46	0x3d273e32	0.0408308
47	0xbdb1efed	-0.0868834
48	0xbc6acd2c	-0.014331143
49	0xbdf3a699	-0.1189701
50	0x3e270508	0.16310513
51	0x3c927c48	0.017881528
52	0xbdeacb93	-0.1146461
53	0x3e393159	0.18085231
54	0x3d554178	0.05206439
55	0xbe0a3149	-0.13495363
56	0xbe22504e	-0.15850946
57	0xbdbbb2d5	-0.09164969
58	0xbe29cfe2	-0.16583207
59	0xbe135aeb	-0.14390151
60	0x3da957ef	0.08268725
61	0xbdaed8b2	-0.08537425
62	0xbdaa0dd1	-0.083034165
63	0xbcf22297	-0.02955751
64	0x3c3c4fdb	0.011493648
65	0x3ba6d1f8	0.005090948
66	0xbe50fc5c	-0.20408767
67	0x3e314943	0.17313103
68	0xbd3f2a05	-0.046670932
69	0x3da3cf78	0.07998556
70	0xbdd1130a	-0.102087095
71	0x3dd65917	0.10466211
72	0xbe1b0ad3	-0.15140848
73	0xbd521022	-0.051284917
74	0x3c66f7bf	0.014097153
75	0xbdcd5814	-0.10026565
76	0xbd69e9da	-0.057107784
77	0x3cdc6801	0.026905062
78	0x3e382677	0.17983423
79	0xbd8b55d0	-0.06803477
80	0xbdc3bdc1	-0.09557677
81	0xbb867d80	-0.0041043162
82	0x3dd36078	0.10321134
83	0x3e38bb49	0.18040194
84	0xbd9ccb23	-0.07655933
85	0xbda66566	-0.08124809
86	0x3dc72913	0.09724631
87	0x3d4bd258	0.049761146
88	0xbc216952	-0.0098517705
89	0x3da19431	0.078895934
90	0x3e717966	0.23581466
91	0x3d6248d9	0.055245254
92	0xbe51b946	-0.20480832
93	0x3e51d8dc	0.20492882
94	0xbe25b17d	-0.16180988
95	0xbcbbb13f	-0.022911666
96	0x3d0e64ed	0.03476422
97	0x3cd1aa53	0.025593912
98	0x3def01a4	0.11670235
99	0x3e9263c9	0.28591755
100	0x3cc3ee6b	0.023917397
101	0x3e5f9a48	0.21836197
102	0x3e0d3535	0.13789828
103	0x3dadae7e	0.08480547
104	0x3dd05765	0.10172919
105	0xbe61ce16	-0.22051272
106	0x3cad0834	0.021122076
107	0xbe4062a0	-0.18787622
108	0x3d36c511	0.04462153
109	0x3e00e9b8	0.12589157
110	0xbe207b5e	-0.15672061
111	0x3e044daf	0.12920259
112	0xbdc2d797	-0.09513777
113	0x3e5ab962	0.2135978
114	0x3e625a94	0.22104865
115	0x3e164454	0.14674503
116	0xbbc5ace9	-0.0060325754
117	0x3e65d818	0.22445714
118	0xbdbc3b68	-0.09191018
119	0x3dc67771	0.096907504
120	0xbd870bcc	-0.06594047
121	0xbdbda7a5	-0.09260491
122	0xbd89de3b	-0.0673184
123	0x3e54b782	0.20773128
124	0xbb36a3a8	-0.0027868543
125	0xbdcef854	-0.101059586
126	0xbe1e396e	-0.15451595
127	0xbe0bf9bc	-0.13669485
128	0x3e7d3a40	0.24729252
129	0x3da818a8	0.08207828
130	0xbbd8210a	-0.0065957354
131	0xbb4c06d3	-0.0031131997
132	0x39c424cd	0.00037411452
133	0x3c0ca83b	0.008585031
134	0x3d874683	0.06605246
135	0x3da44174	0.08020297
136	0xbe06b171	-0.13153626
137	0x3e37deed	0.17956133
138	0x3e5031c4	0.20331484
139	0x3dc9b9ff	0.09849929
140	0xbdd12a0d	-0.10213099
141	0x3d201bdc	0.03908907
142	0xbdc9c901	-0.098527916
143	0xbc8bb2a2	-0.017052952
144	0x3c7c8280	0.015411973
145	0x3e0e60fb	0.13904183
146	0x3a4a477d	0.0007716341
147	0x3cd1eede	0.025626596
148	0x3e71923b	0.23590939
149	0x3de40804	0.11134341
150	0x3d17498f	0.036935385
151	0x3d0c1016	0.03419503
152	0x3d41e468	0.047336966
153	0x3d88d075	0.06680385
154	0x3d81950e	0.06327258
155	0xbda2418a	-0.07922657
156	0x3e351c35	0.17686541
157	0x3d03621e	0.032075994
158	0x3e3a5d9a	0.18199769
159	0xbd9cb076	-0.07650845
160	0x3d57bc29	0.052669678
161	0xbd4204da	-0.047367908
162	0x3e2eaff2	0.17059305
163	0xbe15bf8d	-0.14623852
164	0xbde45b2e	-0.11150204
165	0xbcb7103d	-0.02234661
166	0xbc96ca2f	-0.018406956
167	0x3e36d3e3	0.17854266
168	0x3e2ff668	0.1718384
169	0xbd3a1be6	-0.045436762
170	0xbdaffd77	-0.085932665
171	0x3e28b4ab	0.1647517
172	0xbdc82674	-0.09772959
173	0x3e06dd42	0.1317034
174	0x3d3149a0	0.043283105
175	0xbe21d99c	-0.15805668
176	0xbe105826	-0.14096126
177	0x3c1431e5	0.009045099
178	0x3e800e22	0.25010782
179	0xbbb18c5b	-0.005418343
180	0x3d7b14f1	0.06129927
181	0x3d6168f7	0.055031743
182	0x3d43dd49	0.047818456
183	0xbd1eeefe	-0.03880214
184	0xbd8577c2	-0.065169826
185	0x3dbb7c79	0.09154601
186	0x3e0f377f	0.13986014
187	0x3e1bae0c	0.15203112
188	0x3dccc367	0.099982075
189	0x3d94e522	0.07270266
190	0xbe0fb2de	-0.14033076
191	0x3d1fc141	0.03900266
192	0xbb099b2d	-0.0020997033
193	0x3d7f14b4	0.062275603
194	0x3d836bca	0.064170435
195	0xbe414c8c	-0.18876857
196	0x3d6d8f5f	0.057998057
197	0xbddc9798	-0.10771102
198	0x3e05f711	0.1308253
199	0xbe2e1a00	-0.17002106
200	0xbe1bbad2	-0.15207985
201	0xbe4cf44a	-0.20015064
202	0x3d98a60a	0.074535444
203	0x3e4b79b5	0.19870646
204	0x3e24ef75	0.1610697
205	0x3e197105	0.1498452
206	0x3e31c68b	0.17360894
207	0x3de76d98	0.113002
208	0x3e26a0ce	0.1627228
209	0x3e093f21	0.13402988
210	0xbd65324f	-0.05595618
211	0x3b9102cf	0.0044253836
212	0x3df8bf52	0.121458665
213	0x3d7afc07	0.06127551
214	0x3e1b2b2b	0.15153186
215	0x3ca0c1e5	0.019623706
216	0xbcb1740a	-0.021661777
217	0x3e3dab70	0.1852243
218	0x3e14132b	0.14460437
219	0x3d9df54a	0.07712801
220	0x3e12c150	0.14331555
221	0x3e26885f	0.16262959
222	0x3d8ce5b1	0.06879748
223	0xbd9d4c56	-0.076805755
224	0xbe27a231	-0.16370465
225	0xbdc0458c	-0.09388265
226	0x3ce9570e	0.028483894
227	0x3ce6fe8e	0.028197553
228	0xbdcbef4a	-0.0995775
229	0xbc75456d	-0.014970166
230	0xbc6882a7	-0.014191306
231	0x3cd167b9	0.025562154
232	0xbd625530	-0.055257022
233	0x3ca3e7c7	0.020007981
234	0x3dd03a0a	0.1016732
235	0xbd81a23c	-0.06329772
236	0x3cde1db1	0.027113767
237	0x3c524694	0.01283421
238	0xbe0bde05	-0.13658912
239	0x3e1dd794	0.15414268
240	0x3e14c0f8	0.14526737
241	0xbdff1bff	-0.12456512
242	0x3e1cf000	0.15325928
243	0xbdf3a51f	-0.11896729
244	0xbd83a546	-0.06428008
245	0xbd922013	-0.07135024
246	0x3d0d6247	0.034517553
247	0x3e1b1545	0.15144832
248	0x3e3fc60f	0.18727897
249	0x3e3af1d1	0.18256308
250	0xbe25b02a	-0.16180483
251	0x3df30143	0.11865475
252	0x3deff354	0.11716333
253	0x3ce82e6c	0.028342448
254	0x3dca9091	0.09890855
255	0xbd9ba152	-0.07599129

bias f4 [30]
0	0x3f388762	0.7208158
1	0xbd48b672	-0.04900212
2	0x3f122c88	0.570992
3	0x3e2aa841	0.16665746
4	0x3f38a6a7	0.7212929
5	0x3eb8aadc	0.36067855
6	0xbf0e5580	-0.5559921
7	0x3eb9e98d	0.36310998
8	0xbf457b5d	-0.7714136
9	0xbd393ec1	-0.045225862
10	0xbe9a64f1	-0.30155137
11	0xbded23c9	-0.11579091
12	0xbd9a16cc	-0.075238794
13	0xbccf5f47	-0.025313986
14	0xbe606575	-0.21913703
15	0xbe8cf8f4	-0.27533686
16	0x3e9bdcb9	0.30441836
17	0x3e17d3de	0.14826915
18	0xbe8b98e9	-0.272651
19	0x3e849088	0.2589152
20	0xbd9c9b5d	-0.07646821
21	0x3f5828a7	0.8443703
22	0xbec8829a	-0.3916214
23	0x3f0b5138	0.54420805
24	0xbe3fe8b0	-0.18741107
25	0xbf077421	-0.52911574
26	0xbefa08f9	-0.4883497
27	0xbdc16113	-0.094423436
28	0xbec506c8	-0.38481736
29	0x3e182bf5	0.14860518

weight f4 [30, 30]
0	0xbdf1aca0	-0.11800504
1	0xbd4562da	-0.048189975
2	0x3e577606	0.21041116
3	0x3db3e14e	0.08783208
4	0xbe4ca70d	-0.199856
5	0xbe03dbbf	-0.12876795
6	0xbc8ff7ca	-0.01757421
7	0x3e70f186	0.23529634
8	0xbca62542	-0.020281438
9	0x3e4fd00b	0.20294206
10	0x3e202dc6	0.15642461
11	0x3e2e5b75	0.17027076
12	0x3c9a8fb9	0.01886736
13	0x3d26c95e	0.040719382
14	0x3d343e84	0.044004932
15	0x3e33719a	0.17523804
16	0xbdd1ebc7	-0.10250049
17	0x3d361310	0.044451773
18	0xbd280b47	-0.04102638
19	0xbd58f96f	-0.052972253
20	0x3cb54f70	0.022132605
21	0xbe9cb913	-0.3060995
22	0x3ddcb71b	0.10777112
23	0xbe65c45a	-0.22438183
24	0x3d31c045	0.043396253
25	0xbe195040	-0.14972019
26	0xbdfa3807	-0.122177176
27	0xbd7a8af8	-0.061167687
28	0x3dd700b4	0.10498181
29	0x3da7dcff	0.081964485
30	0xbdad8d70	-0.08474243
31	0xbd73eb10	-0.059550345
32	0x3ddbdea5	0.107358254
33	0x3da936fe	0.08262442
34	0x3e8808d5	0.26569238
35	0x3e0bb5f3	0.13643627
36	0xbccbd103	-0.024879938
37	0xb9f46021	-0.00046610928
38	0x3dc8bd52	0.09801735
39	0xbdbf5e6d	-0.09344182
40	0x3c004be7	0.0078305965
41	0xbd21fcdd	-0.03954779
42	0xbe2cdb91	-0.16880633
43	0xbd9a0eb4	-0.07522336
44	0xbe49206b	-0.19641273
45	0xbd2ca164	-0.0421461
46	0x3e1ae169	0.1512505
47	0x3d72dea7	0.05929437
48	0xbdcde23d	-0.10052917
49	0x3d69e222	0.057100423
50	0xbe189f3e	-0.14904496
51	0x3e6c3b87	0.23069583
52	0x3e08432f	0.13306879
53	0x3d9f0390	0.07764351
54	0xbd4b0b4d	-0.049571324
55	0xbe610ad9	-0.21976794
56	0xbd80633a	-0.06268926
57	0x3e5c567c	0.21517366
58	0xbdee58c2	-0.11638023
59	0x3c9ebc10	0.019376785
60	0x3e82b94e	0.25532
61	0x3dcfdf7e	0.101500496
62	0x3e305632	0.17220381
63	0x3e21798e	0.15769026
64	0x3ceb8721	0.028750958
65	0x3e34fc3b	0.17674343
66	0xbd853cab	-0.06505712
67	0x3ddf3866	0.10899429
68	0xbf16d315	-0.58915836
69	0xbe405b57	-0.18784843
70	0xbe29738d	-0.16547985
71	0xbe79796c	-0.24362725
72	0xbe21044b	-0.15724294
73	0xbe18695a	-0.14883938
74	0x3d127d35	0.035763938
75	0x3e60ecc7	0.21965323
76	0x3eb487ed	0.35259953
77	0x3e043c1a	0.12913552
78	0x3d913a2f	0.07091176
79	0xbe189fab	-0.14904658
80	0x3e0eeb31	0.13956906
81	0x3d8e7b30	0.0695709
82	0xbe1c8ecb	-0.15288846
83	0x3cea336a	0.02858897
84	0x3e1c6bb7	0.15275465
85	0xbda6ed4b	-0.08150729
86	0xbe35da6e	-0.17759106
87	0x3df4c0fc	0.11950871
88	0x3e54d861	0.20785667
89	0xbe1b4b53	-0.15165453
90	0x3e0f5054	0.13995486
91	0x3e3220f9	0.1739539
92	0xbe2ee340	-0.17078876
93	0xbe07b004	-0.13250738
94	0xbe0c3e14	-0.13695556
95	0xbddfb223	-0.10922649
96	0x3de6b466	0.11264877
97	0xbd8a0a48	-0.06740242
98	0x3dd4f53f	0.103983395
99	0xbd82280d	-0.06355295
100	0x3c6d4c00	0.014483452
101	0xbdaa8395	-0.083258785
102	0x3cbd8650	0.023135334
103	0xbd81a029	-0.06329376
104	0xbe232f0d	-0.15935917
105	0x3ded078c	0.11573705
106	0xbd15aefd	-0.036543835
107	0xbe2e9744	-0.17049891
108	0xbdb84b42	-0.08998729
109	0x3d009f9e	0.031402223
110	0x3c23a331	0.009987638
111	0x3d54fa1b	0.05199633
112	0x3c16e2ac	0.009209316
113	0xbd22af3f	-0.03971791
114	0xbe34c9ef	-0.17655157
115	0x3d4ca254	0.049959496
116	0x3db84166	0.08996849
117	0xbd014184	-0.03155662
118	0x3e29b3f6	0.16572556
119	0x3d8cd22f	0.06876027
120	0xbec2c1fe	-0.3803863
121	0xbda78338	-0.08179325
122	0xbd9646a8	-0.07337695
123	0xbd1af533	-0.037831496
124	0xbe08f474	-0.13374501
125	0xbe3e27be	-0.18569848
126	0x3dc5339d	0.09628985
127	0xbd36480e	-0.04450231
128	0x3de6ec87	0.11275583
129	0xbd22e4b8	-0.039768904
130	0xbc1f0515	-0.0097058015
131	0x3dac4bfd	0.08412931
132	0xbe3217c0	-0.17391872
133	0xbda29cf8	-0.07940096
134	0x3e8e8ebf	0.27843282
135	0x3d9c00c7	0.07617336
136	0xbd8cb0ac	-0.06869635
137	0xbd9d6bbb	-0.076865636
138	0x3e1db68e	0.1540167
139	0xbe09de40	-0.13463688
140	0x3e3cb697	0.18429027
141	0xbe615fc0	-0.22009182
142	0xbb99b56d	-0.004690817
143	0xbd2d5038	-0.04231283
144	0xbd78166e	-0.060568266
145	0xbc9ab4d2	-0.01888505
146	0xbdb7aac9	-0.089681216
147	0x3da2fc97	0.07958334
148	0xbd205b05	-0.039149303
149	0xbc452a4e	-0.012034012
150	0x3eb07b7b	0.34469208
151	0xbe081b8c	-0.13291758
152	0xbd948d64	-0.072535306
153	0x3e0567b7	0.13027845
154	0x3e4ec132	0.20190886
155	0xbdfae720	-0.12251115
156	0x3b44befa	0.0030021057
157	0x3d82d314	0.06387916
158	0xbe048a44	-0.12943369
159	0x3de8cab6	0.11366789
160	0xbd43b6d3	-0.047781777
161	0xbdd91db1	-0.10601366
162	0x3d8d0477	0.06885617
163	0xbe081870	-0.13290572
164	0x3e01e6dc	0.12685722
165	0x3d8c20d0	0.06842196
166	0x3e65d44e	0.22444269
167	0x3dee6946	0.11641173
168	0x3c836f94	0.016044416
169	0x3e2401d2	0.1601632
170	0xbdbceb3c	-0.09224555
171	0x3eb5dabd	0.35518447
172	0xbd87b6e2	-0.06626679
173	0xbd6cbe1d	-0.057798494
174	0x3d1165f2	0.035497613
175	0xbe04e74b	-0.12978856
176	0xbe186688	-0.14882863
177	0x3d03d2ff	0.032183643
178	0xbc4c8956	-0.012483915
179	0xbd90b474	-0.07065669
180	0xbea0b436	-0.3138749
181	0xbdfeb7d4	-0.12437406
182	0x3e3346bc	0.17507452
183	0x3d0d1784	0.034446254
184	0xbe02442c	-0.12721318
185	0xbe52ae69	-0.20574345
186	0xbd852674	-0.06501475
187	0x3dd6f490	0.10495865
188	0x3e336c54	0.17521793
189	0x3cc1fa2a	0.023678858
190	0x3abba951	0.0014317428
191	0xbc9060d3	-0.017624294
192	0x3e10dd43	0.14146905
193	0xbd3edd1e	-0.046597593
194	0x3e839a7c	0.257038
195	0xbd94865c	-0.072521895
196	0xbeb3cb8f	-0.3511624
197	0x3e37d871	0.1795366
198	0x3d8920c2	0.06695701
199	0x3d88bd4d	0.06676731
200	0xbcc7dc5a	-0.024397064
201	0xbebfcf73	-0.3746296
202	0x3e0ffad0	0.14060521
203	0xbd19dc54	-0.037563637
204	0x3c13f162	0.009029718
205	0xbd8697bd	-0.065719105
206	0x3d70403f	0.05865502
207	0xbe1005c9	-0.14064707
208	0x3db971da	0.090549186
209	0xbcb98d49	-0.022650378
210	0xbe3a3b89	-0.18186773
211	0x3dbe3cb7	0.09288924
212	0x3d2e4dca	0.042554654
213	0x3df76d3a	0.1208138
214	0xbdc71184	-0.09720138
215	0xbe87549e	-0.26431745
216	0xbc885224	-0.01664073
217	0x3d971dba	0.07378717
218	0xbdc2fde6	-0.095210835
219	0xbd8338a1	-0.064072855
220	0x3cbf9dc1	0.023390653
221	0x3d9846e3	0.074353956
222	0x3e0a5ac5	0.13511188
223	0x3dcd81e7	0.100345425
224	0x3e186d79	0.1488551
225	0xbce18e59	-0.027533697
226	0xbdc194a8	-0.09452182
227	0xbdf2404e	-0.118286714
228	0x3e20303b	0.15643398
229	0x3d975dda	0.07390948
230	0xbc46c888	-0.012132771
231	0xbdf5ef4d	-0.120085336
232	0xbe01f2ce	-0.12690279
233	0xbd2256a1	-0.039633397
234	0xbc1b089c	-0.009462502
235	0x3ecd1c90	0.40060854
236	0x3d685c1f	0.05672848
237	0xbca28776	-0.019839983
238	0xbd61043e	-0.054935686
239	0x3dea4fd3	0.114410065
240	0xbda65551	-0.081217416
241	0xbdc42c1f	-0.09578728
242	0x3d520207	0.051271465
243	0x3e0561f4	0.13025647
244	0xbeac7299	-0.3368118
245	0xbe763eaa	-0.24047342
246	0x3d3c37b7	0.04595157
247	0xbcade65d	-0.02122801
248	0xbc83c5f2	-0.016085599
249	0x3dbafe38	0.0913052
250	0x3e0ed373	0.13947849
251	0x3e0ac913	0.13553266
252	0x3e280b9b	0.16410677
253	0xbd6e6c9a	-0.05820904
254	0x3e9048eb	0.28180632
255	0xbd54a1a6	-0.051911972

bias f4 [30]
0	0x3eb6d920	0.35712528
1	0x3f009b2e	0.50236785
2	0x3efb66f0	0.49101973
3	0x3dba0620	0.090831995
4	0xbf29cce6	-0.66328275
5	0x3f482be7	0.7819199
6	0xbf1d6cb8	-0.61494017
7	0x3f235866	0.6380676
8	0x3c020ecb	0.007938097
9	0xbee40b19	-0.44539717
10	0x3e9d3b74	0.30709422
11	0xbe80c7cb	-0.2515243
12	0x3ebcacfd	0.3685073
13	0xbf096633	-0.5367157
14	0xbee4cc56	-0.44687146
15	0x3d0fadd4	0.035077885
16	0x3eb3df75	0.35131422
17	0xbeb712eb	-0.3575662
18	0xbf038fa7	-0.5139107
19	0xbce4da3e	-0.027936097
20	0x3f0fa083	0.56104296
21	0x3e0865de	0.13320109
22	0x3d06bdb0	0.032895744
23	0xbee3abf1	-0.44467118
24	0xbded09a4	-0.115741044
25	0x3eec32c8	0.46132493
26	0xbe07e06d	-0.13269205
27	0x3dc83662	0.09775998
28	0xbddfa847	-0.10920768
29	0x3ce88af6	0.028386574

weight f4 [30, 30]
0	0x3e576c0e	0.21037313
1	0xbd53658a	-0.051610507
2	0xbe66ab9b	-0.225264
3	0x3bdd041b	0.006744874
4	0x3d315a8e	0.04329925
5	0xbe2c0af9	-0.1680106
6	0x3e3a9b66	0.18223342
7	0x3e4baaef	0.19889425
8	0x3e07ee6e	0.13274547
9	0x3e89bf29	0.26903656
10	0xbda86268	-0.082218945
11	0xbc46e257	-0.012138925
12	0xbde38fcb	-0.11111411
13	0x3e2a4538	0.16627967
14	0x3d1f6bfa	0.038921334
15	0xbe253a80	-0.16135597
16	0xbceff262	-0.029290382
17	0x3e5f393d	0.21799178
18	0x3e440493	0.1914237
19	0x3da90d6b	0.082545124
20	0xbd3fcc86	-0.046825908
21	0x3e2808c7	0.16409598
22	0x3d3ff64d	0.04686575
23	0x3e972150	0.29517603
24	0x3e19493f	0.14969347
25	0xbe20a0e2	-0.15686372
26	0xbdf52838	-0.11970562
27	0x3d6cb1e0	0.057786822
28	0x3dbeeb1c	0.09322187
29	0xbdc670ce	-0.096894845
30	0xbe432c5d	-0.19059892
31	0x3e0730a7	0.13202153
32	0xbe2ada05	-0.1668473
33	0x3df48e7b	0.119412385
34	0x3c412605	0.01178885
35	0xbe11a419	-0.14222755
36	0xbda9b7c1	-0.082870014
37	0xbdb69a93	-0.089162014
38	0x3c9afa01	0.01891804
39	0xbe09c34a	-0.13453403
40	0xbe0a9fff	-0.13537596
41	0x3e137e67	0.14403687
42	0x3d52662f	0.05136698
43	0xbe19a915	-0.15005906
44	0xbe198cfc	-0.14995188
45	0x3c2c53db	0.01051804
46	0x3e1e5742	0.15462974
47	0xbce45f7a	-0.027877558
48	0x3e29bb0a	0.16575256
49	0xbd9df043	-0.07711842
50	0xbdf6c042	-0.12048389
51	0xbe2b6019	-0.16735877
52	0x3e0f253c	0.13979048
53	0x3c627d8b	0.013823877
54	0x3beacd66	0.0071655987
55	0x3e2c1812	0.16806057
56	0x3e37b845	0.17941387
57	0x3db4d43e	0.088295445
58	0x3dd8db72	0.10588731
59	0xbe25c7b3	-0.1618946
60	0x3e3ccea7	0.18438207
61	0x3e715553	0.23567705
62	0x3e97f146	0.29676265
63	0x3d1287e6	0.035774134
64	0xbd7bfdd6	-0.061521374
65	0xbcf91a05	-0.030407915
66	0x3d95c594	0.07313076
67	0x3c6edd26	0.014579093
68	0xbc02edde	-0.007991282
69	0xbcbb2fee	-0.022850003
70	0x3dffd21f	0.12491249
71	0x3b5c1532	0.003358197
72	0x3e4f7af2	0.20261744
73	0xbda8f941	-0.082506664
74	0xbd381ecf	-0.044951256
75	0xbdf33cf5	-0.11876861
76	0xbc8e165b	-0.017344644
77	0xbdcdea49	-0.10054452
78	0x3c5c56e2	0.013448449
79	0xbcc338c9	-0.023830788
80	0xbdae6fa3	-0.08517387
81	0xbda05016	-0.07827775
82	0xbd246781	-0.04013777
83	0xbe4ffba8	-0.20310843
84	0xbddaa103	-0.10675242
85	0x3e902c53	0.28158817
86	0xbdcc1033	-0.09964027
87	0x3d56531b	0.05232535
88	0xbe2f5f21	-0.17126133
89	0x3e045233	0.12921982
90	0x3bbfb99a	0.005850983
91	0x3d881396	0.06644361
92	0xbe174e9e	-0.14776084
93	0xbda04f6a	-0.07827647
94	0x3e211322	0.15729955
95	0xbdab908c	-0.083771795
96	0xbe0fc35f	-0.14039372
97	0x3b1057eb	0.002202506
98	0xbbd5fd05	-0.0065304064
99	0xbd85d17a	-0.06534095
100	0xbdb72b62	-0.089438215
101	0x3d38ac20	0.045086026
102	0xbce451fc	-0.027871124
103	0xbe10c083	-0.14135937
104	0x3d347522	0.04405702
105	0x3c2abd43	0.0104211
106	0xbe10677d	-0.14101978
107	0x3dd4219b	0.10357972
108	0x3d991240	0.07474184
109	0x3cc65acf	0.024213223
110	0xbdbc5b76	-0.09197132
111	0xbe2c6048	-0.16833603
112	0x3e371f86	0.17883119
113	0xbc9a6dcb	-0.018851181
114	0xbe3a3d7c	-0.18187517
115	0xbd7038c8	-0.0586479
116	0xbe1e1cb1	-0.15440632
117	0xbccd74cb	-0.025080105
118	0xbd0a94d5	-0.033833344
119	0xbe377abd	-0.17917915
120	0xbdc329ee	-0.09529482
121	0xbd593bd3	-0.05303557
122	0xbdaafd0a	-0.083490446
123	0xbd0c3ed9	-0.034239624
124	0x3c0b3244	0.008495871
125	0xbec160ee	-0.37769264
126	0x3e3f05ac	0.18654507
127	0x3e215bd4	0.15757686
128	0x3e168326	0.14698467
129	0x3e81c029	0.2534192
130	0x3d9b12f5	0.07571975
131	0x3e460757	0.19338737
132	0x3d4bf421	0.049793366
133	0xbe0936dc	-0.13399833
134	0x3d7ecebe	0.062208883
135	0xbcf86d64	-0.030325599
136	0xbd1d8a4b	-0.038461965
137	0x3d874703	0.06605341
138	0x3dc0c9ae	0.09413467
139	0x3da6569a	0.08121987
140	0x3d51c6d2	0.051215
141	0x3db53782	0.08848478
142	0x3e3150cc	0.17315978
143	0x3e64005e	0.22265765
144	0x3e45ae28	0.19304717
145	0x3a3eaef2	0.00072739937
146	0x3e0ae489	0.13563742
147	0x3e7a8bc4	0.24467379
148	0xbd9818e6	-0.07426624
149	0x3df196d5	0.11796347
150	0x3e1d9a76	0.15390953
151	0x3e71efcc	0.23626631
152	0xbddc4155	-0.107546486
153	0xbb9fc8a6	-0.004876214
154	0xbdfaddf7	-0.12249368
155	0xbe6be27d	-0.23035617
156	0x3cb55f73	0.02214024
157	0x3dcd529c	0.10025522
158	0x3d9f10c5	0.077668704
159	0x3d1677d8	0.036735386
160	0x3d509e0d	0.05093198
161	0xbcc618cc	-0.024181746
162	0xbe0a0c45	-0.13481243
163	0x3e179777	0.14803873
164	0xbdd49d65	-0.10381583
165	0x3dd3c7bf	0.10340833
166	0x3da75847	0.081711344
167	0x3e59d91e	0.2127423
168	0x3e8eba35	0.2787644
169	0xbd55568e	-0.052084498
170	0x3e1b2a0d	0.1515276
171	0xbe0cadb3	-0.13738136
172	0xbd37b887	-0.044853713
173	0x3c84acd8	0.0161957
174	0x3dfc1ce4	0.12310198
175	0xbe8d64f5	-0.27616087
176	0x3d821860	0.063523054
177	0x3d6a7b33	0.0572464
178	0xbe1c7f50	-0.15282941
179	0x3e168af3	0.14701442
180	0xbde406fe	-0.11134146
181	0x3cc7670a	0.024341125
182	0xbdbf0f0a	-0.0932904
183	0xbd882209	-0.06647117
184	0x3e17c3aa	0.14820734
185	0xbe0d23e8	-0.13783228
186	0x3dc1208e	0.094300374
187	0x3dae4895	0.08509938
188	0x3db4953c	0.08817527
189	0x3d6da67d	0.058020104
190	0xbdd410f2	-0.103547946
191	0x3e69644d	0.22792168
192	0xbca8dd8c	-0.020613454
193	0x3dec0cdf	0.115258925
194	0x3e5b3058	0.2140516
195	0xbda62f8a	-0.08114536
196	0xbdabf3d9	-0.083961196
197	0xbd5a7c93	-0.05334146
198	0x3e54e8c5	0.2079192
199	0x3d87c68f	0.06629669
200	0xbd421fbc	-0.047393546
201	0xbd86fed4	-0.06591573
202	0x3d2cadd7	0.042157974
203	0x3b396011	0.002828602
204	0x3e181a79	0.14853849
205	0xbe1f454f	-0.15553783
206	0xbdf9d4e7	-0.12198811
207	0xbe73b9b9	-0.23801316
208	0x3c9c1113	0.01905111
209	0xbe3848a2	-0.17996457
210	0x3c81d670	0.015849322
211	0x3e4722d3	0.19446878
212	0x3d014524	0.03156008
213	0x3de66eee	0.11251627
214	0xbe8b7e7b	-0.27244934
215	0x3c25b1de	0.010113208
216	0xbdd317d1	-0.10307277
217	0x3d581991	0.052758757
218	0x3e515613	0.20442991
219	0x3e195ff1	0.14978005
220	0x3d561769	0.05226842
221	0x3e0dfb1d	0.13865323
222	0x3e872ca3	0.26401243
223	0xbe389fa7	-0.18029653
224	0xbba358d2	-0.0049849534
225	0x3dc12b30	0.094320655
226	0x3d8e7a5a	0.069569305
227	0x3d6e831d	0.058230508
228	0x3d8fc115	0.07019249
229	0xbe11dd52	-0.14244583
230	0x3e119697	0.14217602
231	0xbe256ea8	-0.16155493
232	0xbdf6efa5	-0.12057427
233	0xbe90a914	-0.28253996
234	0x3de4d01a	0.11172505
235	0xbcb04de8	-0.021521524
236	0xbdbc6e17	-0.092006855
237	0x3e3a01c5	0.18164738
238	0x3d1f9ec6	0.038969778
239	0x3e0c43bc	0.13697714
240	0x3c51a643	0.012795988
241	0x3e709959	0.23495997
242	0x3b86ae71	0.0041101505
243	0xbe2b1b4a	-0.16709629
244	0x3d9b738b	0.075903974
245	0xbe757f2b	-0.23974292
246	0x3d154b57	0.036448803
247	0x3dd3d132	0.10342635
248	0xbd08a0b9	-0.033356402
249	0xbdd183e3	-0.102302335
250	0x3e5462b5	0.20740779
251	0x3e010706	0.12600335
252	0x3e45c112	0.19311932
253	0xbe06a1df	-0.13147686
254	0x3e0aa3e4	0.13539082
255	0x3b866245	0.00410107

bias f4 [30]
0	0xbe06d5af	-0.13167451
1	0x3c08ded6	0.0083539095
2	0x3f1fcddc	0.6242349
3	0x3dafc599	0.08582611
4	0xbe098377	-0.13429056
5	0x3c812c44	0.015768178
6	0xbeae7166	-0.3407089
7	0x3f3e432a	0.74321234
8	0x3ebce6f2	0.36894947
9	0x3f0b4fcf	0.54418653
10	0x3f2c4f8e	0.6730889
11	0xbd0f1c94	-0.034939364
12	0x3f1e5e0f	0.6186227
13	0x3f21da5d	0.6322382
14	0x3f352d8d	0.7077263
15	0x3eae910b	0.34095034
16	0xbefa5750	-0.4889474
17	0xbe6e36bd	-0.23263068
18	0x3eeccd3a	0.46250325
19	0x3e58cae9	0.21171154
20	0xbe7ad08c	-0.24493617
21	0xbecdf05e	-0.40222448
22	0x3dbf1409	0.09329993
23	0xbed08681	-0.40727618
24	0xbed29573	-0.41129646
25	0x3ddca4f0	0.10773647
26	0xbea749d9	-0.3267353
27	0x3ee02ee6	0.4378578
28	0x3d492e8c	0.049116656
29	0x3f2b4b21	0.6691151

weight f4 [30, 30]
0	0x3e711624	0.23543602
1	0xbc8273dd	-0.015924389
2	0xbe5a2370	-0.21302581
3	0xbdd74c2b	-0.10512575
4	0x3dd1b70f	0.10239994
5	0x3e02d471	0.12776352
6	0x3e24aea2	0.16082242
7	0x3e401548	0.18758118
8	0x3e4b1488	0.19832051
9	0xbe4ce049	-0.20007433
10	0xbe06c271	-0.13160111
11	0xbd70bed0	-0.058775723
12	0x3e83bff8	0.25732398
13	0xbe52bd57	-0.2058004
14	0xbdd6bd8d	-0.10485373
15	0x3e3d16f2	0.18465784
16	0x3db8bb74	0.09020129
17	0x3e742bd7	0.23844849
18	0x3d5ca501	0.053868297
19	0x3e78f9ef	0.24314092
20	0x3d261198	0.040544122
21	0x3e12d195	0.14337762
22	0x3d9f01f2	0.07764043
23	0x3c9be089	0.019027965
24	0x3d4c6f4d	0.049910832
25	0x3d015ce0	0.031582713
26	0x3e74d426	0.23909053
27	0xbe26578d	-0.16244335
28	0x3dc9be7d	0.09850786
29	0x3e088d30	0.13335109
30	0x3e32d4bd	0.17463966
31	0xbcad90e2	-0.02118725
32	0xbe191e8f	-0.14953063
33	0x3d3a133f	0.04542851
34	0xbdc5aad2	-0.09651722
35	0xbd96710f	-0.07345783
36	0x3e0f4241	0.13990118
37	0xbc078aa9	-0.008272805
38	0xbda5d00d	-0.08096323
39	0xbe19a571	-0.15004517
40	0x3bdf0088	0.0068054833
41	0x3e036bc9	0.12834086
42	0xbdc434a7	-0.09580355
43	0xbd225b51	-0.039637867
44	0xbdfe5d38	-0.12420124
45	0x3e492e88	0.19646657
46	0xbc1e93da	-0.009678805
47	0x3e29ddf7	0.16588579
48	0xbf9152cb	-1.1353391
49	0x3c762426	0.015023267
50	0x3de4f7cd	0.11180077
51	0x3c209410	0.009800926
52	0xbdc2fbde	-0.09520696
53	0x3daf3cae	0.085564956
54	0x3e671630	0.22567058
55	0x3e093669	0.13399662
56	0x3d26d923	0.04073442
57	0xbf22049d	-0.6328829
58	0xbc91507f	-0.017738579
59	0x3d1a197c	0.03762196
60	0xbe4a7392	-0.19770649
61	0x3d7b73dd	0.061389793
62	0x3e93bfdc	0.28857315
63	0xbcf6cd88	-0.030127302
64	0xbe466066	-0.1937271
65	0xbe15fe4a	-0.14647785
66	0xbd8355db	-0.0641286
67	0xbcf1f8a1	-0.0295375
68	0x3e1cf764	0.15328747
69	0x3e9a555f	0.30143258
70	0x3e880909	0.26569393
71	0x3deb13a3	0.11478355
72	0x3d1e366f	0.03862613
73	0x3af9ce09	0.0019058596
74	0x3e8fba8b	0.28072008
75	0xbd865f29	-0.06561119
76	0x3d1424a6	0.036167763
77	0xbe03066d	-0.1279542
78	0x3f3b075c	0.73058105
79	0x3e0b702f	0.13617013
80	0x3c62fd0d	0.013854277
81	0x3e328399	0.17433013
82	0x3e1cfb24	0.15330178
83	0x3e16c287	0.14722644
84	0xbcfaf739	-0.030635463
85	0x3e103b54	0.14085132
86	0xbdbebeb9	-0.09313721
87	0x3f49877e	0.7872237
88	0xbdde69d5	-0.108600296
89	0xbc7dd2bb	-0.015492137
90	0x3dfc2d0e	0.12313281
91	0xbe14d54b	-0.1453449
92	0x3e259481	0.16169931
93	0x3c41a961	0.011820168
94	0x3c30042a	0.01074318
95	0xbdc37ae8	-0.09544927
96	0xbd27288f	-0.040810164
97	0xbd124e76	-0.035719357
98	0x3db219b9	0.086963125
99	0x3e6b0abc	0.22953314
100	0x3eaa9ff4	0.3332516
101	0x3e1b1128	0.15143263
102	0xbda95f1e	-0.08270095
103	0x3deaff78	0.11474508
104	0x3c983b57	0.018582983
105	0x3e2bc049	0.1677257
106	0xbe100fe3	-0.1406856
107	0xbd032299	-0.032015417
108	0x3f05c4f5	0.5225366
109	0x3e75926f	0.23981641
110	0xbd9e964e	-0.07743512
111	0x3d49fbc0	0.049312353
112	0x3b02d62c	0.0019964082
113	0xbca9feb7	-0.02075134
114	0xbe59f7e2	-0.21285966
115	0xbc230673	-0.009950268
116	0x3e1ec6b9	0.15505494
117	0x3f14330d	0.578904
118	0x3bc9c322	0.006157295
119	0xbd177770	-0.03697914
120	0xbde8890d	-0.11354265
121	0xbdb4aa38	-0.08821529
122	0x3e3078a0	0.17233515
123	0xbc13f4ee	-0.009030564
124	0xbe0ebc42	-0.13939002
125	0x3e06c3f8	0.13160694
126	0xbce0eebc	-0.027457587
127	0x3cf3a8f6	0.029743653
128	0x3e211fcc	0.15734786
129	0x3e5a3482	0.21309093
130	0x3da3952d	0.079874374
131	0xbe2dcfc2	-0.16973785
132	0x3dc1a134	0.09454575
133	0x3dc14f19	0.09438915
134	0x3e68f55c	0.22749847
135	0x3e28d954	0.16489154
136	0xbec7bffe	-0.39013666
137	0x3dd65471	0.10465325
138	0x3ef2d6b8	0.47429442
139	0x3e3642e3	0.17798953
140	0xbe21364e	-0.15743372
141	0xbe2e7d18	-0.17039907
142	0x3d1d6132	0.03842277
143	0xbd7a28df	-0.061074134
144	0x3a50b5a1	0.0007961635
145	0x3e17c66b	0.14821784
146	0xbc667798	-0.014066599
147	0x3e68f1e5	0.22748525
148	0x3e1a9b2c	0.15098256
149	0x3d88c68e	0.06678496
150	0xbe24f0d3	-0.16107492
151	0x3e2b6843	0.16738991
152	0x3ed739ec	0.42036378
153	0x3e29a432	0.16566542
154	0xbdf0093a	-0.1172051
155	0xbca11b8e	-0.01966646
156	0xbea8b5b1	-0.3295112
157	0xbd178272	-0.036989637
158	0xbcc35219	-0.023842858
159	0x3f005207	0.50125164
160	0x3dfe5f0f	0.12420475
161	0xbd39d2a3	-0.045366894
162	0xbcbdcad4	-0.023168005
163	0x3ea54888	0.322819
164	0x3ee86d95	0.45396104
165	0x3e87bca2	0.26511103
166	0xbe2aa1c9	-0.16663279
167	0xbe9c69e2	-0.30549532
168	0x3f05890b	0.52162236
169	0x3e4a8fc6	0.19781408
170	0x3dad6b4b	0.0846773
171	0xbe03d11e	-0.1287274
172	0x3d3e839d	0.046512235
173	0x3d185bab	0.037196796
174	0xbe4f1a05	-0.2022477
175	0x3db3ff11	0.087888844
176	0xbda7c71a	-0.081922725
177	0x3c295eb2	0.0103375185
178	0xbeb56bb9	-0.35433748
179	0x3def9840	0.11698961
180	0xbdb6b335	-0.089209
181	0x3de4f359	0.111792274
182	0x3ebb14ae	0.36539215
183	0x3dd35410	0.10318768
184	0x3e2a5a98	0.16636121
185	0xbe178b03	-0.14799123
186	0xbe6d42cc	-0.23170012
187	0x3deb59eb	0.1149176
188	0xbded6774	-0.11591998
189	0x3e156257	0.14588295
190	0x3ec1d26f	0.3785586
191	0xbde226dd	-0.11042569
192	0x3e050e30	0.12993693
193	0x3ee5c36c	0.44875658
194	0xbd41006b	-0.04711954
195	0x3e53a86f	0.20669721
196	0xbe1aa04f	-0.15100215
197	0x3c3b4058	0.011428915
198	0x3ed2819b	0.41114506
199	0x3d2f88ff	0.04285526
200	0xbe02ac82	-0.12761119
201	0xbe077a5b	-0.13230269
202	0x3de5160c	0.11185846
203	0x3d52f188	0.051499873
204	0xbb780c61	-0.0037849175
205	0xbdab5fba	-0.08367868
206	0x3c435450	0.011921957
207	0x3eb19164	0.34681237
208	0xbe7450ed	-0.23858996
209	0xbdf599b5	-0.11992208
210	0xbe046e37	-0.12932669
211	0xbcd72dbc	-0.026266925
212	0x3e738d1b	0.23784296
213	0x3dc4fa8b	0.096181
214	0x3e17d7f7	0.14828478
215	0x3b55f2b1	0.0032645876
216	0x3e47ce54	0.19512302
217	0x3e657ab7	0.22410093
218	0xbc84c46e	-0.016206946
219	0x3e4aaa9a	0.19791642
220	0x3ec621b6	0.38697594
221	0xbd249214	-0.040178373
222	0x3bdcca15	0.0067379572
223	0xbe716bfb	-0.23576348
224	0x3ecafa84	0.39644253
225	0x3ea9e99b	0.3318604
226	0xbd625bfa	-0.055263497
227	0x3e574eb6	0.2102612
228	0x3eddc2c7	0.43312666
229	0x3df68bbd	0.12038372
230	0x3de2a956	0.110674545
231	0xbda178f2	-0.078843966
232	0xbe143c0b	-0.1447603
233	0x3e2361e9	0.15955319
234	0xbd9ad4b3	-0.075601004
235	0x3da1b0e6	0.07895069
236	0xbd839d87	-0.0642653
237	0x3dca6fea	0.09884627
238	0xbd640aa7	-0.05567422
239	0xbd83a0aa	-0.064271286
240	0x3c8b89b6	0.01703344
241	0xbcc939c3	-0.024563676
242	0x3e193f9e	0.14965674
243	0x3df6fb2d	0.12059627
244	0x3c3aba97	0.011397026
245	0xbc364c15	-0.011126538
246	0xbe1d1f7a	-0.15344039
247	0xbdbcf38d	-0.09226141
248	0xbdd386ec	-0.10328469
249	0x3d6ced0b	0.05784325
250	0xbd986da5	-0.07442788
251	0xbd459cf1	-0.048245374
252	0xbe3c4aaf	-0.18387865
253	0x3debcc6f	0.11513602
254	0x3e068479	0.13136472
255	0xbdf6977c	-0.12040612

bias f4 [30]
0	0xbe034e08	-0.12822735
1	0xbef54428	-0.47903562
2	0x3edbb01a	0.42907792
3	0x3e9ac379	0.3022726
4	0x3eea9602	0.45817572
5	0x3e13f886	0.14450273
6	0x3ed6d55e	0.4195966
7	0x3f3828ec	0.7193744
8	0x3eb49556	0.35270184
9	0x3d83d130	0.06436384
10	0x3f25b91a	0.6473557
11	0xbec24c55	-0.37948862
12	0x3d8c085b	0.06837531
13	0x3f121bbe	0.5707358
14	0x3f0b9177	0.54518837
15	0xbee4b643	-0.44670305
16	0x3f4eaf47	0.807362
17	0x3e8fb7fc	0.28070056
18	0xbe43144d	-0.19050713
19	0xbdb00f6a	-0.0859669
20	0x3e1c95b5	0.15291484
21	0xbec5315a	-0.38514215
22	0xbd7fde7b	-0.062468033
23	0xbe5c18de	-0.21493861
24	0x3d877e09	0.06615836
25	0xbec13e98	-0.37743068
26	0x3e937173	0.28797492
27	0x3f4c6d37	0.7985415
28	0x3cd82cf3	0.026388621
29	0x3f343dce	0.70406806

weight f4 [30, 30]
0	0x3d7a9e7e	0.061186306
1	0xbdf4a5c7	-0.11945682
2	0x3e90a44e	0.28250355
3	0xbcbba4f4	-0.022905804
4	0xbdb3c9d0	-0.08778727
5	0xbf350eba	-0.70725596
6	0x3e994aa4	0.2993976
7	0x390c288b	0.00013366544
8	0x3de13a3b	0.10997435
9	0xbd87ba6c	-0.06627354
10	0xbe7639ff	-0.24045561
11	0xbdd4d27d	-0.1039171
12	0xbe5026f3	-0.20327358
13	0xbd1aee8d	-0.037825156
14	0x3dd0d2ef	0.101964824
15	0x3e25c2df	0.16187619
16	0x3e1ba1fd	0.15198512
17	0x3d8dca05	0.06923298
18	0x3dccca20	0.0999949
19	0x3d855785	0.06510834
20	0xbdba5d59	-0.09099836
21	0xbe234b03	-0.15946583
22	0x3df791b5	0.12088338
23	0xbd88d98d	-0.066821195
24	0xbe9d0d31	-0.30674127
25	0xbc485dab	-0.012229363
26	0x3ecfd36b	0.40590987
27	0x3ddce03b	0.10784956
28	0xbe2608e9	-0.16214336
29	0x3d864f41	0.06558085
30	0x3e107a29	0.141091
31	0xbd2ca329	-0.04214779
32	0x3e24e6e2	0.161037
33	0x3df0da7f	0.11760425
34	0x3dee249d	0.11628077
35	0xbdff769e	-0.12473796
36	0xbe081c2f	-0.13292001
37	0x3d0ac7f5	0.0338821
38	0x3d41869e	0.04724752
39	0xba1c3b6e	-0.00059597834
40	0xbe07d2e4	-0.13264042
41	0xbdd9c942	-0.1063409
42	0xbe260d57	-0.16216026
43	0xbdb8d4c7	-0.09024959
44	0x3e058758	0.13039911
45	0xbe3cfe8f	-0.18456481
46	0x3cd40e47	0.025885714
47	0xbe1c953b	-0.15291302
48	0xbdf42c81	-0.11922551
49	0x3e376040	0.1790781
50	0x3dbe6464	0.09296492
51	0xbda5de96	-0.080990955
52	0x3e1894d4	0.14900523
53	0xbd9a85db	-0.07545062
54	0xbdce90e7	-0.10086232
55	0x3de5288b	0.111893736
56	0x3cdccae3	0.026952213
57	0xbe4b3719	-0.19845237
58	0x3dc32235	0.09528009
59	0x3dd98444	0.10620931
60	0x3e5ddc1f	0.21666001
61	0x3dd7ddac	0.105403274
62	0xbe9b70a8	-0.30359387
63	0xbe04259b	-0.1290497
64	0xbe58768d	-0.21138974
65	0x3e0b100a	0.13580337
66	0xbd80ccfc	-0.06289098
67	0x3e079628	0.13240874
68	0x3dae33aa	0.08505948
69	0xbe15a37a	-0.14613143
70	0x3e447d9e	0.19188544
71	0x3e220c93	0.15825109
72	0xbd9aad98	-0.07552642
73	0x3e39db2a	0.1815001
74	0xbdce1798	-0.10063094
75	0xbcd99d60	-0.0265643
76	0x3cca43f4	0.024690606
77	0xbd8855d2	-0.06656994
78	0x3e2f0ab3	0.17093925
79	0x3e39a6f8	0.181301
80	0x3d809999	0.062792964
81	0x3dbaadbb	0.09115168
82	0xbe127b77	-0.1430491
83	0x3e30b7d0	0.17257619
84	0xbda1e322	-0.0790465
85	0x3dfc3764	0.123152524
86	0xbeb546b7	-0.35405514
87	0xbe4cafa4	-0.19988877
88	0x3e431ea2	0.19054654
89	0x3e3c1207	0.18366252
90	0xbdde4862	-0.1085365
91	0xbe2d044a	-0.16896167
92	0x3dba6415	0.091011204
93	0x3e2e6b3a	0.17033091
94	0x3e324b06	0.17411432
95	0xbf9f4841	-1.2443925
96	0x3e3d58c1	0.18490888
97	0xbd92e718	-0.07172984
98	0x3d119685	0.035543937
99	0xbda2942b	-0.07938417
100	0x3ddbe647	0.10737281
101	0xbeeb2316	-0.45925206
102	0x3db1df76	0.086852
103	0x3e6d21d4	0.23157436
104	0x3df57cc5	0.119866885
105	0xbea94201	-0.3305817
106	0x3de5de16	0.11224
107	0x3e50d7a4	0.2039476
108	0x3d8d4990	0.068987966
109	0x3dea4603	0.11439135
110	0xbdbcde9f	-0.09222149
111	0xbe3233ef	-0.17402624
112	0xbe2fdb4c	-0.17173499
113	0xbe589c6c	-0.2115342
114	0x3e862d06	0.26206225
115	0xbd8a5fee	-0.067565784
116	0xbdae2728	-0.08503562
117	0x3bb2de86	0.0054586558
118	0xbe0a9191	-0.13532092
119	0x3e6eb9e3	0.23313098
120	0x3dcfa08a	0.10138042
121	0x3dae366d	0.08506475
122	0x3d1a73c2	0.03770805
123	0x3dbc17cc	0.091842264
124	0x3dd6db06	0.10490994
125	0xbf12e2c6	-0.5737728
126	0x3e684e56	0.22686133
127	0x3d8a3e5f	0.067501776
128	0x3e903cb0	0.281713
129	0x3d7db947	0.061944272
130	0xbcc7c822	-0.024387423
131	0xbd0da54d	-0.03458147
132	0xbc00f7e9	-0.007871606
133	0x3e3352be	0.17512032
134	0xbd303043	-0.043014776
135	0x3d19c02b	0.03753678
136	0x3dd707a3	0.104995035
137	0x3c4fe683	0.012689236
138	0x3da12992	0.07869257
139	0x3d521d58	0.051297516
140	0xbe1dec18	-0.15422094
141	0xbd1bd862	-0.038048156
142	0xbdbd0a2a	-0.09230454
143	0xbe2b13cd	-0.16706772
144	0xbe16a1ee	-0.14710209
145	0xbe4fc740	-0.20290852
146	0x3e9f9d62	0.3117476
147	0x3ebe2841	0.37140086
148	0xbde4cdc9	-0.11172063
149	0x3c75f1a3	0.015011224
150	0x3e7bb973	0.24582462
151	0x3ddb4018	0.10705584
152	0xbe35dd6e	-0.1776025
153	0x3d3322ce	0.043734364
154	0xbdfd774b	-0.12376269
155	0xbe326cde	-0.17424342
156	0xbdf2b5b8	-0.11851066
157	0x3e21d3c4	0.15803438
158	0xbcd356ec	-0.025798284
159	0xbd3ad256	-0.04561075
160	0xbc371ed3	-0.011176783
161	0x3d4046a5	0.046942372
162	0xbc4d0fa9	-0.012515941
163	0x3e407073	0.18792896
164	0xbd572ef0	-0.052534997
165	0x3df5aa0a	0.11995323
166	0x3e930a66	0.2871887
167	0xbe481202	-0.1953812
168	0x3df87e4c	0.12133464
169	0x3dc0628d	0.09393797
170	0xbe18596c	-0.14877862
171	0xbdc52bda	-0.09627505
172	0xbda63686	-0.08115868
173	0x3e63afb0	0.22234988
174	0x3e341108	0.17584622
175	0x3d139942	0.03603483
176	0xbe07b6b6	-0.13253292
177	0xbe7a6f62	-0.24456552
178	0x3cb329e6	0.021870565
179	0x3de2c6de	0.11073087
180	0xbd54e1b1	-0.05197305
181	0xbe7e9304	-0.2486077
182	0xbb5341e7	-0.0032235326
183	0xbda8b187	-0.08236986
184	0x3e97f7c8	0.2968123
185	0xbf1552a0	-0.583292
186	0xbcea8571	-0.028628083
187	0x3e2188fd	0.15774913
188	0xbdf3260b	-0.118724905
189	0xbc4b4793	-0.012407201
190	0x3e3dcb63	0.18534617
191	0xbeab1fe8	-0.3342278
192	0x3a2a43d7	0.0006495094
193	0x3f0a0e0e	0.53927696
194	0x3db244f5	0.08704559
195	0xbc448b92	-0.011996167
196	0x3e1fe4cf	0.15614627
197	0xbe45e6af	-0.1932628
198	0xbe55cba5	-0.20878465
199	0xbe1769f3	-0.1478651
200	0xbcfc564d	-0.03080287
201	0xbe0a6587	-0.13515292
202	0xbdd22fe9	-0.102630444
203	0x3d2fed5f	0.042950984
204	0x3e44cebf	0.19219492
205	0xbe27ded2	-0.16393593
206	0xbdfaa587	-0.12238603
207	0x3f17f154	0.5935261
208	0x3dcf7452	0.10129608
209	0x3da5b005	0.08090214
210	0xbe2c9acf	-0.1685593
211	0x3ccb88d9	0.024845527
212	0xbe12fbde	-0.14353892
213	0xbda4ebad	-0.08052764
214	0xbe2e08da	-0.16995564
215	0xbdf3dc84	-0.119072944
216	0x3e1e6c54	0.15471011
217	0xbdbcdc76	-0.09221737
218	0x3d40521e	0.046953313
219	0xbd345f39	-0.044036124
220	0xbaae52f9	-0.0013299874
221	0x3e2b2c5c	0.1671614
222	0xbcad8c61	-0.021185102
223	0x3e1efa5a	0.15525189
224	0xbe116eef	-0.14202474
225	0xbca156fb	-0.019694796
226	0x3e0e4611	0.13893916
227	0x3e195348	0.14973176
228	0xbdf9c519	-0.121957965
229	0x3e0f60af	0.14001726
230	0xbdbafde4	-0.09130457
231	0xbd085a90	-0.033289492
232	0x3e2d59fd	0.16928859
233	0x3dca6dac	0.098841995
234	0xbdecdde2	-0.11565758
235	0x3e15f56b	0.14644401
236	0xbd8f90c4	-0.07010034
237	0xbe14291a	-0.14468804
238	0xbcd53531	-0.02602634
239	0x3dd1aa41	0.102375515
240	0x3d4d3b4e	0.050105385
241	0xbe7171d8	-0.23578584
242	0xbd2cc3d8	-0.04217896
243	0xbd16d755	-0.03682645
244	0xbdab75b9	-0.08372063
245	0xbe565298	-0.20929945
246	0xbe097823	-0.13424735
247	0x3d84edbd	0.064906575
248	0x3dd989ac	0.10621962
249	0x3d19cf23	0.037551057
250	0x3da0dec5	0.0785499
251	0xbc95e84d	-0.018299246
252	0xbe0b8d35	-0.13628085
253	0xbdacc6ff	-0.08436393
254	0x3d68f27f	0.056871887
255	0xbca21fc4	-0.019790538

bias f4 [30]
0	0x3e6ed33c	0.23322767
1	0x3cf988c6	0.030460726
2	0xbde36269	-0.111027546
3	0x3ef43a12	0.47700554
4	0x3f049ba5	0.51799995
5	0xbb791a45	-0.0038010043
6	0x3f662791	0.89904124
7	0xbd648549	-0.055791173
8	0xbda51834	-0.08061257
9	0xbd944351	-0.07239402
10	0x3f0d2473	0.5513374
11	0x3eaefcc3	0.34177217
12	0xbd3d64c5	-0.04623868
13	0xbe8956f0	-0.2682414
14	0xbded715d	-0.11593888
15	0x3f19a2f2	0.6001426
16	0x3f224c98	0.6339812
17	0x3f1ab986	0.60439336
18	0x3d9e20cf	0.077211015
19	0x3d6080e4	0.05481042
20	0x3f226862	0.63440526
21	0xbe242909	-0.16031279
22	0x3f74c89a	0.95618594
23	0x3f31ee52	0.6950427
24	0x3e3ecba3	0.18632369
25	0x3e9fc9ea	0.31208736
26	0x3f3a1829	0.72693115
27	0xbd8f1ac8	-0.0698753
28	0xbc394e7b	-0.011310215
29	0x3f07ffc3	0.53124636
