models/model_omnet_obst.pth (torch, 14215 bytes, 22 tensors)

weight f4 [10, 2]
-0.29131192 0.6784649 0.02242427 -2.3340428 -0.59317297 -0.07063787 -0.58954084 -0.28643462
-0.2717757 -0.0767725 0.9877698 -2.9098272 -0.28806815 0.12287239 0.39791912 -3.9499981
0.32458955 -1.7561992 -0.39646453 0.33747596
00000000: d626 95be e0af 2d3f 1ab3 b73c f560 15c0
00000010: 2fda 17bf 96aa 90bd 26ec 16bf 8fa7 92be
00000020: 2f26 8bbe e73a 9dbd 7bde 7c3f 9c3a 3ac0
00000030: ab7d 93be 85a4 fb3d 0ebc cb3e c5cc 7cc0
00000040: 9a30 a63e 23cb e0bf 66fd cabe a6c9 ac3e

bias f4 [10]
-0.23480202 4.2652974 -0.051803786 -0.6053604 -0.52210176 5.575677 0.1591304 -5.7340693
-6.557965 -0.6290369
00000000: f16f 70be 517d 8840 3530 54bd e6f8 1abf
00000010: 76a8 05bf f26b b240 14f3 223e 7f7d b7c0
00000020: d9da d1c0 9008 21bf

weight f4 [10, 10]
0.23214951 5.1553893 0.1349691 0.2135177 -0.19049205 0.16531375 -0.22681369 -0.9522966
-2.5164158 0.1689431 -0.1307487 0.07816803 -0.14422597 -0.07433588 0.044642106 -0.04135164
-0.28177655 0.025468297 -0.15669923 -0.2025044 0.23524418 -0.85625625 -0.03488771 -0.181521
0.027571155 -1.2794619 -0.26689464 2.007386 3.407996 0.06969727 -0.17468524 -3.2303164
-0.15064733 -0.18323985 -0.0026740194 -0.75229156 -0.1902417 1.4951257 2.237101 -0.310213
0.2675839 -2.8142693 0.13971014 -0.084678434 -0.17490773 -0.74360037 -0.05596709 1.0365223
2.6843424 0.21141325 0.1920373 -0.9348165 -0.0055917893 0.3137273 -0.07737108 -1.2651873
-0.055042863 2.0960944 3.2469525 0.13189074 0.17784543 -2.7965612 0.08627371 -0.22506683
0.041946866 -0.6629997 -0.29792437 1.1175299 2.184377 0.046743356 0.18268068 -0.7220535
-0.27686778 -0.038418133 -0.058694147 -1.2121358 0.020419527 1.9397149 3.119685 0.24975787
-0.0019002826 -2.9082837 0.26659697 0.19605108 0.110353455 -0.6595356 -0.19009751 1.176002
2.2283223 -0.20809765 0.011823 -3.0127587 -0.22242308 -0.27555493 0.23556477 -0.7261016
0.1288724 1.294426 2.2991126 -0.008489278
00000000: 9ab8 6d3e f3f8 a440 5735 0a3e 62a4 5a3e
00000010: 5910 43be 0248 293e d941 68be b6c9 73bf
00000020: f50c 21c0 6cff 2c3e fde2 05be 8f16 a03d
00000030: f9af 13be 693d 98bd a4da 363d 5660 29bd
00000040: 0445 90be e4a2 d03c c375 20be 505d 4fbe
00000050: dae3 703e 9c33 5bbf 6ae6 0ebd a4e0 39be
00000060: e7dc e13c 68c5 a3bf 6aa6 88be 0379 0040
00000070: 9b1c 5a40 71bd 8e3d b0e0 32be 81bd 4ec0
00000080: 4b43 1abe 3aa3 3bbe 9a3e 2fbb 2e96 40bf
00000090: b8ce 42be 4760 bf3f aa2c 0f40 3dd4 9ebe
000000a0: c200 893e fd1c 34c0 2d10 0f3e e36b adbd
000000b0: 031b 33be 985c 3ebf bf3d 65bd c3ac 843f
000000c0: 44cc 2b40 b77c 583e 6da5 443e 2250 6fbf
000000d0: 543b b7bb dda0 a03e bb74 9ebd a8f1 a1bf
000000e0: a074 61bd 6926 0640 12ce 4f40 5e0e 073e
000000f0: 1d1d 363e dcfa 32c0 45b0 b03d eb77 66be
00000100: 7ad0 2b3d 59ba 29bf 8b89 98be 380b 8f3f
00000110: d5cc 0b40 f675 3f3d a510 3b3e 80d8 38bf
00000120: 9dc1 8dbe 555c 1dbd 4669 70bd 4427 9bbf
00000130: da46 a73c 9448 f83f eba8 4740 87c0 7f3e
00000140: e712 f9ba 5221 3ac0 667f 883e 9dc1 483e
00000150: fe00 e23d 53d7 28bf eca8 42be 3c87 963f
00000160: d59c 0e40 8d17 55be 42b5 413c 0ad1 40c0
00000170: e0c2 63be 8915 8dbe e437 713e cbe1 39bf
00000180: 20f7 033e c0af a53f a924 1340 9d16 0bbc

bias f4 [10]
2.4227283 -0.18553065 -6.606254 -4.5970235 -4.5683484 -6.489938 -4.3022194 -5.405267
-4.114073 -4.140058
00000000: fb0d 1b40 bffb 3dbe 6f66 d3c0 d11a 93c0
00000010: e92f 92c0 92ad cfc0 c8ab 89c0 f2f7 acc0
00000020: 7ca6 83c0 5b7b 84c0

weight f4 [10, 10]
-10.206607 -1.0847647 10.975058 6.108507 6.089609 11.320878 6.034668 10.416558
6.495857 6.668439 3.5481088 3.659169 5.193229 4.299148 3.837537 4.1046157
3.128467 2.6325326 0.24547781 3.6828108 -11.169419 -0.6379377 11.483221 6.604432
6.439504 11.32179 7.063482 11.431846 6.336258 6.359409 -1.9155844 9.657024
11.011847 7.5807376 6.296755 8.494897 2.375466 -2.7692008 -2.7951746 6.29049
-10.448578 -0.8762404 11.049644 5.863927 6.227907 11.615486 6.214624 10.374087
6.726655 6.2576785 -11.175697 -0.967846 11.764177 5.9576125 5.7690754 11.418257
8.587512 11.220313 6.373684 6.2226453 -11.243052 -1.39527 11.750333 6.4842644
6.4196978 11.305963 7.959252 11.460287 6.31668 5.8613515 -10.997956 -0.72752506
11.629613 6.025428 5.8063846 11.756691 8.127606 10.716444 6.307319 6.3399253
-8.1989355 8.144479 10.779345 6.939602 5.729911 10.828742 4.930972 5.307249
2.9688592 5.600165 -11.224207 -1.3647653 11.915627 6.2762 6.25675 11.542237
8.026842 11.1608925 6.519451 5.822287
00000000: 434e 23c1 92d9 8abf d699 2f41 e478 c340
00000010: 14de c240 5122 3541 001c c140 39aa 2641
00000020: 0fde cf40 da63 d540 3714 6340 d32f 6a40
00000030: ef2e a640 9f92 8940 359a 7540 0359 8340
00000040: ce38 4840 6a7b 2840 895e 7b3e 2cb3 6b40
00000050: f1b5 32c1 e34f 23bf 46bb 3741 8257 d340
00000060: 6b10 ce40 0d26 3541 0b08 e240 d7e8 3641
00000070: a0c2 ca40 4780 cb40 df31 f5bf 2c83 1a41
00000080: 8630 3041 6795 f240 047f c940 19eb 0741
00000090: a307 1840 963a 31c0 24e4 32c0 b24b c940
000000a0: 602d 27c1 4a51 60bf 58cb 3041 4aa5 bb40
000000b0: 044b c740 08d9 3941 33de c640 43fc 2541
000000c0: c240 d740 e73e c840 a8cf 32c1 c1c4 77bf
000000d0: 123a 3c41 c3a4 be40 449c b840 2eb1 3641
000000e0: 7366 0941 6786 3341 38f5 cb40 e91f c740
000000f0: 8ae3 33c1 3598 b2bf 5d01 3c41 187f cf40
00000100: 2a6e cd40 39e5 3441 31b2 fe40 565d 3741
00000110: 3e22 ca40 3190 bb40 a1f7 2fc1 153f 3abf
00000120: e512 3a41 4ed0 c040 e7cd b940 681b 3c41
00000130: ad0a 0241 8e76 2b41 8fd5 c940 abe0 ca40
00000140: d72e 03c1 c94f 0241 3278 2c41 3811 de40
00000150: 6e5b b740 8742 2d41 86ca 9d40 fcd4 a940
00000160: ca01 3e40 8d34 b340 5a96 33c1 a1b0 aebf
00000170: 68a6 3e41 a1d6 c840 4c37 c840 01ad 3841
00000180: f26d 0041 0493 3241 589f d040 2d50 ba40

bias f4 [10]
-9.146028 7.1781826 -9.630563 -2.535461 -9.206216 -9.647166 -9.706844 -9.505836
-6.77838 -9.698538
00000000: 2156 12c1 acb3 e540 c916 1ac1 fe44 22c0
00000010: a94c 13c1 cb5a 1ac1 3c4f 1bc1 e717 18c1
00000020: 7de8 d8c0 362d 1bc1

weight f4 [10, 10]
0.095281325 0.15407142 0.26702738 -0.08054131 0.25986546 0.16574562 -0.30645022 0.111617446
0.11887312 0.28849283 -0.2517367 -0.27683473 -0.17690647 0.21893449 0.17693697 0.1965174
-0.30089676 0.2891813 -0.24164364 -0.022745261 -0.08869576 0.09531883 -0.13462429 -0.23320891
0.06830409 -0.2670296 -0.11330462 0.109816305 -0.04062139 0.21466547 -0.08594819 -0.038958523
-0.08819537 -0.019053642 -0.29226753 0.038933683 0.022847382 0.11769874 0.20357037 -0.020638134
-0.23773229 -0.22608013 -0.13604212 -0.15616384 0.14083777 0.13354668 0.29906324 -0.08723578
0.07579918 -0.10319282 -0.30521688 -0.013384497 -0.062471267 -0.11312168 -0.22175075 0.102916084
-0.102802575 0.00094288454 -0.021903593 0.08031433 -0.20075415 -0.23753706 -0.013132416 -0.14557716
0.09248641 -0.20789541 -0.2955987 0.13848822 -0.016222537 -0.23872353 -0.2884214 0.1417539
-0.15583079 -0.1836982 0.09536162 -0.26428464 0.29763323 -0.13019279 -0.13101488 0.23136458
0.07137906 -0.119529955 -0.034861583 0.21915355 0.11003936 0.2953035 0.1368664 -0.069916554
-0.0071311956 0.15039627 -0.0329348 -0.08689843 -0.26622325 0.30931428 -0.115570344 -0.25495142
-0.10628946 -0.07597779 0.007127577 -0.1501933
00000000: db22 c33d e6c4 1d3e d0b7 883e d8f2 a4bd
00000010: 160d 853e 38b9 293e 0be7 9cbe b097 e43d
00000020: c073 f33d 55b5 933e a2e3 80be 48bd 8dbe
00000030: f826 35be 5d30 603e f72e 353e db3b 493e
00000040: 240f 9abe 920f 943e 6e71 77be 4554 babc
00000050: 1fa6 b5bd 8536 c33d f3da 09be 51ce 6ebe
00000060: 04e3 8b3d 1bb8 88be 410c e8bd 5fe7 e03d
00000070: 9d62 26bd 44d1 5b3e 9b05 b0bd f992 1fbd
00000080: c69f b4bd 6216 9cbc 17a4 95be ed78 1f3d
00000090: 6f2a bb3c 090c f13d c074 503e 4e11 a9bc
000000a0: 1870 73be 8d81 67be a04e 0bbe 6ae9 1fbe
000000b0: c737 103e 76c0 083e d11e 993e aca8 b2bd
000000c0: 9a3c 9b3d c256 d3bd 6345 9cbe a64a 5bbc
000000d0: dfe1 7fbd 57ac e7bd a112 63be abc5 d23d
000000e0: 288a d2bd e92b 773a 2a6f b3bc d77b a43d
000000f0: 7f92 4dbe ea3c 73be 5829 57bc 2e12 15be
00000100: 8469 bd3d 89e2 54be b658 97be dbcf 0d3e
00000110: 20e5 84bc f173 74be f8ab 93be ef27 113e
00000120: 1b92 1fbe 621b 3cbe f44c c33d 5150 87be
00000130: 6263 983e 4251 05be c428 06be d6ea 6c3e
00000140: 2f2f 923d 1fcc f4bd 05cb 0ebd ca69 603e
00000150: 515c e13d 0532 973e b526 0c3e 6930 8fbd
00000160: ceac e9bb 7b01 1a3e a4e6 06bd cef7 b1bd
00000170: 6a4e 88be 715e 9e3e 25b0 ecbd fe88 82be
00000180: 4aae d9bd 3e9a 9bbd 738e e93b 46cc 19be

bias f4 [10]
0.09872169 0.14073117 0.24917707 -0.012991729 0.18055601 0.21838197 0.020285815 -0.16345981
0.023713442 -0.13437346
00000000: 992e ca3d d51b 103e 4628 7f3e 43db 54bc
00000010: ade3 383e 869f 5f3e 702e a63c 0262 27be
00000020: b142 c23c 3299 09be

weight f4 [10, 10]
-0.086804636 -0.31213358 0.19247553 -0.17836227 -0.11403791 -0.1986212 0.2937751 -0.23662712
0.050532497 0.15266821 -0.22696492 0.045091197 -0.0921716 0.08363629 -0.25510383 -0.09459987
-0.23436026 0.043934304 -0.07627892 0.21621682 0.040611174 -0.12613402 -0.08165869 -0.24586985
-0.048460804 0.17553237 -0.041471615 -0.040664516 0.07236032 0.009246579 -0.016549638 0.27307373
0.22283974 -0.16940475 0.30566 -0.2734724 -0.28123704 0.12716943 0.006611275 0.25881606
-0.17184794 0.043766174 -0.011850707 0.035954807 0.2986276 -0.086256064 0.076741084 -0.18286446
-0.0042444128 -0.22154246 -0.21247442 0.055883326 -0.24299264 -0.19569612 -0.17963244 -0.22308248
0.05696678 0.25244457 0.02613191 0.09131983 0.31083214 -0.088783555 -0.19766833 0.056972362
-0.27218598 0.13188373 0.24598777 -0.2449984 -0.015573955 -0.0064830664 0.14887823 0.043177757
-0.06938295 0.1753835 0.07714294 0.15751837 0.120884456 -0.19429913 0.2682535 0.18119963
-0.1333494 0.26241586 0.037801597 -0.28189325 0.30307257 0.14183672 -0.07729418 -0.27245742
0.011597495 0.0741365 0.1338818 -0.21985729 -0.031121636 0.16448793 0.17716478 -0.079661116
-0.04257117 0.050376505 0.26638657 0.26246643
00000000: a1c6 b1bd f9cf 9fbe 4e18 453e 99a4 36be
00000010: b58c e9bd 5b63 4bbe b169 963e 614e 72be
00000020: 2afb 4e3d 0e55 1c3e 7e69 68be 8cb1 383d
00000030: 77c4 bcbd 8149 ab3d f89c 82be 94bd c1bd
00000040: 23fc 6fbe 75f4 333d 1f38 9cbd f167 5d3e
00000050: e757 263d 4729 01be ac3c a7bd 4ec5 7bbe
00000060: d67e 46bd c2be 333e 24de 29bd d68f 26bd
00000070: a631 943d f77e 173c 1b93 87bc 52d0 8b3e
00000080: 1a30 643e 7078 2dbe 787f 9c3e 9304 8cbe
00000090: 4dfe 8fbe b438 023e 65a3 d83b 8a83 843e
000000a0: e8f8 2fbe 2944 333d 7829 42bc 5945 133d
000000b0: b7e5 983e 05a7 b0bd 6e2a 9d3d d240 3bbe
000000c0: b714 8bbb 07dc 62be e592 59be eae5 643d
000000d0: 10d3 78be 9064 48be 91f1 37be bc6f 64be
000000e0: 0056 693d 6a40 813e 9612 d63c e405 bb3d
000000f0: 6425 9f3e 27d4 b5bd 9169 4abe da5b 693d
00000100: f65b 8bbe 870c 073e 38e4 7b3e dce0 7abe
00000110: e729 7fbc e76f d4bb 8973 183e 29db 303d
00000120: a618 8ebd bb97 333e 1efd 9d3d 7f4c 213e
00000130: 4592 f73d 5af6 46be 8658 893e 658c 393e
00000140: bf8c 08be 5f5b 863e d9d5 1a3d 5054 90be
00000150: 542c 9b3e a53d 113e 694c 9ebd 8a7f 8bbe
00000160: 6b03 3e3c e1d4 973d 5018 093e 4522 61be
00000170: cdf2 febc 866f 283e af6a 353e 5e25 a3bd
00000180: 1b5f 2ebd 9857 4e3d d263 883e 0062 863e

bias f4 [10]
0.2698514 -0.15898624 -0.16967982 0.24052867 -0.16912206 -0.11527642 0.18414472 -0.13396071
0.16538599 -0.0046011047
00000000: f629 8a3e 4acd 22be 8cc0 2dbe 264d 763e
00000010: 552e 2dbe 0b16 ecbd 6f90 3c3e ff2c 09be
00000020: f25a 293e ddc4 96bb

weight f4 [1, 10]
-29.842691 -29.710098 -29.743885 -29.66588 -29.69405 -29.756138 -29.736378 -29.889212
-29.466911 -29.717756
00000000: d5bd eec1 48ae edc1 7af3 edc1 b953 edc1
00000010: 6a8d edc1 920c eec1 1ae4 edc1 1b1d efc1
00000020: 3cbc ebc1 f7bd edc1

weight f4 [10, 2]
0.18010734 -1.3588994 -0.23131682 0.24498336 0.73271567 1.2050339 0.2928889 -0.877235
0.20673406 -1.2044146 0.5870768 -1.4441777 0.16975573 -1.3824073 0.19758688 1.2633384
-0.7061626 0.6670044 -0.27179542 0.12981102
00000000: 0f6e 383e 6af0 adbf 51de 6cbe ebdc 7a3e
00000010: 4193 3b3f 8d3e 9a3f 89f5 953e 7992 60bf
00000020: 18b2 533e 422a 9abf aa4a 163f d1da b8bf
00000030: 72d4 2d3e b9f2 b0bf 3754 4a3e 13b5 a13f
00000040: 12c7 34bf cdc0 2a3f c528 8bbe 2eed 043e

bias f4 [10]
-3.1031582 -0.029731229 2.580991 -3.8550675 -1.9291922 -2.8077755 -3.0588694 2.7755148
-0.1855348 0.63504285
00000000: 259a 46c0 e88e f3bc f52e 2540 6db9 76c0
00000010: c5ef f6bf 98b2 33c0 84c4 43c0 09a2 3140
00000020: d6fc 3dbe 2b92 223f

weight f4 [10, 10]
-1.2097161 0.24720283 -0.17310408 0.53759575 -0.33935177 -0.08488572 1.1442161 0.1420092
-0.23218502 -0.08653392 2.2551563 -0.28550503 -0.50850606 2.8722665 2.80055 1.4245859
2.327975 -2.4981182 -0.27697274 0.027889514 3.2824707 0.23028018 -0.7721182 1.9978353
1.3631331 1.233723 2.7849793 -1.0277646 -0.26689103 0.011469348 0.8136648 -0.26857987
-0.5166026 0.5122372 0.78095335 0.07923922 0.6547598 -0.7756806 0.29927143 0.0633127
1.44943 0.025047434 -0.6549581 1.0229657 0.9210671 0.35375422 1.3506713 -0.7944255
-0.1331553 0.21807295 0.5949212 -0.20910026 -0.53000766 0.46259746 0.24633421 0.10205479
0.7486119 -0.70009655 0.22465046 -0.32395855 1.942669 0.17261362 -0.61921626 3.183834
2.80581 1.7217727 2.0077243 -2.692955 0.0850556 -0.0411788 3.3686838 -0.13568996
-0.5904014 2.3391953 1.8535546 0.9650155 2.7059896 -1.4342813 -0.22861324 -0.1033017
2.0573015 -0.08630647 -0.52279955 2.8324606 2.7206004 1.5969653 2.40845 -2.6200294
0.25683585 -0.25949246 2.793886 -0.27915862 -0.60871714 2.409213 1.9751608 0.91141886
2.8950799 -1.3270566 0.19676253 -0.27727252
00000000: fad7 9abf bd22 7d3e 3242 31be e09f 093f
00000010: 84bf adbe 90d8 adbd ac75 923f dc6a 113e
00000020: e9c1 6dbe b238 b1bd 7b54 1040 b72d 92be
00000030: 742d 02bf 37d3 3740 363c 3340 d558 b63f
00000040: 8bfd 1440 2be1 1fc0 5fcf 8dbe 8d78 e43c
00000050: 0014 5240 91ce 6b3e 8aa9 45bf 11b9 ff3f
00000060: 257b ae3f a3ea 9d3f 1a3d 3240 ca8d 83bf
00000070: f1a5 88be efe9 3b3c 564c 503f 4d83 89be
00000080: 1140 04bf fa21 033f 8fec 473f 2c48 a23d
00000090: 579e 273f 0193 46bf 1b3a 993e 17aa 813d
000000a0: ec86 b93f 4730 cd3c 56ab 27bf 8af0 823f
000000b0: 0ecb 6b3f 461f b53e cce2 ac3f 785f 4bbf
000000c0: dd59 08be 844e 5f3e c14c 183f 611e 56be
000000d0: 95ae 07bf 93d9 ec3e 093f 7c3e 1a02 d13d
000000e0: 08a5 3f3f 8739 33bf c50a 663e e5dd a5be
000000f0: 61a9 f83f a0c1 303e f584 1ebf f0c3 4b40
00000100: 6492 3340 0c63 dc3f 8e7e 0040 6059 2cc0
00000110: a131 ae3d 1aab 28bd 8498 5740 4ff2 0abe
00000120: 8c24 17bf 60b5 1540 4741 ed3f 410b 773f
00000130: ef2e 2d40 8896 b7bf 9719 6abe d78f d3bd
00000140: d4aa 0340 72c1 b0bd 31d6 05bf 0947 3540
00000150: 511e 2e40 5c69 cc3f 0b24 1a40 90ae 27c0
00000160: fd7f 833e 32dc 84be 07cf 3240 e1ed 8ebe
00000170: e3d4 1bbf 8c30 1a40 12d2 fc3f bf52 693f
00000180: fd48 3940 fedc a9bf 1e7c 493e aaf6 8dbe

bias f4 [10]
-0.27372912 -3.6620774 -2.611477 -0.82786286 -1.0971282 -0.8133229 -3.6409864 -2.3883808
-3.82027 -2.7062724
00000000: 3926 8cbe 7a5f 6ac0 7022 27c0 d2ee 53bf
00000010: b26e 8cbf ee35 50bf ec05 69c0 3bdb 18c0
00000020: 4e7f 74c0 9133 2dc0

weight f4 [10, 10]
1.0908127 2.4326901 3.887356 1.230855 2.2666566 1.1200602 2.3847735 2.903373
2.6368194 6.3125267 1.2736267 2.5006452 4.2520537 1.0143836 2.5038328 0.94839764
2.668732 2.1867418 2.419038 6.45502 1.429142 2.5837657 3.1518035 1.0644698
1.8907149 1.0170467 2.6866646 2.5761259 2.9606564 6.60247 1.1465755 2.8585217
3.5857403 1.5830481 1.874119 1.6523196 2.345995 2.8476121 2.4912581 6.318185
0.75579715 2.428545 4.2899566 1.3203303 2.24965 1.6515464 2.5124128 3.071074
2.3360782 6.165407 1.3439252 2.965524 3.3152802 1.5174444 1.8449627 1.3134675
3.2318003 3.580319 2.8771737 4.2345223 1.5138569 3.0328543 3.0869775 1.1243051
1.8813304 1.4563441 3.234111 3.4903383 3.5142376 3.9295254 1.4149872 3.2870564
3.437281 1.4180721 1.8535935 1.348742 3.1485133 3.0480535 3.099265 4.2734385
1.2232522 3.1784775 3.6153505 1.4783071 1.9106524 1.5913341 2.980137 3.0991235
3.168843 4.121351 1.5021312 3.0058358 3.3711452 1.2344587 1.7960738 1.4734089
3.015146 3.1509423 2.976241 4.9035563
00000000: c09f 8b3f 32b1 1b40 71ca 7840 a88c 9d3f
00000010: e710 1140 225e 8f3f 21a0 1840 ddd0 3940
00000020: a6c1 2840 3800 ca40 3306 a33f 920a 2040
00000030: d310 8840 52d7 813f cc3e 2040 30ca 723f
00000040: 81cc 2a40 94f3 0b40 85d1 1a40 868f ce40
00000050: 20ee b63f 6b5c 2540 26b7 4940 8c40 883f
00000060: f202 f23f 962e 823f 50f2 2b40 3fdf 2440
00000070: 657b 3d40 6f47 d340 fcc2 923f 05f2 3640
00000080: c57c 6540 52a1 ca3f 22e3 ef3f 357f d33f
00000090: c824 1640 473f 3640 c670 1f40 922e ca40
000000a0: ec7b 413f 486d 1b40 5347 8940 9500 a93f
000000b0: 44fa 0f40 df65 d33f 5fcb 2040 7a8c 4440
000000c0: 4e82 1540 044b c540 be05 ac3f 25cb 3d40
000000d0: 8d2d 5440 9e3b c23f bd27 ec3f b41f a83f
000000e0: d1d5 4e40 f223 6540 9d23 3840 3581 8740
000000f0: 10c6 c13f 491a 4240 0a91 4540 3be9 8f3f
00000100: 6fcf f03f 7c69 ba3f adfb 4e40 b461 5f40
00000110: 45e9 6040 587d 7b40 4d1e b53f 225f 5240
00000120: 69fc 5b40 6383 b53f 8d42 ed3f 94a3 ac3f
00000130: 3e81 4940 4f13 4340 5c5a 4640 02c0 8840
00000140: 8793 9c3f 2d6c 4b40 e761 6740 2b39 bd3f
00000150: 4290 f43f d6b0 cb3f 91ba 3e40 0a58 4640
00000160: 53ce 4a40 1be2 8340 d645 c03f 9d5f 4040
00000170: d8c0 5740 be02 9e3f bfe5 e53f aa98 bc3f
00000180: 27f8 4040 0aa9 4940 bc7a 3e40 efe9 9c40

bias f4 [10]
-2.1705842 -2.1068366 -2.205962 -2.0928464 -2.3734336 -1.9557855 -2.0664206 -2.046654
-1.9171472 -2.1383512
00000000: daea 0ac0 69d6 06c0 7b2e 0dc0 32f1 05c0
00000010: 56e6 17c0 2e57 fabf 3c40 04c0 61fc 02c0
00000020: 1465 f5bf bfda 08c0

weight f4 [10, 10]
-0.3091683 -0.06629019 -0.016270563 -0.18161117 -0.29983637 0.18490452 0.09070397 0.029293206
-0.21853717 0.058265794 -0.060985804 0.09386368 -0.15975322 -0.085706174 0.261709 -0.1735087
-0.124260925 0.12353401 0.23151894 -0.22204015 0.25467676 -0.023592923 -0.1409784 0.27287456
-0.26696628 -0.027909487 -0.2984295 0.065180115 -0.16745569 -0.20517235 -0.24042587 0.10657129
-0.13248971 -0.22256124 0.098734625 0.24337116 -0.21287033 -0.2572967 0.08026721 0.22093031
-0.035367858 -0.16027778 0.17364313 -0.21894097 -0.070373446 -0.16977939 -0.30751103 0.16233824
-0.2925637 -0.1684524 -0.03651491 -0.28736818 0.060415406 -0.12995571 0.124194734 -0.01407564
-0.14188433 0.030343112 0.016037934 0.27475134 0.28136796 0.25563845 -0.2791939 -0.28544036
-0.30311215 -0.25025254 -0.18153559 0.27905926 -0.037484862 0.104773805 0.25547123 -0.12310754
0.0036109854 -0.27482632 -0.038686164 -0.19536336 0.09051104 -0.118838094 0.3092531 -0.113465294
-0.032490086 -0.07340499 -0.2453845 0.00782886 0.0027214426 0.14381889 -0.038940392 -0.1545219
0.13144527 -0.22036628 -0.07855489 0.2782624 0.2978905 -0.29814446 -0.28677547 -0.2838506
-0.24898387 0.05151862 -0.30066338 0.2338276
00000000: 4f4b 9ebe 27c3 87bd d849 85bc 47f8 39be
00000010: 2784 99be 9c57 3d3e 01c3 b93d 4ef8 ef3c
00000020: 35c8 5fbe 1da8 6e3d 40cc 79bd 9a3b c03d
00000030: 5996 23be b886 afbd b9fe 853e 44ac 31be
00000040: 837c febd 66ff fc3d 4d13 6d3e 7e5e 63be
00000050: fe64 823e f245 c1bc a45c 10be 37b6 8b3e
00000060: ceaf 88be 70a2 e4bc c0cb 98be 277d 853d
00000070: 8179 2bbe b318 52be 3332 76be 0c42 da3d
00000080: 62ab 07be 18e7 63be 6135 ca3d 4a36 793e
00000090: aefa 59be 65bc 83be 2363 a43d 8e3b 623e
000000a0: e3dd 10bd dc1f 24be 81cf 313e 1032 60be
000000b0: f41f 90bd a6da 2dbe 1672 9dbe ff3b 263e
000000c0: e9ca 95be c97e 2cbe a990 15bd ec21 93be
000000d0: 2576 773d 1c13 05be cf59 fe3d 839d 66bc
000000e0: 204a 11be 1e92 f83c fc61 833c 35ac 8c3e
000000f0: 760f 903e 0be3 823e 81f2 8ebe 3d25 92be
00000100: 8431 9bbe 1a21 80be 77e4 39be dbe0 8e3e
00000110: ba89 19bd a693 d63d 20cd 823e ce1f fcbd
00000120: 48a6 6c3b 09b6 8cbe 6275 1ebd 550d 48be
00000130: da5d b93d 6361 f3bd 6c56 9e3e 7e60 e8bd
00000140: 5314 05bd 5b55 96bd 1346 7bbe 9e44 003c
00000150: 3b5a 323b 4245 133e f67f 1fbd fd3a 1ebe
00000160: 9799 063e b3a7 61be 63e1 a0bd 6978 8e3e
00000170: 1b85 983e 64a6 98be 3cd4 92be de54 91be
00000180: a1f5 7ebe 3005 533d 8df0 99be 8170 6f3e

bias f4 [10]
0.0623964 0.26295817 -0.31339043 -0.19779465 -0.25913292 0.115665756 -0.10754214 0.021687137
-0.093500696 -0.1878846
00000000: 5e93 7f3d 74a2 863e b674 a0be ae8a 4abe
00000010: 12ad 84be 2be2 ec3d 0e3f dcbd 39a9 b13c
00000020: 4b7d bfbd d264 40be

weight f4 [10, 10]
-0.21568781 0.26110694 -0.27023396 -0.12828028 0.12663789 0.07547815 -0.23486228 0.12226591
0.18632856 -0.26900566 0.29657337 0.2135327 -0.03930583 0.2698515 0.21507694 0.2785801
0.22667526 -0.21908638 -0.21044356 0.13075112 0.04469839 -0.14530359 0.07493497 0.25851628
-0.276868 0.018501338 0.048249476 -0.12553777 -0.12541544 -0.29751846 0.021777948 -0.072682515
0.17110398 -0.17629045 0.16891819 -0.07026333 0.14393108 0.19192205 -0.30000964 -0.3120456
0.082141675 -0.025305549 -0.2618362 -0.18400902 0.079024896 -0.16507208 0.2560618 -0.082584575
-0.30865663 0.026490562 -0.31567296 0.27023306 0.23984925 0.03493536 0.15674916 -0.06273262
0.022122314 -0.28955385 0.24052727 -0.06336515 0.03840954 -0.039827146 -0.16084313 -0.19137152
-0.2712592 -0.002867331 0.052372124 -0.11676456 0.18345904 -0.1723112 -0.15516894 0.29890764
0.194918 -0.053749394 0.015431686 -0.04904534 0.2243796 -0.25697443 -0.1426091 0.04150309
-0.2458337 0.113032416 0.05959206 0.043863054 0.20401429 -0.035922047 0.26273757 0.1349464
-0.05585328 -0.19600874 -0.07767583 0.21069014 -0.295991 -0.089862905 -0.25976074 -0.17301641
0.032768894 0.0550806 -0.25190744 0.29912457
00000000: 44dd 5cbe cfaf 853e 1b5c 8abe e85b 03be
00000010: 5dad 013e 4a94 9a3d bd7f 70be 8d66 fa3d
00000020: eacc 3e3e 1cbb 89be 77d8 973e 51a8 5a3e
00000030: 26ff 20bd fa29 8a3e 213d 5c3e 0da2 8e3e
00000040: 8f1d 683e 2e58 60be 847e 57be 9fe3 053e
00000050: a915 373d 77ca 14be 8177 993d 3f5c 843e
00000060: a4c1 8dbe 1e90 973c 3ea1 453d f98c 00be
00000070: e86c 00be 5754 98be ab67 b23c 92da 94bd
00000080: e235 2f3e 7c85 34be e4f8 2c3e 39e6 8fbd
00000090: ab62 133e 3787 443e dd9a 99be 71c4 9fbe
000000a0: e539 a83d 954d cfbc 650f 86be dc6c 3cbe
000000b0: ced7 a13d a808 29be 881a 833e 1a22 a9bd
000000c0: 3e08 9ebe bc02 d93c e39f a1be fd5b 8a3e
000000d0: 0b9b 753e 6118 0f3d da82 203e f679 80bd
000000e0: db39 b53c 6740 94be c84c 763e 96c5 81bd
000000f0: 5253 1d3d ca21 23bd 10b4 24be e5f6 43be
00000100: 7ce2 8abe d5e9 3bbb 2784 563d 4222 efbd
00000110: b0dc 3b3e 5972 30be 9be4 1ebe 6c0a 993e
00000120: 9698 473e 5328 5cbd 2fd5 7c3c c4e3 48bd
00000130: c4c3 653e 2792 83be 1f08 12be 25ff 293d
00000140: d4bb 7bbe 8a7d e73d ce16 743d bfa9 333d
00000150: 1fe9 503e ff22 13bd 8a85 863e 642f 0a3e
00000160: 69c6 64bd 84b6 48be 8114 9fbd 28bf 573e
00000170: 228c 97be 0b0a b8bd 5cff 84be 372b 31be
00000180: ad38 063d 329c 613d 03fa 80be db26 993e

bias f4 [10]
-0.17059232 0.108234905 0.16368826 -0.11582378 0.2851736 0.047683828 0.021250753 -0.19961031
0.1390895 -0.25495136
00000000: c1af 2ebe 43aa dd3d e59d 273e 0535 edbd
00000010: 4602 923e 1e50 433d 0f16 ae3c a566 4cbe
00000020: 7a6d 0e3e fc88 82be

weight f4 [1, 10]
-29.790358 -29.792536 -29.701618 -29.823551 -29.805323 -29.646038 -29.781664 -29.721554
-29.723911 -29.658407
00000000: a752 eec1 1d57 eec1 ea9c edc1 a296 eec1
00000010: 4d71 eec1 162b edc1 d940 eec1 bec5 edc1
00000020: 92ca edc1 6b44 edc1
