models/model_omnet_multi_longtraining.pth (torch, 34251 bytes, 55 tensors)

weight f4 [10, 2]
00000000: f894 053f 1528 963d a8df 343e efd9 863f
00000010: 2180 28bd c1b6 cd3f f955 233f 6564 45be
00000020: bdb7 91be a24e 89bd 6698 33bf 1510 fbbe
00000030: f12f ccbe a617 f7bd 4b7d fabe 57f8 d03e
00000040: 90bd ce3e a383 b9bd 136f bd3d 05ff 2a3f
0.52180433 0.07331864 0.17663443 1.0535258 -0.04113782 1.6071397 0.6380306 -0.19276579
-0.28460494 -0.06704451 -0.70154417 -0.49035707 -0.39880326 -0.120650575 -0.48923716 0.40814468
0.40379 -0.09058311 0.09249701 0.6679538

bias f4 [10]
00000000: aa70 a5c0 f84d a8c0 3ae0 a240 106b 6140
00000010: b7a4 ef3e 93b5 2dbf 00f1 343f f8fd debd
00000020: 13d0 9540 5a40 bcc0
-5.170003 -5.2595177 5.0898714 3.5221596 0.46805355 -0.67855185 0.70680237 -0.108882844
4.6816497 -5.8828554

weight f4 [10, 10]
00000000: d5da 2c3f f7b3 b73f 2a69 a2c0 a1da 2dbe
00000010: bf25 80bd eeda 583e c5b5 c13d 3b7d c53b
00000020: 22b8 44bf d8b5 7c40 6c30 9e3d cc77 a43e
00000030: 059e 2dbe 9a7a d8bd d142 8a3e 3356 473e
00000040: 9410 2f3e 68c9 b6bd 9e75 aabc 0086 1c3c
00000050: 4352 ba3e 4fb9 c33f 176d 9dc0 0aa0 853d
00000060: 9ffb 9cbe 78f4 b83c 3478 f13a 334b 90be
00000070: d809 51bf c5d5 6d40 fa59 5ebd 8dfb 6b3d
00000080: 6537 243e 8e6c 1ebd 89c6 1bbc 8ea8 6abe
00000090: c3aa ee3d 19b0 633e 7c90 3f3d 2bea 53bd
000000a0: af0e 68c0 07d9 0cc0 9de6 c43e e557 be3e
000000b0: 0cce 773e dba8 6b3e d9b3 0ebe a544 903e
000000c0: 14ab d33e 5a1a 74bf 363b 1dbf 733c bdbf
000000d0: 25ad aa40 71d9 f83d 3fd1 e53d d90e 4dbe
000000e0: bdea 963e abf1 0e3e d5a5 493f f90c 8ac0
000000f0: 8044 c5bf 5336 06c0 d7a2 d73f 2b18 9abb
00000100: c5a2 8ebe a047 943d 46ae 893c aa6a 673e
00000110: e0b2 e33d a971 98bf 6dd1 aebe 2659 9bbe
00000120: 7ebd 90bf a76b ebbe 3ee3 92be a546 22be
00000130: 8306 ac3c f4e7 95be 552c 90be 913a 3a3e
00000140: f2d1 223f 980c af3f c709 86c0 396c 43be
00000150: 240b 7dbe 10f7 193e 14b4 67be 36f5 883e
00000160: 9ab4 31bf acf5 4340 8725 2e3f 7bdc b33f
00000170: 926b 94c0 e0c3 2fbe e0c3 9ebe 0136 313e
00000180: 586c 90be bc7f 473e a0d8 3bbf 9192 5040
0.6752141 1.4351796 -5.0753374 -0.16977932 -0.062571995 0.21177265 0.09458498 0.0060268915
-0.76843464 3.9485989 0.077240795 0.32122648 -0.16954811 -0.105702594 0.27004102 0.19466476
0.17096168 -0.08925134 -0.020808037 0.009553432 0.36390886 1.5290927 -4.9195666 0.06524666
-0.30660722 0.02257751 0.0018422664 -0.28182372 -0.81655645 3.7161725 -0.054285027 0.057612944
0.16036756 -0.038677745 -0.009507784 -0.22915861 0.11653664 0.22235145 0.04676865 -0.05173699
-3.6258962 -2.2007463 0.38457194 0.37176433 0.24199694 0.23013632 -0.13935794 0.28177372
0.4134146 -0.9535271 -0.61418474 -1.4784073 5.333636 0.12150849 0.11221551 -0.20025195
0.29475966 0.13959377 0.78768665 -4.3140836 -1.541153 -2.0970657 1.684657 -0.004702588
-0.27858558 0.07240224 0.016806733 0.22599283 0.11118102 -1.1909686 -0.34144154 -0.30341452
-1.1307828 -0.4598057 -0.28688997 -0.15847261 0.020999199 -0.2927853 -0.28158823 0.18186404
0.636016 1.3675718 -4.1886935 -0.19084252 -0.24711281 0.15035653 -0.22627288 0.2674958
-0.694162 3.0618696 0.6802601 1.405166 -4.638131 -0.17164564 -0.31008816 0.17305757
-0.2820766 0.1948232 -0.7337742 3.2589457

bias f4 [10]
00000000: 049b 6bc0 1044 3bbf b2aa 6dc0 74c0 6c3d
00000010: 8be2 e73e d6dd 8240 f657 903e 4ab1 1abf
00000020: 7a0c 25c0 82ee 7cc0
-3.6813364 -0.7315073 -3.7135434 0.057800725 0.45290026 4.0895796 0.2819211 -0.6042677
-2.5788865 -3.9520574

weight f4 [10, 10]
00000000: deda 4441 f68a c4c0 6d63 3841 76ed f9c0
00000010: 0539 ef3f aa91 a5bf f588 b13e 8345 d63f
00000020: 17ba 2841 6d1b 5b41 97a6 4b41 4a73 89c0
00000030: c85f 4841 656f dac0 e78f ac3f 9c91 71c1
00000040: 698c 123e 9023 0640 bd70 4741 f6d7 4b41
00000050: 8424 5341 2472 97c0 3b51 4b41 9b89 e0c0
00000060: 63e2 893f 764e 5ec1 43bd c53e 6526 a93f
00000070: ea7e 4641 7c9e 5041 31f0 4c41 7e4d afc0
00000080: e20d 4741 c8b7 dfc0 1365 813f 9090 49c1
00000090: 33fc 12be 24d3 cf3f 996f 3d41 0a3d 6f41
000000a0: c460 4b41 4c88 ccc0 5fd7 3f41 cd01 eec0
000000b0: 9158 1d40 c250 9ebf 7967 073f ed1e 9d3f
000000c0: 2a6c 2e41 1e0b 4841 ef4a 5241 9cf7 a7c0
000000d0: 7ad8 4f41 d73d d1c0 ea37 b43f e2bd 5cc1
000000e0: 9d94 133e 180c 0540 7429 4a41 5490 4a41
000000f0: c468 5441 5544 bbc0 b3e9 4341 e5ae 00c1
00000100: 555c 0f40 649a 99bf df83 5f3f 3763 743f
00000110: 7b15 2841 fad7 4241 155e 4f41 0d49 93c0
00000120: 9976 4c41 a3b0 dfc0 ebd4 aa3f 469a 63c1
00000130: e60c 893e b53f cc3f 342c 3f41 c715 5541
00000140: 4c70 6341 68e9 91c0 4db1 5441 595f 03c1
00000150: 03b7 0941 16a3 d6c0 b2c0 b740 9fb1 e23f
00000160: 78a7 3b41 3c1c 6441 b70b 5541 dd66 92c0
00000170: f4c8 4541 d378 d8c0 7aa5 943f cb18 6ac1
00000180: d5e9 953e efa5 b63f c852 4841 4b51 4a41
12.303434 -6.141963 11.524274 -7.810237 1.8689276 -1.2935078 0.34674802 1.6739963
10.545432 13.694196 12.728171 -4.2953234 12.523384 -6.826098 1.3481416 -15.098049
0.14311375 2.0959206 12.465024 12.740225 13.196415 -4.732683 12.707332 -7.0167975
1.0772213 -13.8941555 0.38620958 1.3214842 12.405985 13.038692 12.8086405 -5.4782095
12.440889 -6.991184 1.010897 -12.597794 -0.14354019 1.623631 11.8397455 14.952402
12.711124 -6.391638 11.990081 -7.43772 2.4585307 -1.2368395 0.5289226 1.2275063
10.901407 12.502714 13.143294 -5.2489758 12.990351 -6.538799 1.4079564 -13.796358
0.1441216 2.0788631 12.63512 12.660236 13.275578 -5.8520913 12.244555 -8.042699
2.2400105 -1.2000241 0.87310594 0.9546389 10.505244 12.177729 12.960469 -4.6026673
12.7789545 -6.990312 1.3346227 -14.225164 0.26767653 1.5956942 11.948292 13.317817
14.214916 -4.559742 13.293286 -8.210778 8.607181 -6.707408 5.7422724 1.7710456
11.728386 14.256893 13.31536 -4.5750566 12.361561 -6.764749 1.1613 -14.631053
0.29279962 1.4269389 12.52021 12.644847

bias f4 [10]
00000000: 724a 0bc1 0d6e cdc0 ee75 ddc0 6308 eac0
00000010: a7dc 0cc1 3284 dec0 d3f1 0dc1 e6b4 d8c0
00000020: 042d 08c1 6616 d4c0
-8.705675 -6.419684 -6.9206457 -7.313524 -8.80387 -6.953637 -8.871539 -6.7720823
-8.51099 -6.627734

weight f4 [10, 10]
00000000: 3c0a f4bd da48 503e e60d 1dbe f1ed e83d
00000010: a239 923e d199 53bc fd34 46be fa55 58be
00000020: 1e8d 903e 919b 58be 4ade 7d3e 9989 883e
00000030: 619c 083e dccb 53be 2948 1ebd 11f7 4abd
00000040: 42f6 3d3d 249e 2abe 765b 93bd c8a5 7e3e
00000050: 4d62 06be 2ddc e2bc a09d 54be 3f4c 863e
00000060: 4e54 493e a76d b1bd c9b6 d2bd 66bb 6dbe
00000070: 326b 3abd 9bdf 853e 114c 97be 4b2e 7fbd
00000080: 14fd aabd 0ee4 64bc 5d4c 5a3d 7af9 03be
00000090: c833 663e d8f1 1fbd 7a7d 873e 5752 bbbd
000000a0: 765f 2ebd eeaa 7e3e de1e b73b 4f4b 0dbe
000000b0: 504c 163e b14d 8bbe 7892 523e da64 e43c
000000c0: ed60 58be 4a57 96bc ed03 103e 89e9 6b3e
000000d0: 02e2 183e 5054 543d efa9 6bbb 3511 2b3e
000000e0: 24f5 9b3e e8e5 bcbd 62a0 0d3d 2192 b6bd
000000f0: 1b8a 933e 65df 17be dd93 80be facc 8c3e
00000100: 41ad cebd 2393 33be 8d04 88bd 3a68 c3bd
00000110: 28f2 42bd 1516 6f3e 1479 70be a825 123d
00000120: 1994 983d c30f 63be 8037 163e 8dda 893e
00000130: ca7f 33be 20fa 613e 1cbf 993d b46b acbc
00000140: 54dd 823c eb20 363e 8a27 1e3e 7029 193e
00000150: 4e3a 6b3d d398 85bc f13f a03e 9ed8 313d
00000160: e0e1 843e e17a 323d b40f f0bc 07c8 a13e
00000170: 8528 23be 8ceb 91be e4f8 78be f733 7fbe
00000180: 13a4 753e 1e78 073e a4db 903e 7405 0abe
-0.119160146 0.2034029 -0.15337333 0.11373509 0.28559595 -0.012915091 -0.19356151 -0.21126547
0.28232664 -0.21153094 0.24791828 0.2666748 0.13340904 -0.20683235 -0.038643036 -0.049552027
0.046377428 -0.16661888 -0.07195179 0.24867928 -0.13123436 -0.027692879 -0.20763254 0.26230046
0.19661066 -0.08663493 -0.1028877 -0.23216018 -0.045512386 0.2614716 -0.29550222 -0.062300008
-0.08349052 -0.013970388 0.053295482 -0.12888137 0.2248069 -0.039049 0.2646292 -0.091465645
-0.042571507 0.24869892 0.0055883965 -0.13798259 0.14677548 -0.2720771 0.20563686 0.027880121
-0.21130724 -0.01835217 0.14063998 0.23038305 0.14929965 0.05183822 -0.0035959443 0.16705783
0.30460465 -0.09223539 0.03457678 -0.089145906 0.28816304 -0.14831312 -0.2511281 0.27500135
-0.10091639 -0.17536597 -0.06641493 -0.09541364 -0.04759422 0.23348267 -0.23483688 0.035680443
0.074501224 -0.22173981 0.14669609 0.26924554 -0.17529216 0.22068071 0.07507154 -0.02104745
0.015974678 0.17785995 0.1544477 0.14957213 0.05742865 -0.016308224 0.31298783 0.043419473
0.2595358 0.043574218 -0.029304363 0.3159792 -0.15933426 -0.2850002 -0.24313694 -0.24922167
0.2398837 0.13229415 0.28292572 -0.13478643

bias f4 [10]
00000000: c36d 9c3e d578 da3d 7cab 8c3e 2d72 593e
00000010: ec62 503e 782d 8d3e b48a 8abd fda0 29bd
00000020: 1d6d 903e 459e 8dbe
0.30552492 0.10667578 0.27474582 0.21234961 0.20350236 0.27573752 -0.06764737 -0.041413296
0.28208247 -0.27659813

weight f4 [10, 10]
00000000: 12d1 0d3e c77b 90be 95e4 a0be e335 9c3e
00000010: 14cc dabd 19c0 02be 7a37 3fbe 4599 4cbe
00000020: 87f6 b93d 0b64 f7bd 8d6a 933e 5ff7 913e
00000030: 36c9 6bbe 65a6 31be 199c 41be b111 283e
00000040: eaa4 4e3e 4e25 e03d 253f 87bc 2f9e 093e
00000050: 9068 2cbe 0eec 043e 9170 0c3e ebd9 9a3c
00000060: a468 99be 2ae4 003e f14c 11be fcbe 6a3e
00000070: 2ee0 28be 1133 883e 4abb 863e e95a 03bd
00000080: dcaa 373e 09d4 8bbe 9472 323c cb02 9fbd
00000090: 3966 a83c 7038 963d 1ad6 47bd 0c0e 403e
000000a0: 8c85 853e d92a 6b3d a3e4 5a3e 68a8 673c
000000b0: 4349 c73c 8cfc 14bc ee8e 20be e343 083e
000000c0: 93fc 4f3d 710a 4fbe daad 6fbe 38fd 78be
000000d0: a884 373d 4ddf 8cbe e0cb 3c3e 6910 693e
000000e0: 840b 77be 3194 febd 5831 06be 0fbd 00be
000000f0: 4c89 2abe af3b 883e 7d6e 47be 8570 4d3e
00000100: 9628 243e 87f1 1abe 7080 3ebe 04f5 c1bd
00000110: 2ee1 923e 67f1 36be efc9 1e3e 80b4 933e
00000120: 1eae ca3d d627 75be 84b2 283d 7342 803e
00000130: d9e7 83be 0abe d23b df99 513e 75d5 7f3c
00000140: ced3 99bd 7ebf 613e d56c 4bbe 0aef 2ebe
00000150: 2d97 273e 2c39 943e e96d 58be 5b82 46be
00000160: b304 cd3d d0aa 49be 33ef 943e 552a b7bd
00000170: 53c1 c3bc 9200 9ebe c54f 2ebe 5ae5 9f3e
00000180: 5010 f9bd f5e1 6dbe e2e3 9e3e 5f65 d83d
0.13849285 -0.28219435 -0.31424394 0.30509862 -0.10683456 -0.12768592 -0.18673506 -0.19980343
0.090802245 -0.120796286 0.2879223 0.28509042 -0.23025975 -0.1734863 -0.18907203 0.16412999
0.20180097 0.10944615 -0.016509602 0.13439249 -0.16836762 0.12980673 0.13714816 0.01890274
-0.29962647 0.12587038 -0.14189507 0.22924417 -0.16491768 0.2660146 0.26314765 -0.03206912
0.17936271 -0.27310207 0.010891575 -0.077642046 0.020556556 0.07334983 -0.048788168 0.18755358
0.2607845 0.05741391 0.2137628 0.014139272 0.024326926 -0.009093415 -0.15679523 0.13307147
0.050777983 -0.20218827 -0.23406163 -0.24315345 0.044804245 -0.27514115 0.18437147 0.22760166
-0.24125487 -0.12430609 -0.1310476 -0.1257212 -0.16653937 0.26608035 -0.19475742 0.20062454
0.16031107 -0.15131198 -0.18603683 -0.09470561 0.28687423 -0.17865525 0.15506719 0.28848648
0.098964915 -0.23940977 0.04118587 0.25050697 -0.25762823 0.006431346 0.20468853 0.015614857
-0.07511102 0.22045705 -0.19865735 -0.17083374 0.16366263 0.2894987 -0.21135677 -0.19385664
0.10010662 -0.19694066 0.29088745 -0.08943621 -0.023895895 -0.3085981 -0.17022617 0.3122967
-0.121613145 -0.23230727 0.31033236 0.1056621

bias f4 [10]
00000000: b55d 38bd fa50 62be 7686 943e d4e7 ea3d
00000010: ad9c 6abe 14b2 923e 4624 123c 4f10 96be
00000020: e013 4b3e 53db 07be
-0.04501124 -0.22101203 0.29008836 0.11469999 -0.2291133 0.28651488 0.008919781 -0.29309317
0.198318 -0.1326726

weight f4 [1, 10]
00000000: cad0 abc2 6441 acc2 277b abc2 c6d7 abc2
00000010: e079 acc2 1f32 acc2 e948 abc2 db93 abc2
00000020: 9300 acc2 a5e8 abc2
-85.90779 -86.127716 -85.74053 -85.92143 -86.23804 -86.09789 -85.6424 -85.78878
-86.00112 -85.954384

weight f4 [10, 2]
00000000: ec36 3b3f d4e6 74bf 3500 44bd a361 7a3d
00000010: 51d6 03be 7a86 90bc 36e6 003f 8d03 8bbe
00000020: 23db d9be 2748 133f 5ef9 0e3f 276e 8dbf
00000030: 7f31 e1be 1008 4fbe ed13 10bf b45a b6bd
00000040: 9c69 bcbd 5648 bd3e 8937 f3bd 42ae 0bbf
0.7313068 -0.95664716 -0.04785176 0.06112827 -0.12874724 -0.017642248 0.50351274 -0.27151147
-0.4255 0.5753197 0.55849254 -1.1049241 -0.43983075 -0.2021792 -0.56280404 -0.08904019
-0.09199831 0.3696925 -0.11875827 -0.5456277

bias f4 [10]
00000000: cb4f 3241 038a febd 9af1 293f 310c 34c1
00000010: 8706 0cbf f926 37c1 09b2 573e 5e24 f1bc
00000020: 75e6 e63d 5be1 213f
11.144481 -0.124286674 0.6638428 -11.252976 -0.5469746 -11.447015 0.21064009 -0.029436287
0.11274425 0.6323449

weight f4 [10, 10]
00000000: 082d 94bf cf2c 083e a204 34be 6dbc 903f
00000010: 943f e4bd 0ac5 b53f 2390 8a3d 27e2 703c
00000020: f199 de3d 00ec 9dbd c78f b03f ff98 23be
00000030: acf6 903e f511 a7bf d49e f5bd 188c d9bf
00000040: 20aa a13e 010d 043e c057 8a3d de8d b1bc
00000050: cebe a8bf 5a7a d03d f3f5 16be 7c9c 9f3f
00000060: 43fa 7cbd 37c1 d33f 6b34 653e 7bcf f13c
00000070: f05c 35be 7580 f63d 3d8e a5bf 9e00 8dbe
00000080: 1047 9abe 0972 b43f 5891 71bd db04 b83f
00000090: 4c3c 473d 6146 0f3e c72a 893e 0b53 873e
000000a0: d34a ad3e f0d7 f739 bb8e 1bbe a744 d83d
000000b0: 9f93 3b3e a4e8 8bbd ec83 4cbe 1e71 3fbe
000000c0: aab7 2a3d b0a9 fdbc 7c76 9fbe b6dd 88be
000000d0: fa05 79be 0001 95c1 852f 89be ab0e 1dc0
000000e0: 5ac5 95bb 6ce3 6a3e 77fe fbbd cf5c 3abd
000000f0: 815f b0bf 8e17 813e 17e4 96be 41d5 b33f
00000100: 2980 783e 93bc d03f ea63 8a3e acd0 8e3b
00000110: 3520 e0bd 03f6 f63d 88e8 c33e f1da 3dbd
00000120: fbde 923e b7b9 2240 22a3 8f3e 4c76 23bf
00000130: 174e 753e 939b 8bbe c90b 863e f41c a1bb
00000140: d2c9 68bf 34fb 66be 1192 86be 10cc d8be
00000150: 4050 8a3e 2e1d ebbd 46ed 233e 4138 083e
00000160: 8afb 5e3d 8791 8b3e 42ae eabe b1dd 84be
00000170: 6912 a03e becd 66c0 ffb6 5ebd 554e e9bf
00000180: cf02 3bbe d9bb 54be a681 aabd 5184 80bd
-1.1576242 0.13298343 -0.17579892 1.1307503 -0.11144939 1.4200757 0.06765773 0.014702356
0.10869206 -0.07711029 1.3793877 -0.15976332 0.28313196 -1.3052355 -0.11993185 -1.6995878
0.31575108 0.12895586 0.06755018 -0.021674093 -1.3183229 0.10179587 -0.1474226 1.246963
-0.061762106 1.654334 0.22383277 0.02951788 -0.17711234 0.1203622 -1.2934033 -0.27539533
-0.3013234 1.4097301 -0.0589765 1.4376482 0.048641488 0.13991691 0.2679045 0.26430544
0.3384615 0.00047272397 -0.15191166 0.105599694 0.18318032 -0.06831482 -0.19972199 -0.18695495
0.041679062 -0.030964702 -0.31145084 -0.26731652 -0.24318686 -18.625488 -0.26794067 -2.4540203
-0.0045706453 0.22938317 -0.12304395 -0.045498665 -1.3779145 0.25213283 -0.29470894 1.4049455
0.24267639 1.6307548 0.27029353 0.0043583717 -0.10943643 0.12058642 0.38263345 -0.046351377
0.28685746 2.5425851 0.28054148 -0.6385238 0.2395557 -0.2726713 0.26180866 -0.0049167816
-0.90932953 -0.22556764 -0.26283315 -0.42343187 0.2701435 -0.11480175 0.16008481 0.13302709
0.054439105 0.27259466 -0.45836073 -0.25950387 0.31264046 -3.6063075 -0.054373737 -1.822703
-0.1826279 -0.20774783 -0.0832551 -0.06275237

bias f4 [10]
00000000: aaa7 cdc0 b18b a840 0cae d6c0 3f1e bec0
00000010: 4c25 37bd 139c 9e3e 451c d3c0 242b a6bf
00000020: 709c 4cbf 2ae0 6840
-6.426717 5.267052 -6.708746 -5.941192 -0.044713303 0.3097845 -6.597201 -1.2981915
-0.79926205 3.638682

weight f4 [10, 10]
00000000: f3d3 9741 5399 b5c1 a057 8641 8b76 6d41
00000010: 782d eac0 0963 a73f 124f 8241 9a41 27c1
00000020: 9d1f 253f e7cf 003f bcf0 a141 422e 8bc1
00000030: bd9e 8541 5cae 6d41 f6c5 e6c0 cb0d d53f
00000040: 4c84 8341 b4cd 2dc1 d267 5f3f 2f69 1bbe
00000050: a3a6 9b41 4512 aac0 5131 8b41 989c 4f41
00000060: e4f9 b6c0 fdd3 af40 d140 9241 9d14 33c1
00000070: 2be5 1d3f d841 1640 f192 9b41 a144 b5c1
00000080: 31de 8241 d961 6a41 f2e8 e6c0 38bc e53f
00000090: 3d15 8341 8c8d 2ac1 9af3 493f 8972 cd3e
000000a0: 7ce2 9241 d60f e0c0 25cc 9041 d56d 8541
000000b0: 8334 d9c0 5361 be3f a92f 9141 ec0c 31c1
000000c0: 1d90 743f 448d 5640 b0d6 9041 f111 2ec1
000000d0: 777c 8e41 f1c2 7c41 da6e d4c0 726c 973f
000000e0: c53c 8e41 72b4 35c1 1551 8d3f dbce 9d3f
000000f0: 2e49 7941 1232 b0c0 cdd7 6241 c605 2741
00000100: 71e2 b6c0 f1f8 0c40 569c 6841 fe3e d7c0
00000110: 3135 7b3f b6ea eb3e 457e 9e41 9392 b1c1
00000120: 1ca1 8241 d839 6a41 d6e9 ebc0 da2a b03f
00000130: b72b 8341 7ddf 23c1 4451 8c3f 7c64 2b3d
00000140: 13b7 9f41 5e9e b4c1 681e 8341 af54 6c41
00000150: 01db f0c0 ae94 9c3f f675 8241 6703 22c1
00000160: 4118 3b3f e7de 6e3e 8811 9b41 7991 b2c1
00000170: 2ac4 8341 86b3 6a41 596c e5c0 1e30 e73f
00000180: 8acb 8141 246c 2ac1 062b 0d3f 2982 a43e
18.97849 -22.699865 16.792786 14.841441 -7.3180504 1.3077098 16.288609 -10.453516
0.64501363 0.50317234 20.242546 -17.397587 16.702509 14.855068 -7.211665 1.6644834
16.439598 -10.8627205 0.8726779 -0.15176843 19.456366 -5.31473 17.39908 12.975731
-5.718004 5.4946275 18.281649 -11.192533 0.6167781 2.3477688 19.446749 -22.65851
16.358492 14.648889 -7.2159357 1.7948065 16.38537 -10.659557 0.7888733 0.40126446
18.360588 -7.001933 18.09968 16.678629 -6.78766 1.4873451 18.148272 -11.065655
0.955324 3.3523722 18.104828 -10.87938 17.810774 15.797593 -6.6385317 1.182997
17.779673 -11.356554 1.1040369 1.2328752 15.580366 -5.506112 14.177686 10.43891
-5.715142 2.2026942 14.538168 -6.7264395 0.9812804 0.46077508 19.811655 -22.19657
16.328667 14.639122 -7.3722944 1.3763077 16.396345 -10.242063 1.09623 0.041843876
19.964392 -22.577328 16.389847 14.770675 -7.526734 1.2232873 16.307598 -10.125831
0.73083884 0.23327218 19.38356 -22.321032 16.470783 14.668829 -7.169476 1.8061559
16.224384 -10.6514015 0.55143774 0.32130554

bias f4 [10]
00000000: e508 1fc1 958c 1fc1 f295 34c1 d367 1dc1
00000010: ea61 34c1 b838 31c1 566f 04c1 c626 21c1
00000020: 6a29 1ec1 16af 1ec1
-9.9396715 -9.971822 -11.286608 -9.837848 -11.273905 -11.076347 -8.277182 -10.071966
-9.885111 -9.917746

weight f4 [10, 10]
00000000: 9068 21be 90ff 8d3e 24e0 72be 98ce 543e
00000010: 3d0b 33bd 40b5 603e c76f 80be 8fcd d03c
00000020: 2b4c 863e b5bb 523e bcda 5f3e 37a8 1ebd
00000030: 6b2c 22be 3ae8 9d3e 27ca 5dbe 7500 983c
00000040: 81a8 72be fded 3f3e d0b9 69bd ec0e 903e
00000050: 1aa6 7fbd f5cb 0c3d 9382 87be 496d 8c3e
00000060: 1061 f5bb 46a2 0f3e f16d 833e 6e09 1b3c
00000070: ecf2 cebd 29de 3ebe 4f61 9bbe d025 d5bd
00000080: f2bf 9dbd f1a9 4c3e 57c8 b9bb 97eb 2ebc
00000090: 2e17 373e 4685 903e df25 5d3e f105 a33d
000000a0: 5a33 e5bd ff1d 773e f11f 0b3d c27b 833e
000000b0: 641b 643e 0ea1 5c3e 52d4 723e 0f71 82bd
000000c0: 4541 043e d557 ee3c 5ecb 8f3e ce20 bdbd
000000d0: 848e c43d a304 893d 1dc1 253e 7b3f b1bd
000000e0: 1e84 943e 7075 313c c05e 143d 4824 06be
000000f0: 5bed 0f3e da2f 623e 0975 433e fd3b 9d3e
00000100: 378a 673e 9933 87be 8747 993e b8a3 7d3e
00000110: 9c7b 93be af72 99be e3ad 94be 3de1 573e
00000120: 479b 9fbd 9792 a13d 89e1 0dbe c14f 4d3e
00000130: debd 0bbe deb2 313e e227 14bd 18e9 873e
00000140: 0da3 86be 3926 66be 9696 58be df0d 9a3d
00000150: 4071 a13e e330 433e 5173 8abe 2bfa a0bb
00000160: ab12 26be 6ab0 31bd 57e5 713d 36d2 a03e
00000170: 57ca 623e de21 433c 106d 1d3e fccb 8b3e
00000180: 58a5 f13c 19ea 8dbe 2588 243e fc72 903d
-0.15762544 0.2773404 -0.23718315 0.20781934 -0.04371189 0.21944141 -0.2508528 0.025488643
0.26229987 0.20579417 0.21860784 -0.03873464 -0.15837257 0.30841237 -0.21659146 0.018554905
-0.23697092 0.18743129 -0.05706197 0.28136384 -0.062414266 0.034374196 -0.26466808 0.27427128
-0.0074883774 0.14026746 0.25669816 0.009462697 -0.101049274 -0.18639435 -0.30347678 -0.10407603
-0.07702626 0.19986703 -0.0056696343 -0.010676286 0.17879936 0.2822668 0.21596478 0.079601176
-0.11191435 0.24132536 0.03396601 0.25680357 0.22276074 0.21545812 0.23713806 -0.063692205
0.12915523 0.029094616 0.28084844 -0.092347726 0.09597495 0.066903375 0.16186948 -0.08654686
0.29007047 0.010831222 0.036223173 -0.13099778 0.14055388 0.22088566 0.19087614 0.3070983
0.22611319 -0.26406553 0.29937384 0.24769485 -0.28805244 -0.2997031 -0.29038915 0.21082015
-0.07793289 0.07889288 -0.13855566 0.20049955 -0.13646647 0.17353389 -0.036170848 0.26545024
-0.26296273 -0.22475518 -0.21151194 0.07522177 0.31531715 0.19061618 -0.27041104 -0.004912635
-0.16218059 -0.043381132 0.059056606 0.31410378 0.22147499 0.01190993 0.15373635 0.27304065
0.029497787 -0.27717665 0.1606756 0.070531815

bias f4 [10]
00000000: 7260 37be 7987 02bd e784 73be ce17 29be
00000010: a0a0 3bbd ff71 85be 6205 713e 0c10 71bd
00000020: 51ca f33d d281 54be
-0.17907885 -0.031867478 -0.23781167 -0.16512987 -0.04580748 -0.26063535 0.2353721 -0.058853194
0.11903823 -0.20752648

weight f4 [10, 10]
00000000: 74fe 6bbe 675f fb3d 2163 f3bd c467 9ebd
00000010: eea2 ad3d aeb9 083e 72be 51be d70c 77be
00000020: 2e11 8f3e 19f4 9cbe 2adb 76be 8bd8 153e
00000030: 46e0 29bc 6f54 83be 69e7 96bc c294 bd3d
00000040: 3185 98be e6b1 843c ccba 743e 576f 44be
00000050: f528 62bd 4dfc 49bd 31b4 a1bc 3d74 0bbe
00000060: 2a6f 39bd 168e 843b 32ca 51be a3a1 1abe
00000070: 74c4 823e c3bb 703e 5f32 19be 57da 95be
00000080: 65a4 84be 1c1c 473e 9c47 8b3d 5c8d 02bd
00000090: fb15 62be b21b 183e e7fe 333e 1610 143d
000000a0: 4bdc 4ebc 11b8 d5bc fd41 dabd 491a 5bbe
000000b0: f356 52bc b935 e5bc 3f95 d2bc a9fa e03d
000000c0: 4ad4 38bd 56a2 fa3d f83f 823e 2539 353d
000000d0: 8b2e ce3d 28fb 113e 2ca1 ea3d 0e11 2fbe
000000e0: b759 52bd 880d 26be 7d0a b33d bfca 0bbe
000000f0: 9ac8 f7bd e8e1 debd 638c b13d 6ef8 a0bd
00000100: 5b86 933e f4b7 85bd f835 f0bd 4064 2fbe
00000110: dc0b 8e3d 5556 863e 808f 333b 34d1 993e
00000120: 7555 1dbc b423 463e cdda 19bc 302d 37be
00000130: 9090 0d3e d417 e0bd 3426 043d 625c 74be
00000140: 14d5 11be 8cda 483e 1202 153e 5df6 abbd
00000150: 32c0 afbd fd0f 91bd 115c 883b 4520 083e
00000160: a6a2 90be 51f1 993e 4efe 81be 68fe 483e
00000170: b7be 93be 858b 25be 02fe d4bd 6feb 45bc
00000180: 08b4 783a 4831 8fbc b13d 393e 2c2b f93c
-0.23046285 0.12274056 -0.11884142 -0.077346355 0.08478342 0.13352081 -0.20482805 -0.24125992
0.27942795 -0.30654982 -0.24107042 0.14633386 -0.010368412 -0.25650355 -0.018420892 0.09256889
-0.29789117 0.01619811 0.23899382 -0.19183098 -0.05521484 -0.04931288 -0.019739242 -0.1361856
-0.04527203 0.0040452583 -0.20487288 -0.15100722 0.25540507 0.23509125 -0.14960621 -0.29268143
-0.25906673 0.19444317 0.06800768 -0.031873092 -0.22078697 0.14854315 0.17577706 0.036148153
-0.012625764 -0.026088746 -0.106571175 -0.21396746 -0.012838113 -0.027979719 -0.025705932 0.1098531
-0.04512433 0.122379944 0.2543943 0.04424395 0.10067471 0.14255965 0.11456522 -0.1709635
-0.05135509 -0.162161 0.08742235 -0.1365156 -0.120988086 -0.10882932 0.08669355 -0.07859884
0.28813443 -0.06529227 -0.11729044 -0.17128086 0.06935856 0.2623774 0.0027398765 0.30042422
-0.009602894 0.19349557 -0.009390545 -0.17888331 0.13824677 -0.10942045 0.032262996 -0.23863366
-0.14241439 0.19614619 0.14551571 -0.083965994 -0.0858158 -0.07083128 0.004161366 0.1329356
-0.2824909 0.30066922 -0.25389332 0.19628298 -0.2885644 -0.16166504 -0.10400011 -0.0120800575
0.0009487276 -0.017479554 0.1808994 0.030416094

bias f4 [10]
00000000: 670a 9e3e bfe2 6d3d c35b b7bd 0cda 6bbe
00000010: 23ab 44bd f8ef b63d db0a 20be 344d ab3b
00000020: e51d c03d 3217 823e
0.3086731 0.05807757 -0.08953049 -0.23032397 -0.04801477 0.08932489 -0.15629141 0.005227709
0.09380702 0.25408322

weight f4 [1, 10]
00000000: 41c6 aac2 f511 abc2 0344 abc2 e913 abc2
00000010: ed34 aac2 f033 aac2 eddc aac2 18f2 aac2
00000020: 20fd aac2 3f05 abc2
-85.387215 -85.53507 -85.632835 -85.53889 -85.10337 -85.10144 -85.431496 -85.47284
-85.494385 -85.51025

weight f4 [10, 2]
00000000: f6e4 203f 8a17 04bf bbe6 15be c4ff 193d
00000010: b3f9 c5be e321 913e a175 923e d911 99be
00000020: 94e0 fd3e 639d 173d a071 30bf 0921 b5be
00000030: 4b7d 5b3e 7726 a73e 36bf 903e b12c f13d
00000040: 5bd2 da3d 4506 133e 55da 2a3f 69de 073f
0.62849367 -0.5159842 -0.14638798 0.037597433 -0.38667068 0.28346166 0.2860537 -0.2989643
0.49585402 0.03701533 -0.6892338 -0.35376766 0.21434514 0.32646534 0.28270882 0.11776102
0.10684653 0.1435786 0.667394 0.53073746

bias f4 [10]
00000000: a415 8e40 c962 b3be afed d3be 88e8 abc0
00000010: ba6c af40 e390 a53e 7005 89c0 cdd6 c6c0
00000020: a1f8 e0c0 bb10 9d40
4.4401417 -0.35036305 -0.41392276 -5.372135 5.4820223 0.32337102 -4.2819138 -6.213721
-7.03035 4.9082923

weight f4 [10, 10]
00000000: b969 98be 76fa 5c3e 3e4a 96be 88c2 b73e
00000010: 7af4 70be fc28 d0bd 189c 073f 2b0e ef3e
00000020: 9186 0540 5f86 93be add2 bbbe 192d 623e
00000030: 953d e73d 2c7c 04c0 f581 803d fd1d 153e
00000040: 7337 973c a6e0 1abf 48cf 02bf b193 84be
00000050: e5cc e33e aa33 cb3d ca49 97be 1071 39bf
00000060: 9d44 cc3e f3aa e6bc 3ebe b5bf bc1b 9abf
00000070: 4cea 87c0 30ec ba3e a439 a7be 1707 d7bd
00000080: f25e 6e3c 050f 1cc0 09ef a4bd 44c8 a0bd
00000090: f6eb 58bd 7eb7 38be 5fc2 29bf 83da 36be
000000a0: b8e9 91bd ce52 9bbe 2f34 1abe a537 00c0
000000b0: af20 98be 3c5f f03c 6175 b1bc 2697 1ebf
000000c0: 60d6 93bf 2abb 52be d83e e9be b6f4 0f3c
000000d0: 2575 8d3e 2ac9 483f 8d2e 09bf 057c b13d
000000e0: 340b 3f3f 9d0f 9b3f 4b9b f440 e3bd 52be
000000f0: 058e e23d b550 9d3e d08a 563e bacf 543f
00000100: 220e 313e 20a4 33be 25a9 2a3f 49dc 443f
00000110: 7d4d a33e 386d c53e 9808 18be f237 6d3e
00000120: 87ad a4bd e990 33bf 1e24 b5be 293c 9b3e
00000130: 58f7 f7be a562 c3be fdd1 36c0 bc3e 05be
00000140: 1884 6fbe 5908 79be 25e4 1fbe e2c9 07c0
00000150: 72e0 9cbe 92e9 1abd d52e 47bd c4a1 00bf
00000160: e144 55bf efe5 8fbd 6869 03bf cd07 003e
00000170: c069 8c3e 598c 603f af97 81be 5a63 e4bb
00000180: 11a7 4c3f 98b7 833f fa45 8940 bdbb 66be
-0.2976816 0.21579918 -0.29353517 0.35890603 -0.2353076 -0.10164067 0.52972555 0.46690497
2.0863383 -0.28813455 -0.3668417 0.22087516 0.11291043 -2.0700788 0.06274787 0.14562221
0.018459057 -0.60499036 -0.51097536 -0.2589393 0.4449226 0.099219635 -0.29548484 -0.72438145
0.39896098 -0.028157687 -1.4198682 -1.2039714 -4.2473507 0.36508322 -0.32661164 -0.10499399
0.014549004 -2.4384167 -0.08053405 -0.07850698 -0.052959405 -0.18038747 -0.6631221 -0.17856793
-0.071246564 -0.30336612 -0.15058969 -2.0033963 -0.29712436 0.029342286 -0.021662416 -0.61949384
-1.1549797 -0.2057921 -0.45555758 0.008786371 0.27628437 0.7843195 -0.53586656 0.08666233
0.7462647 1.211414 7.6439567 -0.20580249 0.11062244 0.30725637 0.2095139 0.83129466
0.17290547 -0.17543077 0.66664344 0.7689863 0.31895056 0.3855989 -0.14847028 0.23165873
-0.0804091 -0.7014299 -0.35379118 0.30319336 -0.48430896 -0.38161197 -2.8565667 -0.13012213
-0.23390234 -0.2431959 -0.15614374 -2.121697 -0.30639988 -0.037820406 -0.048628647 -0.50246835
-0.83308226 -0.07026278 -0.5133271 0.12502976 0.2742443 0.87714154 -0.25311038 -0.0069698514
0.79942423 1.0290403 4.289792 -0.22532554

bias f4 [10]
00000000: f1df ccbf 0fbe 93be 0462 5440 b7f5 97be
00000010: 19ca 9bbe a7d9 bbc0 f43f 22bf 0fa2 0c3f
00000020: 3609 3bbe 6ab1 2bc0
-1.6005841 -0.2885594 3.3184824 -0.29679653 -0.30427626 -5.870319 -0.63378835 0.5493478
-0.18265232 -2.6827035

weight f4 [10, 10]
00000000: 6c5f 8540 f727 ee3f 3e1a f7c0 6fc5 d63f
00000010: 42d4 503f fbc7 ca41 50b5 05c1 5351 d53e
00000020: c697 933f e686 3841 1222 a440 4ca0 f43f
00000030: f255 efc0 7b51 d23f 6aa4 003f ad35 cb41
00000040: cc20 07c1 94f8 183f 4ad5 7a3f d312 3a41
00000050: 97bf 9a40 390c d83f 14f9 91c0 7d45 b83f
00000060: 3654 913f 4c2b ca41 2f0c f0c0 5304 6a3f
00000070: e2ce 2f3f 41c7 3d41 a5a0 7440 b801 c43f
00000080: b48e eac0 36a7 853f 2725 703f cef9 cb41
00000090: 590e 08c1 c52a dc3e f162 5b3f d824 3641
000000a0: 0619 9940 adc4 f73f deae f1c0 7514 b13f
000000b0: e0c7 903f b97f c841 fb14 07c1 fdc7 303f
000000c0: a388 693f 41e4 3f41 4f96 8b40 a63f e93f
000000d0: a241 4ac0 59d0 ad3f 05b7 573f 2bdd c541
000000e0: b723 c8c0 45f2 4b3f b3e2 053f 2b3a 3b41
000000f0: 02ca 8140 261e b13f 33bd f5c0 7412 883f
00000100: 76e7 913f 7dfa c941 d7d4 06c1 dcda b23e
00000110: ed64 773f 5d01 3c41 d40d 9640 f163 fe3f
00000120: d5e1 f9c0 c2f2 ab3f 3199 873f 980e ca41
00000130: b03b 06c1 388d ea3e 8ce4 993f 902e 3941
00000140: 1914 9240 dab8 ff3f f971 f4c0 53dd 913f
00000150: b56b 3a3f 00ab c941 cbda 07c1 edb2 1a3f
00000160: 0339 8b3f 4bbd 3b41 2a6d 9240 9337 de3f
00000170: 48e5 f5c0 e7a0 c83f 8e6d 8d3f 706a cb41
00000180: 351b 07c1 5d5d ec3e 514d 943f 8f71 3541
4.167898 1.8605946 -7.7219534 1.6779002 0.8157388 25.347647 -8.356766 0.41663608
1.1530693 11.532934 5.129159 1.9111419 -7.4792414 1.6431116 0.50250876 25.401209
-8.445507 0.597543 0.97981703 11.629596 4.8358874 1.687873 -4.561655 1.4396206
1.1353824 25.271141 -7.5014873 0.9141285 0.68675053 11.861146 3.822305 1.5313025
-7.32992 1.0441654 0.9380669 25.496975 -8.503503 0.4300138 0.8569785 11.383995
4.7843046 1.9356896 -7.552596 1.3834368 1.1310997 25.062365 -8.442622 0.6905516
0.91224116 11.993226 4.362098 1.8222549 -3.160256 1.3579208 0.8426364 24.732992
-6.2543597 0.7966655 0.5229904 11.701701 4.055909 1.3837326 -7.6793456 1.0630631
1.1398761 25.247309 -8.426963 0.349326 0.96638376 11.750333 4.689188 1.987425
-7.8088174 1.3433459 1.0593625 25.257126 -8.389572 0.45810866 1.2022872 11.573868
4.5649533 1.9978287 -7.6389127 1.1395668 0.728206 25.208496 -8.490916 0.6042927
1.0876774 11.733714 4.5758257 1.736071 -7.6842384 1.5674103 1.1049058 25.426971
-8.444142 0.4616498 1.1586095 11.340224

bias f4 [10]
00000000: ae36 e9c0 d285 ebc0 626b 0ec1 506d e7c0
00000010: 7e0b ebc0 88b6 1ac1 96cb e9c0 c305 e6c0
00000020: f4ba e6c0 4947 e4c0
-7.287925 -7.3600855 -8.9012165 -7.232094 -7.345153 -9.669563 -7.306102 -7.1882033
-7.2103214 -7.133702

weight f4 [10, 10]
00000000: b354 bcbd 41f9 663d 0f6a 03be 8f98 07bd
00000010: ddd0 99be 42a8 3f3e ae3c 7a3e 7ed1 5b3e
00000020: 034a 1bbe db31 763e 4d9b 20be 053e 783e
00000030: 681d 1abe 2cba 483e 013f 4f3e c094 67be
00000040: 10e0 67be eb12 86be f345 003e 4ab6 fc3d
00000050: d5e6 96be 8ae8 433d 1730 1ebe 7c1f 903e
00000060: 25e4 afbc ef6f 78be 8417 9bbe 84e7 893e
00000070: 8e9f 79be bb3e e1bd 5747 6d3e 682c 253e
00000080: 1981 f4bd a89f 8e3c ada8 afbd ae78 95be
00000090: 377c 61be 996b 5b3e 6de6 c73c ab8c bc3d
000000a0: da2b 8dbc fc68 8abe 677c d23d 2058 42be
000000b0: b38e 9bbd 890e 293e a2c0 d3bd 3ed7 463e
000000c0: 519d 063d 1815 6f3d d439 7e3e 09de 483e
000000d0: ad90 0b3e 4325 f9bd 95ec 2bbb beed 5e3d
000000e0: c526 4bbe 479b 9fbe ebd9 1f3e f13a 74be
000000f0: 2f16 76bd 41bf 62be b8d0 31be 0302 42be
00000100: 9ba6 70be 14ba 393e 142f 63be a11d 1ebe
00000110: 095d 963e d136 963e 6277 8abe 7b0c 853e
00000120: 8bc9 2f3e d942 963e 4331 19bd 415c a03d
00000130: 874d 683e 8029 0dbe 038c 333e 7845 fe3d
00000140: 7c96 2e3d 5712 513c c8ec 3f3e 13e4 3f3e
00000150: 0cb7 60bd a27c 9cbe 8952 29be 670b f13d
00000160: 2fb6 f13b 0ba3 f6bd 0aff 8ebd 96a1 283e
00000170: 80b3 263e 362f 0d3d ffd2 fabb f937 39be
00000180: 30a3 48be 01f2 86bd 2168 8a3e 1d54 3abc
-0.091958426 0.05639005 -0.12833427 -0.033104476 -0.30042163 0.18716529 0.2443721 0.21466634
-0.15164952 0.24042456 -0.15684243 0.24242409 -0.1505028 0.19602269 0.20238878 -0.22615337
-0.22644067 -0.26186308 0.12526684 0.123394564 -0.29472986 0.04782919 -0.15448032 0.2814902
-0.021471092 -0.2426145 -0.30291378 0.26934445 -0.24377272 -0.10998293 0.23171745 0.16130221
-0.11938686 0.017410114 -0.08577094 -0.29193634 -0.2202004 0.21427764 0.024401868 0.09206518
-0.017232824 -0.27033222 0.10277634 -0.1897893 -0.07595577 0.16509451 -0.10339476 0.19418046
0.032864872 0.058369726 0.24826747 0.1961595 0.13629408 -0.1216531 -0.0026233543 0.054425947
-0.19839008 -0.31173155 0.15610473 -0.2385061 -0.06007975 -0.2214327 -0.17364776 -0.1894608
-0.23501055 0.1813739 -0.22185928 -0.1544099 0.29367855 0.29338697 -0.27044207 0.25986084
0.17166726 0.29347876 -0.037400495 0.07830096 0.22685824 -0.13785362 0.17533879 0.12415594
0.04262398 0.01276072 0.18742669 0.18739347 -0.054862067 -0.30563837 -0.16535391 0.11769753
0.0073764543 -0.12042817 -0.069822386 0.1646789 0.16279411 0.034468852 -0.007654547 -0.18087758
-0.19593501 -0.06589127 0.2703257 -0.011372593

bias f4 [10]
00000000: 538d f0bc 6a19 85be 0831 80be c6c3 14be
00000010: 6fd4 5c3d c617 923e 8104 91be deeb 333e
00000020: 2e51 0f3e a144 3cbe
-0.029364264 -0.25995952 -0.25037408 -0.14527807 0.05391353 0.28533763 -0.2832375 0.17570445
0.13995811 -0.18385555

weight f4 [10, 10]
00000000: f5da c63d add9 8f3e 52a4 66be 83e8 b53d
00000010: 3622 143e 00d6 033d b4b2 913e 9e9b 5dbe
00000020: c67f 22be 8890 453e cd78 09be a24e 29be
00000030: ec34 48be 0514 b43d eb07 133d c733 3d3e
00000040: cca0 e73d a982 983e b283 323e fc99 8dbe
00000050: bafb 44be e2e4 6abd 42b6 993d a9c0 a7bd
00000060: e50a 573e 27de ff3c 719f c83d bf18 4b3e
00000070: 9e5a 86be b80d e2bd 56fb 88be 7c76 0c3e
00000080: 6e3c 39be 595d 6bbe b2e4 c8bd d02f 2bbe
00000090: efa5 8abe ece1 17be da07 cf3d d789 623d
000000a0: 2d7a c33c 912d 8c3e fc4e 8dbe 57b3 6ebe
000000b0: 9598 a83d 7f77 6b3e 6d87 4bbd b3bc 66bd
000000c0: ab05 90be 0292 833e 5373 bb3c 7882 cf3d
000000d0: ffe9 923e 1ea6 8e3e 388f 5c3e e1c8 6c3e
000000e0: c4ef 643e f77a ddbd dad7 61be bc89 6e3e
000000f0: 8a7d 0d3e f95b 893c c2c8 60bc a140 3e3e
00000100: 684c e13d 9fe0 9cbe 7e17 993e 273b 82be
00000110: 0b8c 5dbd f002 6a3e 3d87 7d3e 0240 163e
00000120: 5a3a 79be 7663 ecbd c6b2 22be d436 9fbe
00000130: 7073 30be 5226 3f3e 6502 50be 274a 3fbe
00000140: 7b77 953e daf4 8b3e 51d6 a33c bd33 033d
00000150: d081 01be 9364 b3bc 51ad 33be e39a 7abe
00000160: f180 cbbd 3f2a 85be d55d 7d3d 1d2c 61be
00000170: 4091 913e da75 8d3e 69f8 86bd 2e82 fd3d
00000180: 83a2 583e 9a2d 883e edd0 aa3b 49ed bdbc
0.097097315 0.2809576 -0.2252362 0.08882239 0.14466175 0.03218651 0.28456652 -0.21641394
-0.15869054 0.19293416 -0.13424988 -0.16533902 -0.19551438 0.08792881 0.035896223 0.18476783
0.113099664 0.29787186 0.1743305 -0.27656543 -0.19236651 -0.057347186 0.07505466 -0.08191044
0.2100025 0.03123386 0.09796036 0.19833659 -0.2624101 -0.11037773 -0.26754254 0.13717073
-0.18089458 -0.22984828 -0.09809245 -0.16717458 -0.27079722 -0.14832276 0.101089194 0.055307236
0.023861969 0.27378514 -0.27599323 -0.233106 0.08232228 0.22994803 -0.0496897 -0.0563323
-0.28129324 0.25697333 0.02288214 0.10132307 0.2869415 0.27861112 0.21539009 0.23123504
0.22357088 -0.10814469 -0.22054997 0.23294729 0.1381742 0.016767489 -0.013719739 0.18579341
0.110009015 -0.30640122 0.29900736 -0.25435755 -0.054088634 0.22852683 0.2475862 0.14672855
-0.24338666 -0.11542408 -0.15888509 -0.31096518 -0.17231536 0.18666962 -0.20313413 -0.1868063
0.2919272 0.27335244 0.019999655 0.032031763 -0.12647176 -0.021898543 -0.17546584 -0.24473147
-0.09936703 -0.26008794 0.061857063 -0.21989484 0.2843113 0.27628976 -0.06590349 0.123783454
0.21155743 0.2659729 0.005212894 -0.023184435

bias f4 [10]
00000000: c966 89bd db7e 873e 2293 ac3d 6f4e 663e
00000010: 5734 0bbe f394 273e d75d f8bd 7352 3bbe
00000020: aa46 69bd 5669 433e
-0.06709058 0.2646397 0.08426501 0.22490858 -0.13594185 0.16365413 -0.121272735 -0.1829317
-0.056952156 0.19083151

weight f4 [1, 10]
00000000: c4e5 aac2 0d67 abc2 2740 abc2 faf5 aac2
00000010: f514 abc2 1eea aac2 b6f4 aac2 2028 abc2
00000020: de75 abc2 2fe8 aac2
-85.44876 -85.70127 -85.6253 -85.48042 -85.54093 -85.45726 -85.47795 -85.57837
-85.73021 -85.45348

weight f4 [10, 2]
00000000: 077e 8b3e b4cb c1bd fe89 1c3f 4977 47bf
00000010: 5939 923d 1845 6ebe 1d87 d0be 27e8 203e
00000020: 03ce bdbe aaed 4cba 8ce6 afbe dbf9 2c3c
00000030: 3171 c8be f973 d5bc dd29 29bf 6cb6 ec3e
00000040: f2b6 7cbe b032 c2be fc2d 3f3f a6ce 88be
0.2724459 -0.094626814 0.6114806 -0.7791639 0.071398444 -0.23268545 -0.40728083 0.15713559
-0.37071237 -0.0007817397 -0.3435558 0.010557617 -0.39148858 -0.026056277 -0.66079503 0.46232927
-0.24679163 -0.37929296 0.7467954 -0.2672016

bias f4 [10]
00000000: b5e0 b540 b6b1 9cc0 d8a1 b340 277a 14bf
00000010: e573 03bf e5bd 08be 9f6e 303d 3ca6 f2be
00000020: c204 debe 1bd8 c3c0
5.68368 -4.896693 5.6135063 -0.5799889 -0.51348716 -0.13353689 0.043074246 -0.47392452
-0.43363005 -6.12013

weight f4 [10, 10]
00000000: 66b9 98bf 0ae1 153f 294b f7bf 4b12 39be
00000010: 6c38 4a3d aa05 993c 7ddc 4e3d 1ae0 0b3e
00000020: d9a2 e3bd 07f5 113f a664 96bf 4a83 8f3e
00000030: 9408 edbf 4cfd b4bc 0e85 8abe 4b56 01be
00000040: c331 95be 6358 633e 8f05 253e 58b1 4d3f
00000050: 13a5 a6bf 6841 ae3e f19c e4bf bd21 90be
00000060: 76b5 b2bd 5fc1 343e 8f09 53be 748c 66be
00000070: 1e1e 373d 4842 4d3f 2221 9fbf 4056 123f
00000080: 67fd dbbf 49e7 c83a e58c 963e 64ab 7f3e
00000090: afe7 993e 8d36 7a3e 8764 1fbd ba72 073f
000000a0: 0813 69be 4763 05bf a471 80bd d127 73bd
000000b0: b6bf de3d 58a1 9fbe e265 9b3e 7d5e 4a3c
000000c0: 7c74 a0bc 7b5a 9fbf 7529 9abf 98a0 143f
000000d0: 4bb8 10c0 ffc3 e7bd e653 84be 179b 99be
000000e0: 78b0 6a3e 8bdc 08be a6cd cebd 5715 273f
000000f0: e322 9abf 6184 8c3e 87f9 00c0 9064 d8bd
00000100: 0c40 a63d cbf6 9fbe aee1 85be 97d6 84be
00000110: 739c 8dbe c4ad 5c3f adf9 85bf 7064 d23e
00000120: acda e7bf 12e8 713d 6817 923e a924 de3d
00000130: 069c 05be 88da 7e3c e092 803e 2ea7 193f
00000140: a56e 9bbf 00e8 963e 1332 f3bf babf 50bd
00000150: 11a3 193d 691c ac3d 1bbd 993e e37c b43d
00000160: b211 2f3d 1ebf 523f 37bf 93be adb3 483f
00000170: 2535 8dbf f043 0fbe 200c 603d 37f4 c93d
00000180: ab95 fa3d 93cc 93bc 0503 953e 9d69 cf3f
-1.1931579 0.5854651 -1.9319812 -0.18073384 0.049370214 0.018679459 0.050503243 0.13659707
-0.11115045 0.5701451 -1.1749465 0.28029853 -1.8518243 -0.022093438 -0.27054638 -0.12630574
-0.29139528 0.22201686 0.16115402 0.8034873 -1.3019127 0.34034276 -1.7860395 -0.2815074
-0.08726017 0.1765189 -0.20609115 -0.22514516 0.044706456 0.8017926 -1.2431986 0.5716286
-1.7186707 0.0015327717 0.2940437 0.24967724 0.30059573 0.24434872 -0.03891423 0.52909434
-0.22761166 -0.5210461 -0.06271675 -0.059364144 0.1087641 -0.31177783 0.30351168 0.012351629
-0.019586794 -1.2449487 -1.2043902 0.58057547 -2.2612484 -0.1131668 -0.2584526 -0.30001137
0.2291888 -0.1336538 -0.10097818 0.65266937 -1.2041897 0.27444747 -2.01523 -0.10566056
0.08117685 -0.31242976 -0.26148742 -0.2594497 -0.27658424 0.86202645 -1.046682 0.41092253
-1.8113608 0.05905921 0.28533483 0.10846836 -0.130478 0.015555032 0.25112057 0.6002072
-1.2143141 0.29473877 -1.8999656 -0.050964095 0.037509028 0.08403856 0.3002709 0.08812883
0.042741485 0.8232287 -0.28856823 0.78399163 -1.1031843 -0.1399076 0.054699063 0.098610334
0.12235578 -0.018041885 0.29103866 1.6204106

bias f4 [10]
00000000: 27b3 75c0 7986 71c0 bbd7 6ec0 6455 52c0
00000010: b1f3 18bf 76c8 74c0 e093 83c0 795e 4bc0
00000020: d442 7ac0 f1cd adbf
-3.8390596 -3.7738326 -3.7319171 -3.2864618 -0.59746844 -3.8247352 -4.111801 -3.1776412
-3.9103289 -1.3578473

weight f4 [10, 10]
00000000: 96cd 0c41 ce01 e940 c6f1 f540 ef33 d140
00000010: 1a6e 3140 4bcc 1d41 45a1 0141 2f55 b040
00000020: 23ec f740 d8df 10c1 d10f 0741 5e4e df40
00000030: 9886 fd40 f8b5 c940 ebf4 1540 1e3b 2541
00000040: 3fc6 0041 4e7c ab40 5875 ff40 a436 11c1
00000050: f0f6 0941 a975 e940 be98 0041 ddbb c740
00000060: 6321 1340 db12 2041 4461 0441 236c a640
00000070: 74df f040 5d0d 11c1 305e 0b41 b8e6 ea40
00000080: 823d f440 4fd4 c540 26b9 3840 4b4f 1e41
00000090: 8837 0241 9cec a640 c9a1 fe40 2430 11c1
000000a0: 485e 0d41 3d5e e340 015c f440 63af ca40
000000b0: fa5e 4740 df9a 2341 dbae 0541 e593 aa40
000000c0: 1cf8 f340 d83e 10c1 72e8 0b41 86f8 e540
000000d0: c519 f440 6b82 cc40 64ff 2f40 0eaf 1f41
000000e0: fff0 fe40 54b6 b440 ae1f ff40 b857 0fc1
000000f0: ac4a 0941 0ed4 dd40 f4b8 0241 5d21 cb40
00000100: 77ce 2040 1d9c 1d41 011d 0241 e5fb ae40
00000110: b552 f540 5a52 11c1 db39 0641 7eb1 e540
00000120: 1349 fa40 8710 ce40 fc83 1d40 81cf 1f41
00000130: a4c5 0041 d0c0 b640 bb12 fa40 2b53 10c1
00000140: 17e4 0d41 0401 ec40 1702 f840 3171 cc40
00000150: 21f6 1f40 7fe8 1e41 b31f fc40 9bfb a540
00000160: da0e 0041 d4b6 0fc1 f7c5 0641 768c e740
00000170: 13d0 0141 9698 cc40 c443 1640 dc34 2041
00000180: 1400 0041 eed7 a740 de1e f840 fedd 11c1
8.800192 7.2814703 7.6857634 6.5375896 2.772345 9.862376 8.101872 5.5103984
7.7475753 -9.054649 8.441361 6.9783163 7.92268 6.303463 2.3430736 10.326933
8.0484 5.358924 7.983074 -9.07584 8.622787 7.295613 8.037291 6.2416825
2.2989128 10.004603 8.2737465 5.2007003 7.527277 -9.0657625 8.710495 7.340664
7.6325083 6.1821666 2.8863006 9.894359 8.138557 5.216383 7.957249 -9.074253
8.835518 7.1052537 7.636231 6.3339095 3.115172 10.22531 8.355189 5.3305535
7.624037 -9.015343 8.744249 7.1865873 7.6281457 6.39092 2.7499628 9.980238
7.9669185 5.647257 7.972617 -8.958916 8.58073 6.9321356 8.170155 6.3478227
2.5126016 9.850614 8.132081 5.468249 7.666346 -9.082605 8.389125 7.1779165
7.82142 6.4395175 2.4611807 9.98816 8.048252 5.7110367 7.8147864 -9.020305
8.868186 7.375124 7.750255 6.3888173 2.4993975 9.931762 7.8788695 5.1869636
8.003626 -8.982136 8.423331 7.235896 8.113299 6.393626 2.347886 10.012905
8.000019 5.2451086 7.753768 -9.116697

bias f4 [10]
00000000: a2d6 9bc1 8fc7 9ac1 3de4 99c1 974c 99c1
00000010: 9db4 9bc1 cf42 9cc1 39ca 99c1 9cb2 9bc1
00000020: 79df 9bc1 0ad8 99c1
-19.479801 -19.34744 -19.236444 -19.162397 -19.46319 -19.532621 -19.223742 -19.462212
-19.484118 -19.230488

weight f4 [10, 10]
00000000: 49da d9bd 80fd 15be 792b d03d cf0f 923e
00000010: af22 debc 5978 84be 0a00 4ebd d23f 7abe
00000020: b92e 51be f985 703b 6e93 9f3e fa95 6f3e
00000030: 5321 6bbc 6433 75be e04b 92be 3e21 61be
00000040: 4b43 67be 7bf0 1f3e 1c61 2f3e 7554 32be
00000050: 2256 1ebe c819 633e f634 fa3d ad47 703c
00000060: db0a 103e dc02 eabd 76f5 693e 106d bb3d
00000070: 8aa2 943d 8271 9e3e e8ea 243e 6535 ed3d
00000080: aa3c 3cbe a149 9cbe 58e1 b63d 13f7 553e
00000090: 6cbf 47be 40e7 e63d 57a3 7ebe cead 1f3e
000000a0: e958 943e b90e 83be cee2 893d 67a3 913e
000000b0: f2e8 25bd e0e7 043e 400e 56be b7ef 13bd
000000c0: ef25 993e d251 e4bd 353c 30be 4a1c 963e
000000d0: beb1 ff3d 57e7 043d d476 8c3e 6035 82be
000000e0: e203 89be 3d8b 29be b79c 91be 37c1 cbbc
000000f0: 295f 643e 7495 ca3d b2cd 243e c3c9 8e3e
00000100: 7e1f 473e a03b 27be 6c89 75bd 004e 9e3e
00000110: 23b9 2f3e 3c64 92be 61fd 0cbe eef2 34be
00000120: 15c9 e53d 41d1 143e 7cbc 35be 003d c93d
00000130: fd69 363a 940a 103e 3954 6cbe a5ce 683e
00000140: 3972 03be 849e 1f3d a1fc 0ebe 9f0b 95be
00000150: ed92 cebc 5328 3d3e ae5f 9bbc d8a7 10be
00000160: 18cb aa3d e8d4 d2bd 7eb2 b83d fb3e 16be
00000170: 39a3 e0bd 248e d7bd f063 ac3d c92d 90be
00000180: 4bdc 8e3c 97cc 9c3e 7399 9f3e 7bb6 8e3e
-0.10637338 -0.14647484 0.10164542 0.28527686 -0.027116148 -0.25873068 -0.050293006 -0.24438408
-0.2042798 0.0036700948 0.31167167 0.23397055 -0.014351207 -0.23945385 -0.28573513 -0.21985337
-0.22584264 0.1561908 0.17126888 -0.1741503 -0.15462545 0.22177804 0.12217133 0.014665526
0.14066641 -0.11426327 0.22847542 0.091516614 0.07257564 0.30945975 0.16105235 0.1158245
-0.18382517 -0.30524924 0.089297 0.20895033 -0.19506615 0.11274576 -0.24866997 0.15593645
0.28974083 -0.2559717 0.06732713 0.2844498 -0.040505357 0.12979078 -0.20903873 -0.03611728
0.29911754 -0.111484185 -0.17210467 0.29318458 0.124850735 0.032447185 0.2743441 -0.25431347
-0.26760775 -0.16557021 -0.28439876 -0.024872405 0.22301926 0.09891787 0.16094092 0.27888307
0.19445607 -0.16331339 -0.05994551 0.30918884 0.17160468 -0.28592098 -0.13768531 -0.17670795
0.11219994 0.14532949 -0.17747682 0.09826088 0.00069585425 0.14066535 -0.23079003 0.22735079
-0.12836541 0.03896953 -0.13963558 -0.2911043 -0.025216544 0.18472414 -0.018966522 -0.14126527
0.08339518 -0.10294515 0.0901842 -0.14672463 -0.10968632 -0.10525158 0.08417499 -0.2815993
0.017439028 0.3062484 0.3117176 0.27873597

bias f4 [10]
00000000: c518 e2bd 5795 92be 39bc 663e 995e 923e
00000010: 4cd0 43be 027d 97be 0ba3 8ebe 190a 173e
00000020: 72af fe3d d1db 7b3e
-0.11039881 -0.28629562 0.22532739 0.28587797 -0.19122428 -0.2958756 -0.27858767 0.14749946
0.12435807 0.24595572

weight f4 [10, 10]
00000000: ffa7 913b c2bf d2bd c641 b43c b4bc bdbd
00000010: da7a 71bd 14f4 98be d257 a03e 5ce2 a43d
00000020: c532 ea3d e275 143e 1f9b b0bd 4b3a 6ebe
00000030: dcec 083d fd96 98be 959f 08bc bb1e 0f3e
00000040: 8658 3ebd e116 8f3e 0945 21bd ce6e dfbc
00000050: ce6f fe3d 9521 9cbe 1bd7 1e3e f89f b7bd
00000060: 8cce 91be 9668 38be 767c 573e e5c8 503d
00000070: 4daf 603c acf4 d6bd 2bde a4bd 1f42 343e
00000080: 8e88 9a3e 2f87 35be f060 a3bd cbe0 aabd
00000090: beb2 a3bc 5688 8a3e c59f 1dbc d24a 0bbe
000000a0: 6e1d a13e cd4f 77bc 9b11 f43d 37a3 403e
000000b0: 0396 ebbd 9c00 f1bd b67f 99be 14e4 97bc
000000c0: 54cd 343e 4ce9 6bbd cc8c 1f3e 4199 8b3d
000000d0: 0205 8f3d af6e a8bd 8354 d1bd 0898 283e
000000e0: 01f4 89be 5ccb 103e 7358 473e 669d 9d3d
000000f0: 11c5 2a3e 4e6c 4fbe ca86 933e 5183 453d
00000100: 5b00 4e3c c0d2 9dbe a638 03be ec51 7e3c
00000110: f1e2 5ebe 8356 623e 6493 2f3d 73c2 69be
00000120: b9b0 a9bd b17a c73d 33d0 8b3d e530 97be
00000130: bfb5 4d3e f8b9 823e d7f3 823e 9edd 043c
00000140: a90f 85be 864b 743e d641 013d c9d7 513e
00000150: 4f5f 9dbe 8a60 783e bb08 943e 6dd0 833e
00000160: d57c 8cbe b288 12be e682 603e 0f26 093d
00000170: 3777 febd fbb7 9ebe 0861 83be 9281 a03e
00000180: f6a3 80ba 1745 1d3e 7bb1 1a3d 8d0d a3bd
0.0044450755 -0.10290481 0.02200402 -0.09264508 -0.05895505 -0.29873717 0.31317002 0.08050987
0.11435465 0.14498094 -0.08623337 -0.23264425 0.03342901 -0.29802695 -0.008338829 0.13976566
-0.04647114 0.27947143 -0.039372478 -0.027274515 0.12423669 -0.3049437 0.15511744 -0.089660585
-0.28477895 -0.18008646 0.21043572 0.050972838 0.01371367 -0.10495886 -0.08050188 0.17603348
0.30182308 -0.1772735 -0.07977474 -0.08343657 -0.019982692 0.2705714 -0.009620612 -0.1360276
0.31467766 -0.01509471 0.119174205 0.18812262 -0.11503222 -0.11767694 -0.29980248 -0.018541373
0.17656451 -0.057595536 0.15581053 0.0681634 0.06983377 -0.08224236 -0.102211975 0.16464245
-0.26943973 0.14140075 0.19467334 0.07696037 0.16676737 -0.20256159 0.28813773 0.048220936
0.012573327 -0.30824852 -0.12814578 0.015522461 -0.21766259 0.22103314 0.042865172 -0.22828083
-0.0828566 0.097401984 0.0682682 -0.2952949 0.20088862 0.25532508 0.2557666 0.008109478
-0.2598851 0.23856935 0.031556927 0.20492472 -0.30736777 0.24255577 0.2891291 0.25744954
-0.2743899 -0.14309958 0.21924934 0.03348356 -0.12425082 -0.3099974 -0.25659966 0.31348854
-0.0009814489 0.15358387 0.037766915 -0.07961569

bias f4 [10]
00000000: f23c d3bd 78d5 6a3e 3027 903d 2000 5fbe
00000010: 5975 afbd 2eb6 e0bc 09b7 0a3d 7ebc 913d
00000020: 4547 113d 5b6a 653e
-0.10314359 0.22932994 0.070387244 -0.21777391 -0.08567304 -0.02743062 0.033865962 0.0711603
0.03546836 0.22403853

weight f4 [1, 10]
00000000: 95d4 a9c2 aba2 a9c2 54da a9c2 39fa a9c2
00000010: b01d aac2 93d7 a9c2 5617 aac2 70bd a9c2
00000020: 6fc1 a9c2 00c8 a9c2
-84.9152 -84.81771 -84.92642 -84.988716 -85.05798 -84.92104 -85.04558 -84.869995
-84.8778 -84.890625

weight f4 [10, 2]
00000000: 3a34 e23e c71a f2bd 2d68 743e ea12 33c0
00000010: 06e1 b93e c117 41c0 55ba 87be 752c 2abf
00000020: 0215 d6be 904e d93e 6d3c 16bf 19a7 1cbe
00000030: 1626 bfbd 269b 203f 366e 37be 7b43 a93e
00000040: 40b7 483f af99 e13f 87e7 0e3e 27c5 5f40
0.4418047 -0.118215136 0.23867865 -2.7980294 0.36304492 -3.0170748 -0.26509348 -0.66474086
-0.41812903 0.4244275 -0.5868595 -0.15298118 -0.09333436 0.6273674 -0.17913136 0.33059296
0.7840462 1.7625026 0.13955508 3.4964082

bias f4 [10]
00000000: db69 d9c0 08a0 0d41 eb02 d940 cb03 023f
00000010: f2e4 b1be cfaa 03bf 653a c9be 3e6f 1fbf
00000020: 25cd ddc0 caba dd40
-6.794172 8.85157 6.781606 0.5078704 -0.34744984 -0.5143251 -0.39302364 -0.6227912
-6.931292 6.9290514

weight f4 [10, 10]
00000000: a775 943f 2afe 87be ed38 90bf 2047 673d
00000010: 1a7d 333e 2d2b 583e 1152 afbd 9399 5f3e
00000020: 2e03 603f 8dc6 f3bf 5628 9dbd 257e cabe
00000030: e751 9ebe 996b 913b e422 9ebe 49fe 02be
00000040: 5317 483d 5193 92be b594 9d3d a2aa 993d
00000050: f8ad 713f ecc6 a6be c7d5 76bf 6f6d 443e
00000060: 6e40 17bd 4dac 00bd 25f9 713e 862d 2fbe
00000070: 745f 2d3f 89cd d8bf 36d5 6b3f 210f bf3e
00000080: d7b4 b1be b447 9dbe 3b9f 19bd e9be 693e
00000090: 1102 783e eb88 edbd 855d 563f 3946 58bd
000000a0: e4e7 913f 122e 86bf 59c0 a8bf 2d2b 313e
000000b0: ea2c 88be 9afc 1d3e a220 01be 5138 c93d
000000c0: a9ef 203f 2268 223d aa74 5c3f 1ac1 d5be
000000d0: fd41 67bf e627 3a3e a362 eabc e5c3 e3bc
000000e0: be17 5f3e 1563 253e 7830 6a3f ab7a edbf
000000f0: fb26 363f 812b 9cbe fa0b 35bf 690f 3abe
00000100: 2fc6 05be ecad 15be 3622 413e 689f 9b3e
00000110: 1f33 963f 239e 293f 616b 8cbf 2fc6 113f
00000120: a353 283f 8d85 9dbe 87bc 8e3e 5149 843e
00000130: 7da6 a3bd 5ba9 47bd 00af 33bf e328 c33f
00000140: 5980 883f 12db 92bf a889 d1bf 5128 87bd
00000150: 67b5 fc3d 5208 843e ddeb d43c 4e7e 6d3d
00000160: 0803 7a3f 04a3 30be b83a 9f3f 8f97 05bf
00000170: 2afc 79bf 405e 833e a672 35be b525 c43d
00000180: dce4 f33d b0f3 20be 78a9 5d3f be31 fcbf
1.1598405 -0.265611 -1.1267372 0.056464314 0.17528191 0.2111022 -0.08560575 0.21835928
0.8750485 -1.9044968 -0.07673709 -0.39549366 -0.30921862 0.0044378755 -0.30885994 -0.12792315
0.04885037 -0.28628018 0.07694379 0.07503249 0.9440608 -0.3257364 -0.9641995 0.1918237
-0.03692668 -0.03141432 0.23630197 -0.1710721 0.67723775 -1.6937724 0.9212221 0.3731623
-0.34708282 -0.30718768 -0.03750537 0.22826733 0.24219538 -0.11598381 0.8373645 -0.052801345
1.1398892 -1.048281 -1.31837 0.17301627 -0.26596767 0.15428391 -0.12610105 0.098251946
0.6286569 0.03965009 0.86115515 -0.41748887 -0.90335065 0.18179283 -0.028611487 -0.02780337
0.217864 0.16151078 0.9148021 -1.855306 0.7115323 -0.3050194 -0.707214 -0.18169941
-0.13063882 -0.14617127 0.18860707 0.30395055 1.1734351 0.6625692 -1.097027 0.5694303
0.6575262 -0.30765954 0.2787821 0.25837186 -0.079907395 -0.048745494 -0.70188904 1.5246853
1.0664169 -1.1473105 -1.6370134 -0.065994866 0.12339287 0.25787598 0.025991375 0.05798178
0.97660875 -0.17249686 1.2439795 -0.52184385 -0.97650397 0.25657845 -0.17719516 0.095775045
0.11908886 -0.1571796 0.86586714 -1.970268

bias f4 [10]
00000000: f3c2 aac0 969d a3bf e68f 9bc0 286c 27c0
00000010: 3bce 25c0 60b4 a7c0 0c54 efbf ac3a 7740
00000020: 0d7f 62c0 0b65 87c0
-5.3362975 -1.2782466 -4.8613157 -2.6159763 -2.5907123 -5.2407684 -1.8697524 3.862956
-3.5390046 -4.2310843
