models/model_omnet_multi_longtrain_weighted.pth (torch, 34251 bytes, 55 tensors)

weight f4 [10, 2]
0	0xbec2c375	-0.38039747
1	0xbed3e0de	-0.41382498
2	0x3e906eb2	0.28209454
3	0x3f05f30e	0.52324
4	0x3eb1abe0	0.34701443
5	0x3fbd4f44	1.4789815
6	0xbf1c5bf3	-0.61077803
7	0xbea58b40	-0.32332802
8	0x3e908117	0.28223488
9	0x3f1e4609	0.61825615
10	0xbe16b9cd	-0.14719315
11	0xbf185808	-0.59509325
12	0xbf2a9ba5	-0.66643745
13	0xbe7d4d67	-0.24736558
14	0x3f1682c1	0.58793265
15	0xbe1bcdc5	-0.15215214
16	0x3e866b06	0.26253527
17	0x3f18718d	0.59548265
18	0xbf088574	-0.53328633
19	0x3ecf29f5	0.40461698

bias f4 [10]
0	0xbe14666b	-0.14492194
1	0x41172872	9.447374
2	0x41012e0e	8.073744
3	0xbc68e02c	-0.014213603
4	0xc0fb6f79	-7.8573575
5	0x3f19a9fb	0.60024995
6	0xbef78d1b	-0.48349842
7	0xc1082af7	-8.510489
8	0xc10cad32	-8.792284
9	0x3e9c5e9b	0.30540928

weight f4 [10, 10]
0	0xbcc77f93	-0.024352824
1	0xbf5ecd70	-0.8703222
2	0xbf5ba353	-0.8579609
3	0xbdae12c7	-0.08499675
4	0x3fc2ba68	1.5213137
5	0xbe88eab7	-0.26741573
6	0x3e45d431	0.19319226
7	0x3f195a57	0.5990347
8	0x3f726ba7	0.94695514
9	0xbcb32c49	-0.021871703
10	0xbdb79da3	-0.08965614
11	0xbf65a65a	-0.8970696
12	0xbf61adf9	-0.88156086
13	0xbda7babb	-0.08189913
14	0x3feb7cf4	1.8397508
15	0x3e686d14	0.2269786
16	0xbe93f3b0	-0.28896856
17	0x3f14b40a	0.5808722
18	0x3f49a1f6	0.7876276
19	0xbe8dfe35	-0.27733007
20	0xbe5f9a9c	-0.21836323
21	0x3f517133	0.81813353
22	0x3f59a6e0	0.85020256
23	0x3e84d41d	0.2594308
24	0xbf08bdb9	-0.53414494
25	0xbe95adad	-0.29234067
26	0xbe6b2086	-0.22961625
27	0x3e2a78fe	0.16647717
28	0xc09984dd	-4.7974687
29	0xbddb02ca	-0.10693891
30	0xbe6cebb9	-0.23136796
31	0xbf58d2e2	-0.8469678
32	0x3f4404fd	0.7657011
33	0xbe86cdde	-0.2632894
34	0x403ac705	2.9183972
35	0xbe4cab90	-0.19987321
36	0xbdac1b53	-0.08403649
37	0x3e74d431	0.2390907
38	0xc02b0490	-2.6721535
39	0xbe9ccb6b	-0.30623946
40	0xbe833b1e	-0.2563104
41	0x3db2ecb6	0.08736555
42	0xbe26b60b	-0.16280381
43	0x3e90e788	0.28301644
44	0x3f9b8a57	1.2151593
45	0x3e00c27a	0.12574187
46	0xbd5db355	-0.054126102
47	0xbc8c1a2f	-0.017102329
48	0xbf6afabf	-0.9178886
49	0xbc419529	-0.011815348
50	0x3e95e5ff	0.29277036
51	0x3f8ba088	1.0908365
52	0x3f229a9b	0.6351716
53	0xbe67070b	-0.2256128
54	0xbf3f07c7	-0.7462124
55	0x3ea0e861	0.3142729
56	0xbea1de46	-0.31614894
57	0xbf09e337	-0.5386233
58	0xbfcf8e3e	-1.6215284
59	0x3e68826d	0.22706003
60	0xbe9c1215	-0.30482545
61	0xbec91c9f	-0.3927965
62	0x3ea40446	0.3203451
63	0xbe9508b9	-0.29108217
64	0x40a787cf	5.235328
65	0x3d230da1	0.03980792
66	0x3d926010	0.07147229
67	0xbe480e2a	-0.19536653
68	0xc0ad1e80	-5.409973
69	0x3e39076e	0.1806924
70	0x3e9b11d8	0.3028705
71	0xbf94db3e	-1.1629407
72	0xbf751892	-0.95740616
73	0xbe6a3533	-0.22871856
74	0x3fd61a61	1.67268
75	0xbe93f178	-0.28895164
76	0x3e65f451	0.2245648
77	0x3f479b8e	0.7797173
78	0x3f9a6e8c	1.2064986
79	0x3e69bfca	0.22827068
80	0xbe66a70c	-0.22524661
81	0xbf876e8f	-1.0580615
82	0xbf861223	-1.0474285
83	0x3ea1c385	0.31594482
84	0x4005cc98	2.0906124
85	0xbdc1e6c9	-0.09467847
86	0x3e96192e	0.29316086
87	0x3f30118b	0.6877677
88	0x3f7525b8	0.9576068
89	0xbe9985d7	-0.29984924
90	0xbe710b88	-0.23539555
91	0x3fa40ff0	1.2817364
92	0x3f6fc733	0.9366333
93	0x3e5cca11	0.21561457
94	0xbff910bf	-1.9458236
95	0xbe134815	-0.14382966
96	0xbe69aa42	-0.22818854
97	0xbf858f16	-1.0434291
98	0xbfacee0a	-1.3510144
99	0x3e60a0c4	0.21936327

bias f4 [10]
0	0xc0b24681	-5.5711064
1	0xc0b83cee	-5.7574377
2	0x40085705	2.1303113
3	0xc0081dfb	-2.1268299
4	0xbf6050a2	-0.87623036
5	0x40541c87	3.3142412
6	0x3e34dc00	0.17662048
7	0xc0b93cd5	-5.788676
8	0xc0aaf960	-5.3429413
9	0x40bc726c	5.8889675

weight f4 [10, 10]
0	0x418cc388	17.595474
1	0x418e4fe7	17.789015
2	0x3fa2b23a	1.271064
3	0xc1136d64	-9.214207
4	0xc11544a7	-9.329261
5	0xc13caaf4	-11.791737
6	0x411ca2cf	9.789748
7	0x4194d973	18.606176
8	0x41a379d2	20.434483
9	0xc17d35c6	-15.825628
10	0x418ccae4	17.599068
11	0x41918e43	18.194464
12	0xbe2f0728	-0.17092574
13	0xc1157874	-9.3419075
14	0xc110d4ac	-9.051922
15	0xc137a784	-11.478397
16	0x411c4594	9.766987
17	0x419ada8b	19.35671
18	0x419c5043	19.53919
19	0xc1245365	-10.27036
20	0x418cc436	17.595806
21	0x418f5cb7	17.92027
22	0x3f490fbc	0.78539634
23	0xc10e13c9	-8.87983
24	0xc110c223	-9.047397
25	0xc14331c5	-12.199651
26	0x411ebda0	9.921295
27	0x4196c421	18.845766
28	0x419e6829	19.80086
29	0xc18161cf	-16.172758
30	0x418b23f4	17.392555
31	0x4190a241	18.079226
32	0x3f463b8f	0.7743463
33	0xc10df456	-8.872152
34	0xc1106f44	-9.027164
35	0xc1441a3b	-12.256404
36	0x4120ed9a	10.058008
37	0x4199e1a9	19.235186
38	0x419ac58f	19.346464
39	0xc1769e95	-15.413716
40	0x4185ea32	16.739353
41	0x418a8fe6	17.320263
42	0xc09c5b70	-4.886162
43	0xc10ff88a	-8.9981785
44	0xc1110a90	-9.065079
45	0xc12ca4e8	-10.79026
46	0x40f09512	7.518197
47	0x419dcce9	19.725054
48	0x419e4526	19.783764
49	0xc0086846	-2.1313643
50	0x418e9bac	17.826012
51	0x4193ba3c	18.465935
52	0xbeb0a94d	-0.34504166
53	0xc1187c70	-9.53038
54	0xc117eed4	-9.495808
55	0xc12b770a	-10.716562
56	0x41134db5	9.206471
57	0x419bd05d	19.47674
58	0x419c77dc	19.558525
59	0xc11ebf56	-9.921713
60	0x417c5071	15.769639
61	0x4183bbee	16.466763
62	0xc0fefa61	-7.968064
63	0xc10d4c79	-8.83117
64	0xc1053530	-8.325485
65	0xc10f2f96	-8.949118
66	0x40c6a847	6.2080417
67	0x419d4819	19.660204
68	0x419917f3	19.136694
69	0xbf0860fd	-0.5327299
70	0x412ffaca	10.998728
71	0x41350fa2	11.316317
72	0x401065f3	2.2562225
73	0xc08fc001	-4.492188
74	0xc0b17fc2	-5.5468454
75	0xc0a18836	-5.0478773
76	0x40a40970	5.126152
77	0x41655d25	14.33524
78	0x416ab95a	14.670252
79	0x40b18caa	5.548421
80	0x418b2c40	17.396606
81	0x418ec62c	17.846764
82	0xc04c9d5a	-3.197104
83	0xc10e1caf	-8.882003
84	0xc10d7352	-8.840654
85	0xc13d180e	-11.818373
86	0x411299a7	9.162513
87	0x419b35fe	19.401363
88	0x419ee400	19.861328
89	0xc0e39feb	-7.113271
90	0x418cf1ed	17.618128
91	0x419156e2	18.167423
92	0x3f528024	0.8222678
93	0xc111ca6a	-9.1119175
94	0xc10b434e	-8.703932
95	0xc143828e	-12.219374
96	0x412157ae	10.083906
97	0x4197ea25	18.989328
98	0x419a3b41	19.278933
99	0xc15362ca	-13.211618

bias f4 [10]
0	0xc106d2e6	-8.426489
1	0xc10df7a6	-8.872961
2	0xc10ad0a8	-8.675941
3	0xc109ffe4	-8.624973
4	0xc10e025e	-8.875578
5	0xc10f558b	-8.9583845
6	0xc1107b9b	-9.030177
7	0xc0ca8b89	-6.329533
8	0xc114392a	-9.263956
9	0xc10b73d6	-8.71578

weight f4 [10, 10]
0	0xbe3b141f	-0.18269394
1	0xbe064e06	-0.13115701
2	0x3da639f1	0.0811652
3	0xbe546a1f	-0.20743607
4	0x3e806310	0.2507558
5	0x3a9a2a7d	0.001176193
6	0xbe107028	-0.14105284
7	0x3e04aff3	0.12957744
8	0xbdf7b5e8	-0.12095243
9	0x3e9b22ad	0.30299893
10	0x3ce6447e	0.028108831
11	0x3e9be2b8	0.3044641
12	0x3e94301f	0.28942963
13	0x3e21688e	0.1576254
14	0x3df2a259	0.118473716
15	0x3d148c53	0.036266636
16	0x3d66f08f	0.05638176
17	0x3e8f81fe	0.28028864
18	0x3e3d73e9	0.18501247
19	0xbe528317	-0.2055782
20	0x3dd740ec	0.1051043
21	0x3e646783	0.22305112
22	0x3e81368c	0.25236928
23	0xbb27d53c	-0.0025609275
24	0xbd23c5e9	-0.039983664
25	0x3d9ad3df	0.075599425
26	0xbe9e717a	-0.3094595
27	0x3e97e4d0	0.29666758
28	0xbe80c1c4	-0.2514783
29	0xbe48d320	-0.19611788
30	0x3de128b1	0.109940894
31	0x3dd1900a	0.102325514
32	0xbe83f2cf	-0.25771186
33	0x3e906998	0.28205562
34	0x3e298f4a	0.16558567
35	0xbe93254a	-0.28739387
36	0x3e2316d5	0.15926678
37	0x3d062f31	0.03275985
38	0x3c3b3c39	0.011427932
39	0xbe2cd3f8	-0.16877735
40	0xbdb75b91	-0.08953012
41	0x3bcefcb5	0.006316746
42	0x3e659c6b	0.2242295
43	0x3e97818b	0.2959102
44	0x3e705b4b	0.23472326
45	0xbe6ed65f	-0.23323964
46	0xbe8efe8c	-0.2792858
47	0xbd3d6f44	-0.04624869
48	0x3e957d17	0.29196998
49	0xbe82a86f	-0.2551913
50	0x3e4c5885	0.19955643
51	0xbe85b2cb	-0.2611297
52	0x3e543085	0.20721634
53	0x3e507c03	0.20359807
54	0xbe569e5f	-0.20958851
55	0xbe4f5350	-0.20246625
56	0x3c0d2759	0.008615338
57	0x3e828b05	0.25496688
58	0xbc4c119e	-0.012455372
59	0x3e10fe1d	0.14159437
60	0x3dfe8d55	0.12429301
61	0xbe26feb9	-0.16308106
62	0x3e43f22a	0.19135347
63	0x3c64b125	0.01395825
64	0xbe7c7db7	-0.24657331
65	0x3e9fccf4	0.31211054
66	0xbd1f177d	-0.03884076
67	0xbde0ae22	-0.10970713
68	0x3c5226e1	0.012826652
69	0xbdc3bda1	-0.09557653
70	0x3d5efa32	0.054437824
71	0x3e1d3033	0.15350418
72	0x3e9314fc	0.28726947
73	0xbd18673c	-0.037207827
74	0xbe39fa39	-0.18161859
75	0x3e9e7217	0.3094642
76	0xbe910424	-0.28323472
77	0xbe3546e4	-0.17702824
78	0x3e79e81c	0.24404949
79	0x3da8980d	0.082321264
80	0xbe8225f3	-0.25419578
81	0x3d979dad	0.07403121
82	0xbe4abb9e	-0.19798133
83	0xbdd3284f	-0.10310423
84	0x3ddf1c0d	0.10894022
85	0x3e7e2650	0.24819303
86	0x3e034de5	0.12822683
87	0x3e13a9eb	0.14420287
88	0x3dc3bd37	0.09557574
89	0xbe3bc50b	-0.18336885
90	0xbe3dcc2e	-0.1853492
91	0xbe995386	-0.29946536
92	0xbe5651d8	-0.20929658
93	0x3da0c5db	0.07850238
94	0xbe91e17a	-0.28492337
95	0xbe22d3cf	-0.15901111
96	0xbd0ec5cd	-0.034856606
97	0xbe552177	-0.20813547
98	0x3e17c438	0.14820945
99	0x3e915448	0.28384614

bias f4 [10]
0	0x3d01bd16	0.031674467
1	0xbe068a48	-0.13138688
2	0x3e0a4aad	0.13505049
3	0x3e758d98	0.23979795
4	0x3e7736e1	0.24142028
5	0xbe5ef3be	-0.21772668
6	0xbe2793c9	-0.1636497
7	0xbd4e5353	-0.050372433
8	0xbd879560	-0.06620288
9	0xbe7d80ab	-0.24756114

weight f4 [10, 10]
0	0x3e8e5a22	0.2780314
1	0x3c5e2014	0.013557453
2	0xbe932470	-0.28738737
3	0xbe47c456	-0.1950849
4	0x3e15cbdb	0.14628546
5	0x3e800b8b	0.25008807
6	0x3d98a6ad	0.07453666
7	0xbe424d32	-0.1897476
8	0x3ea0f01b	0.31433186
9	0xbe02f8c0	-0.12790203
10	0x3e8693c3	0.26284608
11	0x3dae1d46	0.08501677
12	0xbe40dc81	-0.18834116
13	0xbe80c8b2	-0.25153118
14	0x3d5b55f5	0.053548772
15	0xbe65824f	-0.2241299
16	0xbe320b39	-0.17387094
17	0xbe21511d	-0.15753599
18	0xbe107709	-0.14107908
19	0x3d541efd	0.051787365
20	0xbe9b52ba	-0.30336553
21	0x3c928a6a	0.017888267
22	0x3de07268	0.10959321
23	0xbe3c2ce4	-0.183765
24	0xbd1ce898	-0.038307756
25	0xbe9e3cd7	-0.30905792
26	0xbe98aa38	-0.29817367
27	0xbe1b4489	-0.15162863
28	0xbd126163	-0.035737406
29	0xbe475ef7	-0.1946982
30	0xbdd0f4bc	-0.102029294
31	0x3cd7d0f1	0.026344748
32	0xbe6575b8	-0.22408187
33	0xbdead0fb	-0.11465641
34	0xbe3ad392	-0.1824477
35	0x3d3aed71	0.045636598
36	0x3e1986d0	0.14992833
37	0xbe5deee7	-0.21673165
38	0x3e54ea20	0.20792437
39	0x3e57788f	0.21042083
40	0xbe83fdb6	-0.25779504
41	0x3daa6b83	0.083212875
42	0xbb0aef67	-0.0021199824
43	0x3e93f552	0.28898102
44	0x3df7c617	0.120983295
45	0x3d127d37	0.035763945
46	0x3c9238fd	0.01784944
47	0xbe888bec	-0.26669252
48	0xbdf71ddc	-0.12066242
49	0x3ddcbc43	0.107780956
50	0xbdaaf5b5	-0.08347646
51	0x3db204e3	0.08692338
52	0x3e8e251c	0.27762687
53	0x3e270ab8	0.16312683
54	0x3e9e39d6	0.309035
55	0x3d9bd371	0.076086886
56	0x3ce7a803	0.028278356
57	0xbd8c0d31	-0.068384536
58	0xbe67e2c8	-0.22645104
59	0xbe424a1a	-0.1897358
60	0xbd5904e9	-0.0529832
61	0xbda76767	-0.08174019
62	0xbdf4e8e1	-0.119584806
63	0x3de214a8	0.11039096
64	0x3e1ca2d9	0.15296496
65	0xbd3e15e1	-0.046407584
66	0x3e71db4b	0.2361881
67	0xbdb541bd	-0.08850429
68	0xbdc3dcd6	-0.095636055
69	0xbe60bcb3	-0.21946983
70	0x3d90131b	0.07034894
71	0x3db04b83	0.08608153
72	0x3e7adc74	0.24498159
73	0xbe6f8e4a	-0.23394123
74	0x3e051ef2	0.13000086
75	0xbdabbc1e	-0.0838549
76	0xbe2f3f11	-0.17113902
77	0x3e92b896	0.28656453
78	0x3dd0afc6	0.10189776
79	0xbe38bc56	-0.18040594
80	0xbe39edb2	-0.1815708
81	0xbe1a09cf	-0.15042804
82	0xbd641169	-0.055680666
83	0x3e7aa36f	0.24476407
84	0x3e58a783	0.2115765
85	0x3e6f8cec	0.23393601
86	0xbc192757	-0.009347758
87	0x3e277255	0.16352208
88	0x3e22035e	0.15821597
89	0xbd4474aa	-0.047962822
90	0xbdecd23d	-0.11563537
91	0xbd464252	-0.04840309
92	0x3e1da5d6	0.15395293
93	0x3d86f030	0.06588781
94	0xbda7d073	-0.081940554
95	0x3e027788	0.1274091
96	0xbbd4ad40	-0.0064903796
97	0xbe7966ac	-0.24355572
98	0x3dfd3fc0	0.12365675
99	0x3dceaacd	0.100911714

bias f4 [10]
0	0x3e398af4	0.18119413
1	0x3e62e545	0.22157772
2	0x3e6bb491	0.230181
3	0xbe7c7267	-0.24653016
4	0x3d5d7fac	0.054076836
5	0x3e913e81	0.28368
6	0xbd5d8330	-0.05408019
7	0xbe14ade5	-0.1451946
8	0x3e9e8a39	0.3096483
9	0x3e928186	0.28614444

weight f4 [1, 10]
0	0xc2ac5201	-86.160164
1	0xc2abd457	-85.91473
2	0xc2ac7525	-86.2288
3	0xc2ac8847	-86.26617
4	0xc2abf188	-85.97174
5	0xc2ac9c14	-86.30484
6	0xc2ac873f	-86.26415
7	0xc2ac91d3	-86.28481
8	0xc2ac808c	-86.25107
9	0xc2ac792d	-86.23667

weight f4 [10, 2]
0	0xbeb01058	-0.3438747
1	0x3b904a8d	0.0044034184
2	0x3e9e14ff	0.30875394
3	0x3d89785c	0.0671241
4	0xbf028f60	-0.5100002
5	0x3e39ab57	0.18131767
6	0xbeb3a921	-0.35089973
7	0xbee13d06	-0.4399187
8	0xbe998477	-0.29983875
9	0xbe4f56f8	-0.2024802
10	0xbeab3d81	-0.3344536
11	0x3f272cf2	0.65302956
12	0xbf1a64ed	-0.6031025
13	0xbe1184d6	-0.14210829
14	0x3d63870c	0.055548713
15	0x3a8e625c	0.0010863054
16	0x3f66b759	0.90123516
17	0xbdbd7e76	-0.09252636
18	0x3db812aa	0.08987935
19	0xbb3ef2d0	-0.0029136427

bias f4 [10]
0	0x3eda982d	0.42694226
1	0xc01e9273	-2.4776886
2	0x3f1eb29c	0.61991286
3	0xbe984c66	-0.29745787
4	0xbeb8e954	-0.36115515
5	0x3ec371ce	0.38172764
6	0xbc86de6f	-0.016463486
7	0xc08cb0f0	-4.396599
8	0x4029b8a4	2.6518946
9	0xc07dbaf8	-3.9645367

weight f4 [10, 10]
0	0x3e8d8f5f	0.27648446
1	0x3e06cbf8	0.13163745
2	0x3e890fab	0.26769766
3	0xbcfddd8d	-0.030989433
4	0x3e64eaed	0.22355242
5	0x3dd4d328	0.10391837
6	0xbdbf566f	-0.09342658
7	0x4140104a	12.003977
8	0xbe6589a1	-0.22415783
9	0x4008b49f	2.1360242
10	0xbe46f81a	-0.1943058
11	0x4081fc65	4.06206
12	0x3e680b47	0.22660552
13	0xbd64f80f	-0.05590063
14	0x3e25881f	0.16165207
15	0x3d06bf96	0.032897554
16	0xbe19e65a	-0.15029278
17	0xc0651773	-3.5795562
18	0xbf689637	-0.9085421
19	0x403bfbb1	2.937237
20	0x3cf27688	0.029597536
21	0x3dc902e3	0.09815004
22	0xbe1a326a	-0.15058294
23	0xbdf7e65e	-0.12104486
24	0x3e854f58	0.26037097
25	0xbe82d72a	-0.25554782
26	0x3d9662b7	0.07343047
27	0x414c3769	12.763528
28	0xbe3afb68	-0.18259966
29	0x3faf6e9b	1.3705629
30	0xbe84c610	-0.2593236
31	0xbd8a297e	-0.06746195
32	0x3cf9c9d7	0.030491753
33	0x3e1678d5	0.14694531
34	0xbd7758e5	-0.06038751
35	0xbe7f85fa	-0.24953452
36	0xbd1dacc6	-0.038494848
37	0x413dfb0d	11.873792
38	0xbe09125d	-0.13385911
39	0x3fc9a0c7	1.575219
40	0xbdedaf80	-0.116057396
41	0x3dd6aca8	0.1048215
42	0xbe05728d	-0.13031979
43	0x3e931eaa	0.28734332
44	0x3de491e5	0.1116064
45	0x3e05dcf1	0.13072564
46	0x3e84dd0f	0.25949904
47	0x40923376	4.568782
48	0x3e4c165f	0.19930409
49	0xbfee7652	-1.8629858
50	0x3e03c5fb	0.12868492
51	0x3ea2968f	0.31755492
52	0xbca06a35	-0.019581893
53	0x3e038571	0.12843873
54	0x3e892400	0.26785278
55	0x3e44d386	0.19221315
56	0x3e75a871	0.23990037
57	0x41531f59	13.195153
58	0xbe8ff2ab	-0.28114828
59	0x3febef87	1.8432473
60	0xbda10788	-0.078627646
61	0x3e7eb10b	0.24872224
62	0xbea04e83	-0.313099
63	0xbde978b0	-0.113999724
64	0x3e4bd357	0.19904839
65	0x3e84279c	0.2581147
66	0xbc2e6675	-0.010644545
67	0x4140f81f	12.060576
68	0xbe765790	-0.2405684
69	0x3fef1a4d	1.8679901
70	0x3e98fed3	0.29881915
71	0x3e99f2a9	0.30067948
72	0xbe373dde	-0.17894694
73	0x3d4969b0	0.049173057
74	0x3ce591be	0.028023597
75	0x3dbc9cb3	0.092095755
76	0xbe1db4e1	-0.15401031
77	0x412b7078	10.714958
78	0xbe8173ea	-0.25283748
79	0xbdd57fdf	-0.1042478
80	0xbceb9223	-0.028756207
81	0x3ea1297e	0.3147697
82	0x3dee0b34	0.116232306
83	0x3e8ad57f	0.2711601
84	0x3ce65648	0.028117314
85	0xbe8e73b4	-0.2782265
86	0xbdca6b0f	-0.09883701
87	0x4157c172	13.484728
88	0xbe91145a	-0.2833584
89	0x3fed142d	1.8521782
90	0x3dd883f8	0.10572046
91	0xbe0c0178	-0.13672435
92	0xbddabed6	-0.1068093
93	0x3e2a0534	0.16603547
94	0x3db1218a	0.08648975
95	0xbdc456b4	-0.0958685
96	0x3bb4bcde	0.005515679
97	0x40d474ac	6.639242
98	0x3eac6725	0.33672443
99	0xc01dd30c	-2.4660063

bias f4 [10]
0	0xc0182923	-2.3775108
1	0xc0e18cf3	-7.0484557
2	0xc01fbbce	-2.4958377
3	0xc0241b7b	-2.5641773
4	0x40595a1a	3.3961244
5	0xc00b067e	-2.1722713
6	0xc043661d	-3.0531075
7	0x3fdbe8bf	1.7180403
8	0xc0061d41	-2.0955355
9	0x402b031e	2.6720653

weight f4 [10, 10]
0	0x40f68699	7.7039304
1	0xc0ace928	-5.4034615
2	0x40e8522e	7.2600317
3	0x40dc96f0	6.893425
4	0xc0da05d6	-6.8132124
5	0x411111d5	9.066854
6	0x4109dc23	8.616244
7	0x40526649	3.287493
8	0x40f9b901	7.8038335
9	0xc065a245	-3.5880291
10	0x40eec329	7.4613233
11	0xc0ce5c70	-6.448784
12	0x40fcdde3	7.902086
13	0x40e56ce3	7.169542
14	0xc0b9de92	-5.808419
15	0x41041efd	8.2575655
16	0x410bedfa	8.7456
17	0x406f9fe6	3.7441344
18	0x40f246bf	7.571136
19	0xc09cba66	-4.8977537
20	0x40f064d5	7.5123086
21	0xc0ccebe9	-6.4037976
22	0x40ef8449	7.484898
23	0x40eb2429	7.348164
24	0xc0b85dbf	-5.7614436
25	0x410720d7	8.445518
26	0x410e8376	8.907095
27	0x406bb406	3.6828628
28	0x40ee553e	7.4479055
29	0xc09c30ea	-4.880971
30	0x40ed92dd	7.4241776
31	0xc0d21cc1	-6.56601
32	0x40f00b54	7.501383
33	0x40e1fc39	7.062039
34	0xc0b8712f	-5.7638164
35	0x410b7e0f	8.718276
36	0x410af15f	8.6839285
37	0x4069e788	3.6547565
38	0x40f7f6d4	7.7488804
39	0xc0968db8	-4.7047997
40	0x40e5742c	7.170431
41	0xc0baa6f5	-5.8328805
42	0x40e8ad77	7.271175
43	0x40b7c91d	5.7433
44	0xc025a1b3	-2.5879943
45	0x41210348	10.063301
46	0x411024f3	9.009021
47	0xbee6a3e5	-0.45046917
48	0x4115cf15	9.363057
49	0xc08cca72	-4.3997126
50	0x40fc66ce	7.8875494
51	0xc0d19524	-6.5494556
52	0x40e4d8d3	7.151468
53	0x40e76687	7.2312655
54	0xc0b8d1ac	-5.7755947
55	0x410a4a0d	8.643079
56	0x410af7e7	8.685523
57	0x4067034d	3.6095765
58	0x40f2c5d7	7.5866504
59	0xc097a9c4	-4.7394733
60	0x40f20dd1	7.5641866
61	0xc0d3c1be	-6.6174
62	0x40f7aa9e	7.7395773
63	0x40e51822	7.159196
64	0xc0b97295	-5.795237
65	0x4104800f	8.281264
66	0x410c1212	8.754412
67	0x40803fc8	4.007786
68	0x40ec5850	7.3857803
69	0xc0975b29	-4.729878
70	0x40f798b6	7.7373915
71	0xc0d6ea2d	-6.716086
72	0x40f259d1	7.573464
73	0x40d6a7ec	6.7079983
74	0xc0ba937b	-5.830503
75	0x410786e2	8.47043
76	0x410fec10	8.995132
77	0x406b1eb4	3.673749
78	0x40f37378	7.6078453
79	0xc08add68	-4.339527
80	0x41000b35	8.002736
81	0xc0cbdf1b	-6.3709846
82	0x40f026f6	7.504756
83	0x40de7b84	6.9525776
84	0xc0b44fbd	-5.6347337
85	0x41074aa9	8.455728
86	0x4108ddb5	8.554128
87	0x40515f9b	3.2714603
88	0x40ffd5b3	7.9948363
89	0xc0a29e95	-5.081858
90	0x40f71d64	7.7223377
91	0xc0d2bf59	-6.585858
92	0x40f0d971	7.526543
93	0x40e00f72	7.0018854
94	0xc0b7e6ce	-5.7469244
95	0x4107d9f9	8.490716
96	0x4109c99a	8.611719
97	0x4071ac87	3.7761552
98	0x40f522cd	7.660498
99	0xc0917b29	-4.546284

bias f4 [10]
0	0xc1121d8c	-9.132214
1	0xc0fb96d8	-7.8621635
2	0xc0fec949	-7.962071
3	0xc0fe99fd	-7.9562974
4	0xc12ae80c	-10.681652
5	0xc0fe3c25	-7.944842
6	0xc0fc4429	-7.8833203
7	0xc10186cb	-8.095408
8	0xc0fd6835	-7.9189706
9	0xc101b6f1	-8.107163

weight f4 [10, 10]
0	0x3e8c1d60	0.2736616
1	0xbe2726ab	-0.16323344
2	0x3c3fc819	0.011705422
3	0x3e37cc73	0.17949085
4	0x3da08261	0.07837368
5	0x3e8f8a38	0.2803514
6	0x3e50bf01	0.20385362
7	0xbd3f1148	-0.04664734
8	0xbe0ba76d	-0.13638087
9	0x3d6061e7	0.054780867
10	0xbe994eb5	-0.2994286
11	0x3d9bbe83	0.076046966
12	0x3e0bf068	0.13665926
13	0x3d250955	0.040292103
14	0x3e921ef9	0.28539255
15	0x3d8f6061	0.07000805
16	0x3dabe716	0.083936855
17	0x3e3eab30	0.1861999
18	0xbda3ba82	-0.07994558
19	0x3db3d47a	0.08780761
20	0x3daeb556	0.08530681
21	0xbdd4e061	-0.103943594
22	0xbe3f986e	-0.18710491
23	0x3e84c4c7	0.2593138
24	0x3e0839f2	0.13303354
25	0xbdfa975e	-0.12235902
26	0x3e30acc1	0.172534
27	0xbe03f547	-0.12886535
28	0xbe83db91	-0.25753453
29	0xbd7ddfb9	-0.061980937
30	0x3e837139	0.2567232
31	0x3d54b45e	0.051929824
32	0xbdd06ca8	-0.101769745
33	0xbea14e36	-0.31504983
34	0x3e6d65a9	0.23183312
35	0xbdd7015c	-0.10498306
36	0x3d8eed22	0.06978823
37	0x3d817b36	0.06322329
38	0xbe93a1c1	-0.28834346
39	0x3e879192	0.2647825
40	0x3e88a708	0.26689935
41	0x3e9a6007	0.30151388
42	0x3e92ac76	0.28647202
43	0xbc9f8e96	-0.01947717
44	0xbd95e4f9	-0.07319064
45	0x3e1ec554	0.15504962
46	0xbe6dbb56	-0.23215994
47	0xbe9edcbe	-0.31027788
48	0xbddb220e	-0.10699855
49	0x3d27293f	0.04081082
50	0x3d122d68	0.035687834
51	0xbe1ba9c7	-0.15201484
52	0x3cb7a257	0.022416277
53	0xbe81900f	-0.2530522
54	0x3e5a5c02	0.2132416
55	0x3da76587	0.08173662
56	0x3e93cf96	0.28869313
57	0xbe5d6b8d	-0.21623059
58	0xbe402db3	-0.18767433
59	0x3e078a24	0.1323629
60	0xbe463bc4	-0.19358736
61	0xbc5da1e7	-0.01352737
62	0xbe284c74	-0.16435415
63	0x3e35fcd7	0.17772232
64	0xbe785d35	-0.24254306
65	0xbe8f7f7c	-0.2802695
66	0x3dfd85cc	0.12379035
67	0x3d8c2998	0.06843871
68	0xbc43e3e0	-0.011956185
69	0xbe36945f	-0.17830037
70	0x3e65af71	0.22430207
71	0xbe0da5d4	-0.1383279
72	0x3e0a1032	0.1348274
73	0x3ea0dcb9	0.31418398
74	0xbdd3f7e0	-0.10350013
75	0xbe24644b	-0.16053884
76	0xbd46da26	-0.048547886
77	0x3c70174b	0.014653991
78	0xbe92c956	-0.28669232
79	0xbdab4f47	-0.0836473
80	0x3e84777b	0.25872406
81	0xbcfb940e	-0.030710246
82	0x3d8020ce	0.06256257
83	0x3d91e387	0.071234755
84	0xbe457de9	-0.19286312
85	0x3d86e61c	0.06586859
86	0xbe81d64a	-0.25358802
87	0x3e16b7a4	0.14718491
88	0x3e70d125	0.23517282
89	0xbde22a61	-0.110432394
90	0x3e4d6d94	0.20061332
91	0x3e799137	0.24371801
92	0x3cdc8dfe	0.026923176
93	0x3e105704	0.14095694
94	0xbe8922b1	-0.2678428
95	0xbc3ad9e0	-0.0114044845
96	0x3e9d6767	0.30742952
97	0xbe5e7268	-0.2172333
98	0x3e451e99	0.19249953
99	0xbdc7b041	-0.09750415

bias f4 [10]
0	0x3e14eb32	0.14542845
1	0x3c404adc	0.011736598
2	0xbd08f885	-0.03344013
3	0xbe549eda	-0.20763722
4	0xbe6684ce	-0.22511598
5	0xbe85e3e1	-0.2615042
6	0xbe7e8dea	-0.24858823
7	0xbe13c890	-0.14431977
8	0x3e7c54c6	0.24641714
9	0xbe305db0	-0.17223239

weight f4 [10, 10]
0	0x3e7b85a5	0.245627
1	0x3dee26b2	0.11628474
2	0x3dedc5e4	0.1161001
3	0x3e4b55c2	0.19856933
4	0xbe10794c	-0.14108771
5	0x3df3c2e3	0.11902406
6	0xbdb0a8cd	-0.08625946
7	0xbe122955	-0.1427358
8	0x3e0dce5b	0.1384825
9	0x3e6b431c	0.22974819
10	0xbe934e8e	-0.2877087
11	0xbcb9aea5	-0.022666285
12	0x3e966451	0.2937341
13	0xbe2f667a	-0.17128935
14	0xbdaddcb4	-0.084893614
15	0x3d39aa1a	0.045328237
16	0xbe30a4bd	-0.17250343
17	0xbccf103b	-0.025276294
18	0xbd36f2ad	-0.044665027
19	0x3e986b25	0.29769245
20	0x3bdb38a0	0.0066901
21	0xbe62af2d	-0.22137137
22	0xbd01957a	-0.031636693
23	0x3d1c6039	0.038177703
24	0x3ce6396d	0.028103555
25	0x3da4c8c9	0.08046109
26	0x3e0c95aa	0.13728967
27	0xbe424267	-0.18970643
28	0xbe0802b1	-0.13282277
29	0xbe74a18a	-0.23889747
30	0xbe21ec1b	-0.15812723
31	0x3e837c65	0.25680843
32	0xbe631a3d	-0.22177978
33	0x3e4d1f8a	0.20031562
34	0xbe9afe26	-0.30272025
35	0x3e6f0645	0.23342235
36	0x3d8d1fe5	0.06890849
37	0xbe013119	-0.12616386
38	0x3cdeec99	0.027212428
39	0xbe880d6f	-0.2657275
40	0xbe95c734	-0.29253542
41	0x3e87b752	0.2650705
42	0x3e496c86	0.19670305
43	0xbe8c9da0	-0.27464008
44	0x3e4f2872	0.20230272
45	0xbe330adf	-0.17484616
46	0xbd5ab4ae	-0.053394966
47	0xbe0202aa	-0.12696329
48	0x3e794172	0.24341372
49	0x3e0072b5	0.12543757
50	0x3e876aae	0.26448578
51	0x3e572a22	0.21012166
52	0xbd7ca7c4	-0.06168343
53	0xbc3318ea	-0.010931233
54	0x3e0390d9	0.12848224
55	0xbe597057	-0.2123426
56	0xbe24c7ce	-0.16091844
57	0xbe2b5011	-0.16729762
58	0x3d551819	0.052024934
59	0x3d7bcbde	0.06147372
60	0x3d9e99a1	0.07744146
61	0x3e25c2da	0.16187611
62	0xbe721bdc	-0.2364344
63	0xbe24efb8	-0.1610707
64	0xbcef2353	-0.029191649
65	0x3e73ec87	0.23820697
66	0xbe227e3b	-0.15868466
67	0x3ad1e1a0	0.0016012676
68	0xbe7a00d8	-0.24414384
69	0xbde9e527	-0.114206605
70	0x3e611136	0.21979222
71	0xbe33674f	-0.17519878
72	0xbe7ff352	-0.24995163
73	0x3e5907b5	0.21194346
74	0x3e5bfcc1	0.21483137
75	0x3e64f27c	0.22358125
76	0x3e2a3f3b	0.16625683
77	0xbdc6381a	-0.09678669
78	0xbe8271d1	-0.2547746
79	0xbe4c9da1	-0.19982006
80	0x3da4f4b3	0.08054485
81	0x3d8cee4a	0.068813875
82	0x3c79d446	0.015248364
83	0xbe0bf8d3	-0.13669138
84	0xbe72dfea	-0.23718229
85	0xbdd79588	-0.10526568
86	0xbe18f9f9	-0.14939107
87	0xbe44bd8c	-0.19212931
88	0x3df394ad	0.11893592
89	0xbe125781	-0.14291193
90	0xbe04adb8	-0.12956893
91	0x3e23eb26	0.16007671
92	0xbddeac34	-0.10872689
93	0xbe33eb5b	-0.1757025
94	0x3e981013	0.29699764
95	0xbe3762e1	-0.17908813
96	0x3e413bd8	0.18870485
97	0xbe91ab0f	-0.2845082
98	0xbe9b6221	-0.30348304
99	0x3d91fb1b	0.07127973

bias f4 [10]
0	0x3e9e8ead	0.30968228
1	0x3e336c27	0.17521726
2	0xbea15081	-0.31506732
3	0x3d9cc70e	0.07655154
4	0xbd540f74	-0.05177255
5	0xbced41b5	-0.028961996
6	0xbe7f4fda	-0.24932805
7	0xbe7e2c73	-0.24821644
8	0xbe0f16a3	-0.13973479
9	0xbe83ffcb	-0.25781092

weight f4 [1, 10]
0	0xc2ac0aea	-86.02132
1	0xc2ac5ffc	-86.18747
2	0xc2ac22f7	-86.06829
3	0xc2ac2cbb	-86.087364
4	0xc2abfaf8	-85.99017
5	0xc2abd46f	-85.91491
6	0xc2ac0305	-86.0059
7	0xc2abe335	-85.94376
8	0xc2ac4093	-86.12612
9	0xc2abe94c	-85.95566

weight f4 [10, 2]
0	0x3efaf314	0.4901358
1	0x3e558d3a	0.20854655
2	0x3e49551c	0.19661373
3	0x3e572626	0.21010646
4	0xbe57ad32	-0.21062163
5	0x3e2f5c98	0.17125165
6	0x3d8e3093	0.069428585
7	0x3d39434b	0.04523019
8	0x3f1c4c91	0.6105433
9	0x3f0909c2	0.53530514
10	0x3d553ed0	0.052061856
11	0x3e024f05	0.12725456
12	0xbf1dbad7	-0.6161322
13	0x3ed57027	0.41687128
14	0xbe39c87d	-0.18142886
15	0xbf137c94	-0.57611966
16	0x3d9f67d0	0.077834725
17	0x3e80640b	0.25076327
18	0x3f258f74	0.6467202
19	0x3ecf85e4	0.40531838

bias f4 [10]
0	0xc07a2132	-3.908276
1	0xc09e0e8f	-4.939277
2	0xbec25ec3	-0.37962922
3	0xc09349d0	-4.6027603
4	0x407480dc	3.820365
5	0xc071f3c2	-3.7805028
6	0x3eac7d37	0.3368928
7	0xbd446268	-0.04794541
8	0xc08233a5	-4.0688043
9	0x402be761	2.6859972

weight f4 [10, 10]
0	0x3e66754d	0.22505684
1	0x3faa39f7	1.329894
2	0xbdd0f72a	-0.10203393
3	0x4010f00c	2.2646513
4	0xbee6f66d	-0.45109883
5	0x40bbd3a7	5.8695865
6	0x3d9e8bc1	0.077415
7	0x3e4f5fb7	0.20251356
8	0x3fe3f0d7	1.7807873
9	0xbe38fd35	-0.18065341
10	0x3e29c329	0.16578354
11	0x3fb77aa5	1.4334303
12	0xbdebaf2c	-0.11508021
13	0x3fe92795	1.8215204
14	0xbf38cf16	-0.7219099
15	0x409fa453	4.988809
16	0xbce11f2a	-0.02748068
17	0xbe54a27d	-0.2076511
18	0x3fdca70d	1.723848
19	0x3c115729	0.008870878
20	0xbd13ff2c	-0.036132023
21	0xbf288018	-0.65820456
22	0x3d338020	0.04382336
23	0xc1643695	-14.263326
24	0x3e1a9c7c	0.15098757
25	0xc037f606	-2.874391
26	0x3caf6112	0.021408591
27	0xbe16091a	-0.1465191
28	0x40a9ffb2	5.312463
29	0xbcc717f9	-0.024303423
30	0x3e0e47d0	0.13894582
31	0xbc5a2280	-0.0133138895
32	0xbe178ed6	-0.14800581
33	0xbf93b878	-1.154067
34	0x3e655e96	0.22399363
35	0xbedf3241	-0.43593028
36	0xbe94fa5a	-0.29097253
37	0x3e38b0aa	0.18036142
38	0x3c596ed2	0.0132710505
39	0x3e254bc9	0.16142191
40	0x3ef8e8b4	0.48615038
41	0x3f8a68f1	1.0813276
42	0xbdbf4f61	-0.09341312
43	0x400e462d	2.2230332
44	0xbf11563c	-0.5677221
45	0x40a65e35	5.199
46	0x3e857692	0.26067024
47	0x3de25257	0.11050861
48	0x3fefed10	1.8744221
49	0xbe9b796d	-0.30366078
50	0x3e1f3af3	0.15549831
51	0xbe79e399	-0.24403228
52	0x3e9f9e23	0.31175336
53	0xc0d9d097	-6.8067126
54	0x3e8eee46	0.27916163
55	0xc10fb5bb	-8.981868
56	0x3e061d53	0.13097124
57	0xbe9a51c8	-0.3014052
58	0xc080aa62	-4.0207987
59	0x3e268a73	0.16263752
60	0x3e33e483	0.17567639
61	0x3f78c4e7	0.9717545
62	0xbc2b6f83	-0.010463598
63	0x40161a0a	2.3453393
64	0xbd35ec1c	-0.044414625
65	0x3f26215a	0.6489464
66	0x3e78a56d	0.24281855
67	0xbe0a8801	-0.13528444
68	0x3f243313	0.64140433
69	0xbe610665	-0.21975096
70	0x3d92b072	0.071625605
71	0x3f661ebc	0.89890647
72	0xbe1ef69c	-0.15523762
73	0x4062da19	3.5445616
74	0xbd7270a8	-0.05918947
75	0x40cea4a4	6.4575977
76	0x3d9fe11f	0.0780661
77	0xbe3e6f5d	-0.18597169
78	0x40179035	2.3681767
79	0xbee0d81e	-0.43914884
80	0xbbefa232	-0.0073130364
81	0xbf4ccef8	-0.8000331
82	0xbd337217	-0.043809976
83	0xc0815ee9	-4.0428357
84	0x3e77bd11	0.24193217
85	0xc0aeed55	-5.466471
86	0xbe84364b	-0.25822672
87	0xbe3be7e3	-0.18350177
88	0xc0263668	-2.5970707
89	0x3e639546	0.22224912
90	0xbc4006e8	-0.011720397
91	0xbf96498e	-1.1741197
92	0x3d36bde8	0.044614702
93	0xc032db19	-2.7946227
94	0x3f034fd3	0.5129368
95	0xbf8249c3	-1.017876
96	0x3add453f	0.0016881599
97	0xbd6c94b1	-0.05775899
98	0xc0010875	-2.0161412
99	0x3eb9a660	0.36259747

bias f4 [10]
0	0xc03280a5	-2.7891018
1	0xc04aa1cd	-3.1661255
2	0x3f2a52de	0.66532695
3	0xbf3697c4	-0.71325326
4	0xc04c1e14	-3.1893358
5	0x4011718a	2.2725549
6	0xbf38b75d	-0.7215479
7	0xc016d70a	-2.356875
8	0x3fa96f3e	1.3237073
9	0x4048c0c5	3.1367657

weight f4 [10, 10]
0	0x4114def6	9.304434
1	0x410e3459	8.88778
2	0x408cf1ec	4.4045315
3	0x3f3f9485	0.74836
4	0x410dea5b	8.869716
5	0xc0ad3ad9	-5.4134336
6	0xc1092345	-8.571111
7	0x41195dc5	9.585393
8	0xc0dab91a	-6.8350954
9	0xbfdca0c6	-1.7236564
10	0x410dc301	8.860108
11	0x40f91cc6	7.7847624
12	0x4110e33b	9.055476
13	0x3f3a3dd6	0.72750604
14	0x41176228	9.461464
15	0xc12b8a41	-10.721253
16	0xc1329287	-11.160773
17	0x4132c8a7	11.173987
18	0x3f9bff23	1.2187237
19	0x3fc53103	1.5405582
20	0x411d57e5	9.833959
21	0x410567ab	8.33781
22	0x4085e182	4.183778
23	0x3ef88042	0.48535353
24	0x410e816e	8.906599
25	0xc0a9b08c	-5.302801
26	0xc10c1967	-8.756202
27	0x411a91c8	9.660591
28	0xc0db93f7	-6.861812
29	0xbfd26868	-1.6438112
30	0x4119b1d7	9.605918
31	0x410ce67b	8.80627
32	0x40989386	4.768008
33	0x3f1ea6d5	0.61973315
34	0x4110f02d	9.058637
35	0xc09b92fe	-4.8616934
36	0xc1191074	-9.566517
37	0x412885ad	10.532636
38	0xc0c10bbc	-6.0326824
39	0xbffeb1be	-1.9897993
40	0x411d0ddf	9.8158865
41	0x4109c377	8.610221
42	0x409921c0	4.78537
43	0x3e65d0f8	0.22442997
44	0x410d1709	8.818124
45	0xc0ac3671	-5.3816457
46	0xc113ee85	-9.245732
47	0x4121bf1f	10.10916
48	0xc0c87b07	-6.265018
49	0xbfee851f	-1.8634375
50	0x41089e91	8.5387125
51	0x40e17c1f	7.0464015
52	0x4114aea9	9.292642
53	0xbf06f584	-0.5271838
54	0x410240dd	8.140836
55	0xc05e988d	-3.478061
56	0xc1016cf2	-8.089098
57	0x413e667d	11.900022
58	0xc10ae845	-8.681706
59	0x3f8bd779	1.0925132
60	0x41169739	9.41192
61	0x410446b6	8.267263
62	0x408a6975	4.325373
63	0x3d18df5a	0.03732238
64	0x4115f2f4	9.371815
65	0xc09c1c53	-4.8784575
66	0xc1118765	-9.095555
67	0x4120a074	10.039173
68	0xc0dd5e24	-6.917742
69	0xbfcfeef5	-1.6244799
70	0x411743e1	9.454072
71	0x41058e05	8.347173
72	0x40874979	4.227719
73	0x3ea1f443	0.3163167
74	0x410e0ce6	8.878149
75	0xc0b4cccb	-5.649999
76	0xc10b2beb	-8.698222
77	0x411bd8e7	9.740455
78	0xc0d9902f	-6.7988505
79	0xbf9a4c84	-1.2054601
80	0x41173813	9.45119
81	0x410571cc	8.340282
82	0x40765d39	3.8494399
83	0x3f21a566	0.63143003
84	0x4115e372	9.368029
85	0xc09e95c7	-4.9557834
86	0xc10ffe02	-8.999514
87	0x411eed17	9.932883
88	0xc0dc2838	-6.8799095
89	0xbfd3b96f	-1.6540965
90	0x411d92f6	9.848379
91	0x41043d91	8.265031
92	0x406a4cf9	3.660948
93	0x3d1c1e5b	0.038114887
94	0x410ebc08	8.920906
95	0xc09915f7	-4.7839313
96	0xc1120082	-9.125124
97	0x4121f545	10.12238
98	0xc0dbcbcc	-6.8686275
99	0xbfc9728e	-1.5738084

bias f4 [10]
0	0xc05f1079	-3.4853804
1	0xc0a29674	-5.080866
2	0xc0608ed0	-3.5087166
3	0xc05d32b2	-3.4562192
4	0xc058c64e	-3.3871036
5	0xc0b6a9ef	-5.708244
6	0xc05ea33c	-3.478713
7	0xc06e2587	-3.7210405
8	0xc05f6431	-3.4904902
9	0xc06677bc	-3.601058

weight f4 [10, 10]
0	0xbc94c55d	-0.018160516
1	0x3d7e0a19	0.06202135
2	0x3dfb7ec4	0.12280038
3	0x3e4d9944	0.20077997
4	0x3dcd868c	0.100354284
5	0x3e4064e1	0.18788482
6	0xbe552da4	-0.20818192
7	0x3e469527	0.19392835
8	0xbe98bebc	-0.2983302
9	0x3df824dc	0.12116405
10	0xbbb5d6f1	-0.0055493047
11	0x3e5b8108	0.2143594
12	0xbe8c4a1b	-0.27400288
13	0xbdc182a4	-0.09448746
14	0xbe470df6	-0.1943892
15	0xbc827d5a	-0.015928913
16	0x3e5a86ba	0.21340457
17	0x3d2470fe	0.04014682
18	0xbe11d737	-0.14242254
19	0xbd6bb3ef	-0.057544645
20	0xbde06f3a	-0.10958715
21	0xbd379dea	-0.044828333
22	0x3d24ad1d	0.040204156
23	0x3e9994c4	0.29996312
24	0x3d8af2aa	0.06784566
25	0xbe885ca5	-0.26633182
26	0xbe50fc02	-0.20408633
27	0x3e8cdf2b	0.27514014
28	0x3de02cea	0.10946067
29	0x3e3d96fc	0.18514627
30	0xbd33ff86	-0.043944858
31	0xbd77e413	-0.060520243
32	0x3e7822ab	0.24231975
33	0xbd02b327	-0.031909134
34	0xbe6f239f	-0.23353432
35	0xbe1f82c2	-0.15577224
36	0x3d3e1a81	0.046411995
37	0x3daf5448	0.08560997
38	0x3e93a8f4	0.28839839
39	0x3b893829	0.004187603
40	0xbdedf7e0	-0.11619544
41	0x3ce14ed6	0.027503412
42	0x3e948909	0.290108
43	0x3e839894	0.25702345
44	0xbe865164	-0.2623397
45	0xbe763770	-0.24044585
46	0xbb35d55c	-0.002774558
47	0xbe01efca	-0.12689129
48	0x3db5a528	0.08869392
49	0xbe691c4f	-0.22764705
50	0xbe82f5e0	-0.25578213
51	0x3cab6a23	0.020924633
52	0xbd9fbf21	-0.07800127
53	0x3dc3fdf1	0.0956992
54	0xbcad7843	-0.02117551
55	0x3e76187a	0.24032775
56	0x3ca1b33e	0.01973879
57	0xbe5a8993	-0.21341543
58	0xbd3bd6bd	-0.045859087
59	0x3deaf651	0.114727624
60	0x3dc956e9	0.0983103
61	0x3e11ed06	0.14250574
62	0xbe4d4355	-0.20045216
63	0x3dcad4bd	0.09903858
64	0x3e90de81	0.28294757
65	0x3e9abab7	0.30220577
66	0xbe8b7a95	-0.2724196
67	0x3c3177f8	0.010831825
68	0xbbffd54d	-0.00780741
69	0xbe200a10	-0.15628839
70	0xbe4f5e2c	-0.20250767
71	0x3df43487	0.11924081
72	0x3e5475d0	0.20748067
73	0x3e898c76	0.26864976
74	0xbd70b6d4	-0.05876811
75	0x3e8491db	0.2589253
76	0x3e62a0a8	0.22131598
77	0x3dc383c8	0.0954662
78	0x3e9b1418	0.30288768
79	0x3e38c71e	0.18044707
80	0xbd2ba2dc	-0.04190336
81	0xbb7edb7b	-0.0038888145
82	0x3e88f965	0.26752773
83	0xbd9628fc	-0.07332036
84	0xbcb24e87	-0.02176596
85	0xbe14882d	-0.14505072
86	0x3e484565	0.19557722
87	0x3e8a5405	0.27017227
88	0xbe51513d	-0.20441146
89	0x3dbfe735	0.09370271
90	0x3e2370fc	0.15961069
91	0x3e198c38	0.14994895
92	0x3e95d446	0.29263514
93	0x3b82b82c	0.00398924
94	0x3e2d3df7	0.16918169
95	0xbe56d199	-0.20978393
96	0xbe9d7313	-0.30751857
97	0x3db5924d	0.08865795
98	0x3e321e92	0.17394474
99	0xbd9514b3	-0.07279339

bias f4 [10]
0	0xbc1806f1	-0.009278999
1	0x3e6678b0	0.22506976
2	0xbe06064a	-0.13088337
3	0xbd7346ce	-0.059393696
4	0x3d7c6d8a	0.061627902
5	0x3e4fb65a	0.20284405
6	0xbcb8ae1b	-0.022543957
7	0x3e2b2834	0.16714555
8	0x3e85449d	0.2602891
9	0xbe259613	-0.1617053

weight f4 [10, 10]
0	0xbd0bdb96	-0.03414496
1	0xbe050b18	-0.12992513
2	0xbd0858a1	-0.033287648
3	0x3e98d3d0	0.298491
4	0x3bbd7389	0.005781595
5	0xbe40ec2f	-0.18840097
6	0x3e791423	0.24324088
7	0x3e21ed0d	0.15813084
8	0xbe18c800	-0.14920044
9	0xbdc71599	-0.09720916
10	0xbc80cee3	-0.015723651
11	0x3e60f3c4	0.21967989
12	0xbd0aea76	-0.033915006
13	0xbded97f6	-0.1160125
14	0xbd886b11	-0.06661046
15	0xbe5001dc	-0.2031321
16	0xbb2fd33a	-0.0026828782
17	0xbe721047	-0.23639022
18	0xbe95121a	-0.29115373
19	0xbe1d479f	-0.15359353
20	0x3e51c822	0.20486501
21	0x3e45b4bd	0.19307227
22	0xbe97dbc0	-0.29659843
23	0xbc9b07d9	-0.01892464
24	0xbe9e936f	-0.30971858
25	0x3e4264f9	0.1898383
26	0xbd591e3f	-0.05300736
27	0x3c78c5be	0.015183864
28	0x3d986fcf	0.07443201
29	0x3ea0bfbd	0.31396285
30	0x3e96283e	0.29327577
31	0x3d7322ea	0.05935947
32	0x3d7196e1	0.05898178
33	0xbdffa740	-0.12483072
34	0xbc8bc7c8	-0.017063037
35	0xbdd8cf72	-0.10586442
36	0xbe7ce939	-0.24698342
37	0xbe63d713	-0.22250013
38	0xbb5fbc70	-0.0034139417
39	0xbe10e39c	-0.14149326
40	0xbe2b8d3a	-0.16753092
41	0x3de0b7e1	0.10972572
42	0xbd006183	-0.031342994
43	0xbd74a5fa	-0.0597286
44	0xbaf44425	-0.0018636031
45	0x3e99a7ea	0.3001092
46	0xbe68f8e4	-0.22751194
47	0xbe85c736	-0.26128548
48	0xbe1eb820	-0.15499926
49	0x3e280ba0	0.16410685
50	0xbdc1c623	-0.0946162
51	0xbe896a20	-0.2683878
52	0xbe7b76d5	-0.2455705
53	0x3e19b73a	0.15011302
54	0xbe87405b	-0.26416287
55	0xbe20cfb0	-0.15704226
56	0xbcfca769	-0.030841546
57	0xbe5fa3cd	-0.21839829
58	0x3e5baf4f	0.21453594
59	0xbd6c514c	-0.05769472
60	0x3e890f9d	0.26769724
61	0xbe12b2af	-0.14325975
62	0x3daca5c0	0.08430052
63	0x3db46b1f	0.08809494
64	0x3d81b01a	0.06332417
65	0xbdf9a065	-0.12188796
66	0xbe3f2585	-0.18666656
67	0xbe0e5d82	-0.13902858
68	0xbe4c745f	-0.19966267
69	0x3e459ed7	0.19298874
70	0x3d29a5b1	0.04141778
71	0xbe397f0b	-0.1811487
72	0x3e2ef3e9	0.17085232
73	0x3e97dfc7	0.29662916
74	0x3e5f829e	0.2182717
75	0xbe0be0c6	-0.13659963
76	0xbe30c1e6	-0.17261466
77	0x3cb2cc8c	0.021826051
78	0xbe55aab0	-0.20865893
79	0xbe8e9729	-0.278497
80	0x3d056e2c	0.03257577
81	0xbb967d65	-0.004592585
82	0x3e844c91	0.25839666
83	0x3e3909d2	0.18070152
84	0xbe691d91	-0.22765185
85	0x3df977a9	0.121810265
86	0x3e61472b	0.21999805
87	0xbd1c9054	-0.03822358
88	0x3e2c6bb4	0.1683796
89	0xbe19538e	-0.1497328
90	0x3daa1f39	0.083067365
91	0x3dc3e3b2	0.09564914
92	0xbe8c7ed4	-0.27440512
93	0xbe959ad9	-0.29219702
94	0xbd42cfba	-0.047561385
95	0x3d3b7c57	0.045772877
96	0x3d87db39	0.0663361
97	0xbd5c64b0	-0.05380696
98	0xbde6fc7f	-0.112786286
99	0x3d9e1dfc	0.07720563

bias f4 [10]
0	0xbe997e47	-0.29979154
1	0x3dffb39f	0.12485432
2	0xbdb8cc8b	-0.090233885
3	0x3e6e915d	0.23297639
4	0x3e78a85d	0.24282975
5	0x3da753db	0.08170291
6	0x3e26a6cd	0.16274567
7	0x3e9b18ae	0.30292267
8	0xbd57a799	-0.052650068
9	0x3e9d4d04	0.3072282

weight f4 [1, 10]
0	0xc2ac2330	-86.068726
1	0xc2ac01a9	-86.00324
2	0xc2ac5704	-86.16995
3	0xc2ac2cde	-86.08763
4	0xc2ac6ee1	-86.21656
5	0xc2abe262	-85.942154
6	0xc2ac3af8	-86.11517
7	0xc2ac420c	-86.129
8	0xc2ac0bd6	-86.02312
9	0xc2ac4268	-86.1297

weight f4 [10, 2]
0	0xbebe6cd0	-0.37192392
1	0x3f3205d6	0.69540155
2	0xbf103652	-0.56332886
3	0xbf0418f6	-0.5160059
4	0xbf0e11ec	-0.55496097
5	0x3e6494bb	0.22322361
6	0x3e331e19	0.1749195
7	0x3f1d8ca6	0.6154274
8	0x3f3e9208	0.74441576
9	0xbd4f4f0c	-0.050612494
10	0x3f2e1733	0.6800415
11	0xbd1ca49c	-0.03824292
12	0xbea8e8d4	-0.32990134
13	0xbe58508f	-0.2112448
14	0x3d28af02	0.041182525
15	0xbe332700	-0.17495346
16	0xbec6651b	-0.38749012
17	0xbecfbc27	-0.40573236
18	0x3efc632c	0.49294412
19	0xbe8da8a7	-0.27667734

bias f4 [10]
0	0x3f0cc2a4	0.549845
1	0xbeb86612	-0.36015373
2	0x3ed4e518	0.41581035
3	0x4084b4e6	4.1470823
4	0xc0b25ce0	-5.5738373
5	0xc0cfa316	-6.488658
6	0xbf0b0889	-0.543099
7	0x40b0e2a9	5.5276685
8	0x3f11e91c	0.5699632
9	0x40c83e8f	6.2576365

weight f4 [10, 10]
0	0x3e53e359	0.20692195
1	0xbe3e359f	-0.18575142
2	0xbe9e15a6	-0.3087589
3	0xbefd803e	-0.49511904
4	0x3ee9f8ef	0.45697734
5	0x3f0e54a8	0.55597925
6	0xbda97999	-0.08275146
7	0xbfb43f54	-1.4081826
8	0x3e358cb0	0.1772945
9	0xbf272eff	-0.65306085
10	0xbe2e9c8e	-0.17051908
11	0xbbce806e	-0.006301931
12	0x3d5e6670	0.05429691
13	0x3eab0fb0	0.33410406
14	0xbd1ce519	-0.038304422
15	0x3d99cb80	0.07509518
16	0xbbc8886a	-0.0061197774
17	0x3ee1e1fd	0.44117728
18	0x3e9ae334	0.30251467
19	0x3e9c4883	0.30524072
20	0xbe669b51	-0.22520186
21	0xbdc7a0d1	-0.0974747
22	0x3e8e0f84	0.27746212
23	0x3c8b77f4	0.017024972
24	0x3f078ca2	0.52948964
25	0x3f36f283	0.71463794
26	0x3d5613b2	0.052264877
27	0xbfb4d2f9	-1.4126884
28	0xbe99c74f	-0.30034873
29	0xbf500ca3	-0.8126928
30	0x3d8f8be1	0.07009102
31	0x3c37c979	0.011217468
32	0x3e8d0cb7	0.27548763
33	0xbf2316cd	-0.63706666
34	0x3f1a0b8d	0.60173875
35	0x3f24265e	0.64121044
36	0xbdbb43b7	-0.09143775
37	0xbfaf9aa3	-1.3719066
38	0xbd142528	-0.036168247
39	0xbf4ffa9f	-0.8124179
40	0x3ca33fdf	0.019927917
41	0xbe623612	-0.22090939
42	0x3dc04984	0.09389022
43	0xbf231a73	-0.63712233
44	0x3f326078	0.6967845
45	0x3efc6738	0.492975
46	0x3d6a41e8	0.05719176
47	0xbfc40c01	-1.5316163
48	0xbdfaeab2	-0.12251796
49	0xbf3cd41d	-0.7376116
50	0x3e9839b7	0.29731533
51	0x3d0d9a4c	0.034570977
52	0xbe49fd90	-0.19725633
53	0xbf169867	-0.588263
54	0x3ed01a5a	0.40645105
55	0x3ef7dee5	0.48412243
56	0xbd8e531c	-0.069494456
57	0xbfbad0a4	-1.4594922
58	0x3d28f056	0.041244827
59	0xbf020a06	-0.50796545
60	0x3e4d3bb6	0.20042309
61	0x3d3ca0f8	0.04605195
62	0x3db5fd39	0.08886189
63	0xbf36eb21	-0.7145253
64	0x3f25e81c	0.64807296
65	0x3f3d6599	0.7398315
66	0xbdd0b452	-0.10190643
67	0xbfe01ea8	-1.7509356
68	0xbe6e0049	-0.23242296
69	0xbf5dd84b	-0.8665816
70	0x3ea032a5	0.3128864
71	0x3e7b4872	0.24539354
72	0x3e9c7086	0.305546
73	0xbf11158a	-0.5667349
74	0x3ef4efaf	0.47839114
75	0x3ef76ec5	0.48326698
76	0xbe24696c	-0.1605584
77	0xbf97e747	-1.1867455
78	0xbd468f85	-0.048476715
79	0xbf218981	-0.6310044
80	0xbe295800	-0.16537476
81	0xbe6038cb	-0.21896665
82	0xbe98cc5b	-0.2984341
83	0x3e8f35cb	0.27970728
84	0xbee71def	-0.45140025
85	0xbf47aa97	-0.77994674
86	0xbe8830bb	-0.26599678
87	0x3f4b41b0	0.79397106
88	0xbe999f1a	-0.30004197
89	0x3df64022	0.12023951
90	0x3e706113	0.23474531
91	0x3e24c780	0.16091728
92	0xbdee7b45	-0.116446055
93	0x3cb595b8	0.022166118
94	0x3fa6b7f4	1.3024888
95	0x3fb933fc	1.4468989
96	0xbe83e021	-0.25756934
97	0xc0112f35	-2.2685063
98	0xbd0802d0	-0.033205807
99	0xbf744436	-0.9541658

bias f4 [10]
0	0xc02fb78f	-2.7455785
1	0x3f0866a9	0.53281647
2	0xbf5a51e2	-0.85281193
3	0xc07acd18	-3.918768
4	0xc07beabe	-3.9362025
5	0xc0380229	-2.8751318
6	0xc08d1796	-4.409129
7	0xc04c3e0e	-3.1912875
8	0x3ff38d45	1.9027487
9	0xc087fef4	-4.249872

weight f4 [10, 10]
0	0x40e334eb	7.1002097
1	0x4080e173	4.0275207
2	0xc106ed4f	-8.432937
3	0x4125ebe6	10.370092
4	0x412ad734	10.67754
5	0x40b4d967	5.6515384
6	0x41521665	13.130467
7	0x40c3ebf9	6.1225553
8	0xbff5ee4d	-1.9213349
9	0xc100fa28	-8.061073
10	0x40ed2798	7.411083
11	0x41163b08	9.389412
12	0xc10e60a7	-8.898597
13	0x41341d30	11.257126
14	0x412f1485	10.94251
15	0x40b08bf6	5.517085
16	0x41673aaa	14.451822
17	0x40ca153e	6.315093
18	0xc1021c3f	-8.131896
19	0xc1133822	-9.201204
20	0x40e65d3b	7.1988807
21	0x41183194	9.512104
22	0xc10f5fe8	-8.960915
23	0x413139b9	11.076592
24	0x41388fae	11.535078
25	0x40ad0541	5.4068913
26	0x416bf1f8	14.746574
27	0x40c1979e	6.049758
28	0xc0f83b29	-7.7572217
29	0xc1128c14	-9.159199
30	0x40e826ae	7.2547216
31	0x40d42b8d	6.6303163
32	0xc11159e2	-9.084444
33	0x41327a8c	11.154919
34	0x41335567	11.20835
35	0x40b523be	5.660613
36	0x41644292	14.2662525
37	0x40c7f32a	6.248433
38	0xc0baeef4	-5.841669
39	0xc118b89a	-9.545069
40	0x40df590e	6.979621
41	0x406ca070	3.6972923
42	0xc10b1e9d	-8.694974
43	0x4127e9a3	10.49454
44	0x412eaaf8	10.91674
45	0x40bbd342	5.8695383
46	0x415b90a4	13.722813
47	0x40c629d9	6.1926084
48	0xc044619c	-3.0684576
49	0xc10e930d	-8.910901
50	0x40e55434	7.1665287
51	0x412a707e	10.652464
52	0xc110151f	-9.0051565
53	0x4137705f	11.464934
54	0x413611ef	11.379378
55	0x40a934e0	5.2877045
56	0x41628af5	14.158925
57	0x40d33760	6.6005096
58	0xc1092e69	-8.573831
59	0xc109e41c	-8.618191
60	0x40e972f5	7.295283
61	0x4115dc66	9.366308
62	0xc11398b5	-9.224782
63	0x4138a5d7	11.540488
64	0x412f5b50	10.959793
65	0x40ab0ea3	5.3455367
66	0x4166e359	14.430505
67	0x40c5ef05	6.185427
68	0xc0fe7e8c	-7.9529476
69	0xc1110570	-9.0638275
70	0x40eb44ef	7.3521647
71	0x406da5ff	3.7132566
72	0xc107edc2	-8.495546
73	0x41285fe9	10.523416
74	0x411ebf10	9.921646
75	0x40b0c0c5	5.5235314
76	0x414a58d7	12.646689
77	0x40c8ea97	6.2786365
78	0xbf323e42	-0.6962625
79	0xc0e8a4f5	-7.2701364
80	0x40ee2f53	7.443277
81	0x41044cf3	8.268786
82	0xc10f3e5f	-8.952727
83	0x41320ecf	11.128615
84	0x4131c1fe	11.109861
85	0x40ad940a	5.424321
86	0x41628e7d	14.159787
87	0x40d1ad18	6.5523796
88	0xc0eaa2ff	-7.332397
89	0xc1179add	-9.475308
90	0x40f587b5	7.672816
91	0x410c02a0	8.750641
92	0xc110ec46	-9.057684
93	0x413096cb	11.036815
94	0x41320d73	11.1282835
95	0x40b5833a	5.672269
96	0x41628b42	14.1589985
97	0x40cce9d4	6.4035435
98	0xc0f38e27	-7.6111026
99	0xc1155498	-9.333153

bias f4 [10]
0	0xc0ecf1cb	-7.4045157
1	0xc0f7318f	-7.7247996
2	0xc0facb22	-7.8372965
3	0xc0ec9989	-7.393742
4	0xc0e746f7	-7.2274127
5	0xc0f152ab	-7.5413413
6	0xc0ebe2e5	-7.371447
7	0xc0ea6f62	-7.3260965
8	0xc0ef78fd	-7.483519
9	0xc0f412b4	-7.627283

weight f4 [10, 10]
0	0xbe1640fd	-0.14673229
1	0xbe849a3c	-0.2589892
2	0x3c2de663	0.0106140105
3	0xbd44b519	-0.04802427
4	0x3d7e818d	0.062135268
5	0xbe7b83fa	-0.24562064
6	0x3e5a9b67	0.21348344
7	0xbb7b91ae	-0.0038386392
8	0xbe7d0fb9	-0.24713029
9	0xbe76b0d9	-0.240909
10	0xbdb4e6a1	-0.088330515
11	0xbe94d155	-0.29065958
12	0x3cb151a0	0.021645367
13	0x3e950905	0.29108444
14	0x3e126033	0.1429451
15	0x3ea15fb4	0.31518328
16	0x3e188fc5	0.14898594
17	0xbe45fafd	-0.19334026
18	0xbe08c747	-0.13357268
19	0xbe1f16c9	-0.15536036
20	0xbcf03477	-0.029321892
21	0x3dfd9193	0.12381282
22	0x3d08ca27	0.033395912
23	0x3e32c15c	0.17456573
24	0x3dd73a61	0.10509182
25	0xbd15f811	-0.036613528
26	0x3e09db07	0.13462459
27	0x3de71ee3	0.11285188
28	0x3ea0f8f3	0.31439933
29	0xbdc5debf	-0.09661626
30	0x3a5bc4b7	0.00083835
31	0xbe5cb9b6	-0.21555218
32	0x3ca51170	0.020149916
33	0x3e119cdf	0.14219998
34	0x3c592d96	0.013255497
35	0xbea0f406	-0.31436175
36	0xbe723325	-0.23652323
37	0x3e8c0bd7	0.27352783
38	0xbe9a4269	-0.30128792
39	0x3e5f75fa	0.21822348
40	0x3e6c9c20	0.23106432
41	0x3d34b598	0.044118494
42	0x3e206f9a	0.15667573
43	0x3db64ff5	0.08901969
44	0xbe8f435a	-0.27981073
45	0xbdc30fdd	-0.0952451
46	0xbd8e902a	-0.06961091
47	0x3ccdccbb	0.025122037
48	0x3e1289bc	0.14310354
49	0xbe4ec56a	-0.20192495
50	0xbdacef88	-0.084441245
51	0xbe583a3d	-0.21115966
52	0xbd497656	-0.04918512
53	0xbe75eb26	-0.24015483
54	0xbdbfe84c	-0.09370479
55	0x3e636b78	0.22208965
56	0xbbe73b4f	-0.0070566307
57	0xbd76fe56	-0.060301147
58	0xbe9d5de0	-0.30735683
59	0x3e59aba9	0.2125689
60	0xbcb79ef1	-0.022414656
61	0xbe84b65d	-0.25920382
62	0xbd5a5065	-0.053299326
63	0xbde4ee1e	-0.1117823
64	0xbe4e5576	-0.20149788
65	0xbe34c014	-0.17651397
66	0xbdceace6	-0.100915715
67	0xbe1a3698	-0.15059888
68	0xbe8f6994	-0.28010237
69	0x3ce92432	0.028459642
70	0x3e6e4703	0.23269276
71	0xbe840d9d	-0.25791636
72	0x3d882b72	0.066489115
73	0x3e2cdd1a	0.16881219
74	0xbd5222cf	-0.051302727
75	0xbd9381e7	-0.07202511
76	0x3e7d15f1	0.24715401
77	0x3df79ea4	0.12090805
78	0xbda7e881	-0.081986435
79	0xbe8f3ecd	-0.279776
80	0xbe0f1dbc	-0.13976187
81	0xb9c1d3ee	-0.00036969729
82	0xbe93bb98	-0.2885406
83	0xbcf73ddb	-0.030180862
84	0xbe274325	-0.16334207
85	0x3e3b2415	0.18275483
86	0x3e107e8e	0.14110777
87	0xbd825c35	-0.06365243
88	0xbc96b837	-0.018398387
89	0xbe24159a	-0.16023865
90	0x3c978952	0.018498097
91	0x3e4d0536	0.20021519
92	0xbe728ebe	-0.23687264
93	0x3e80d16b	0.25159773
94	0x3e344dcd	0.17607804
95	0xbde27146	-0.110567614
96	0x3b71bb3e	0.0036885287
97	0x3e1ff627	0.15621243
98	0x3e0ae1dd	0.13562723
99	0xbe5080dd	-0.20361657

bias f4 [10]
0	0x3d369563	0.04457606
1	0xbe27dd35	-0.16392978
2	0xbe0007f1	-0.1250303
3	0x3e93634c	0.28786695
4	0xbd612569	-0.054967318
5	0xbd95bf80	-0.07311916
6	0xbd357b14	-0.04430683
7	0xbdac9c07	-0.08428197
8	0x3d57ed9a	0.05271683
9	0x3e857ccc	0.26071775

weight f4 [10, 10]
0	0xbe7c2a7b	-0.2462558
1	0x3d014306	0.03155806
2	0x3da7a6e3	0.08186128
3	0xbe1ddf06	-0.15417108
4	0x3dc7ecb6	0.09761946
5	0x3e475181	0.19464685
6	0x3e1410ed	0.14459582
7	0x3e9aadfb	0.30210862
8	0xbc69b22f	-0.014263674
9	0x3e480dc7	0.19536506
10	0x3e6aa92d	0.22916098
11	0xbc2013f5	-0.009770383
12	0xbe18e95c	-0.1493277
13	0x3e3659fd	0.17807765
14	0x3d452c28	0.048137814
15	0xbe2879fd	-0.16452785
16	0x3e8991f6	0.26869172
17	0xbd8bcd0f	-0.06826221
18	0x3d31008e	0.04321342
19	0xbb426607	-0.0029662864
20	0xbe928bc5	-0.2862226
21	0x3c344ddf	0.011004894
22	0x3dc60bfd	0.09670255
23	0x3ea0d382	0.31411368
24	0x3e9e8cc2	0.30966765
25	0x3ce2f49b	0.027704528
26	0x3e1f8065	0.15576322
27	0x3e93ba2f	0.28852984
28	0x3de2dec4	0.110776454
29	0xbd12501d	-0.035720933
30	0xbe1177b6	-0.14205822
31	0x3e1bacf8	0.15202701
32	0x3e949e00	0.29026794
33	0x3ddbc9fe	0.10731886
34	0xbe68fd4d	-0.22752877
35	0xbe882f0c	-0.26598394
36	0x3e407335	0.18793948
37	0xbe3c2314	-0.18372756
38	0x3a7af9e4	0.000957398
39	0x3e5fa95d	0.2184195
40	0x3da251e9	0.07925779
41	0x3e00bcc1	0.12572004
42	0x3e91461d	0.28373805
43	0xbe83a745	-0.25713554
44	0xbc526bd2	-0.012843089
45	0xbe6176f3	-0.22018032
46	0x3e5fdce1	0.21861602
47	0x3c120613	0.008912581
48	0x3e0bcd44	0.13652521
49	0x3e05fb66	0.13084182
50	0x3e7e8d09	0.24858488
51	0x3e8f2642	0.27958876
52	0x3e0647a3	0.13113265
53	0x3e991c3c	0.29904354
54	0xbe8409cc	-0.25788724
55	0xbe3f0722	-0.18655065
56	0xbe9d8e80	-0.3077278
57	0x3da8b9d4	0.08238569
58	0x3e880d7e	0.26572794
59	0x3d75befc	0.05999659
60	0xbe9f8fc1	-0.31164363
61	0x3d7dee59	0.061994884
62	0x3d00fd04	0.031491295
63	0x3e2c03e2	0.16798356
64	0xbc9f3b43	-0.019437438
65	0xba676b60	-0.0008827951
66	0xbe06330b	-0.13105409
67	0x3e3b600c	0.18298358
68	0xbe088791	-0.13332964
69	0xbdd6c3e5	-0.10486583
70	0x3e33ecfc	0.17570871
71	0xbd1ee461	-0.038792018
72	0xbd23b98a	-0.039971866
73	0x3e8d6559	0.27616385
74	0xbe448c44	-0.19194132
75	0xbe4d3e9b	-0.20043413
76	0x3e92efc1	0.28698543
77	0xbe5e1b71	-0.21690156
78	0x3e4c45ad	0.19948454
79	0x3db6fd22	0.08935
80	0xbe6472b8	-0.22309387
81	0xbd17d4dc	-0.037068233
82	0xbe1d8cab	-0.15385692
83	0xbd69111a	-0.056901075
84	0x3dcc6baf	0.099814765
85	0x3e5f2b52	0.21793869
86	0xbe796ad5	-0.2435716
87	0xbe9cafbc	-0.30602825
88	0x3e8f88d0	0.28034067
89	0xbe89ed15	-0.26938692
90	0xbe9c8532	-0.3057037
91	0xbe1ce9be	-0.1532354
92	0x3e524a0b	0.20536058
93	0x3d220053	0.03955109
94	0xbe7894b5	-0.24275477
95	0x3e874b31	0.26424554
96	0x3e77f83e	0.2421579
97	0xbe44773f	-0.19186114
98	0xbdc4c28f	-0.096074216
99	0xbda4411f	-0.08020233

bias f4 [10]
0	0x3e27ee41	0.1639948
1	0xbd700017	-0.058593836
2	0x3e9ab9c0	0.3021984
3	0xbe969d29	-0.2941678
4	0x3ddae6b9	0.10688538
5	0x3e55f4d3	0.20894174
6	0x3d8ace47	0.067776255
7	0x3e8a864a	0.2705558
8	0x3c461e08	0.012092121
9	0x3d8b7859	0.06810064

weight f4 [1, 10]
0	0xc2abec69	-85.96174
1	0xc2ac12ba	-86.036575
2	0xc2ab9c92	-85.8058
3	0xc2ac2853	-86.07876
4	0xc2ab9142	-85.78371
5	0xc2ab9e89	-85.80964
6	0xc2abf1b9	-85.972115
7	0xc2ab91bf	-85.78466
8	0xc2ac1747	-86.04546
9	0xc2ac2ce4	-86.08768

weight f4 [10, 2]
0	0xbf307862	-0.6893369
1	0x3e0045f3	0.12526684
2	0xbe5f00ff	-0.21777724
3	0x3d4e516e	0.050370626
4	0x3e0afd49	0.13573183
5	0x3f309d63	0.68990153
6	0x3f511af4	0.8168175
7	0xbe6fa905	-0.2340432
8	0xbed060eb	-0.40698943
9	0xbe456d79	-0.19280042
10	0xbe737459	-0.23774852
11	0x3ed5c17e	0.41749185
12	0x3e966368	0.29372716
13	0x3efdb69f	0.4955339
14	0xbde6f5e2	-0.11277367
15	0xbecadd12	-0.39621788
16	0x3f0c8649	0.548924
17	0x3fddbbed	1.7322975
18	0x3ee5f7cf	0.44915625
19	0xbff4b78e	-1.9118516

bias f4 [10]
0	0xbf088159	-0.5332237
1	0xbbc9f41d	-0.006163134
2	0x40fd6614	7.9187107
3	0xc0bcb1d7	-5.896709
4	0xbf035356	-0.51299036
5	0x3e9f21bc	0.31080425
6	0x40f3b58c	7.6159115
7	0xbb7e1556	-0.0038770041
8	0xc10b6b33	-8.713672
9	0x41203973	10.014026
