models/model_omnet_obst.pth (torch, 14215 bytes, 22 tensors)

weight f4 [10, 2]
00000000: e49b 2d3e 6794 f7c0 6238 05bf 8ecd b13e
00000010: af46 323e bb69 4cc0 860a 323f 66c6 4840
00000020: 2fe0 83be cafc fd3e a1ea 093f 1cab 363f
00000030: 431c 71be d41a 29c1 918e 013e 9ef5 55be
00000040: cb7b 363e ef09 c4be 3c43 313e 3751 47bf
0.16953999 -7.7368655 -0.5203916 0.34727138 0.17409776 -3.1939533 0.6954731 3.1371093
-0.25756976 0.49606925 0.5387364 0.7135484 -0.23545937 -10.56905 0.12652041 -0.20894477
0.17820661 -0.3828883 0.17310804 -0.778583

bias f4 [10]
00000000: 28f7 8140 c950 343f e760 9ec0 ce0a 7940
00000010: 8840 cfbe b8bc 9840 e3c1 57c0 cd47 a940
00000020: 7d9a b2c0 3c0d afc0
4.0614204 0.7043577 -4.949329 3.8912845 -0.4047892 4.773037 -3.371209 5.2900147
-5.5813584 -5.4703655

weight f4 [10, 10]
00000000: 63f3 94bf ee3b 4f3e 8779 c93f 488c 53bd
00000010: c586 593e 993d e2be 3939 31c0 5189 c7bf
00000020: 1255 5140 d647 4140 bb97 d2bf 79ff f8bd
00000030: 1b90 0d40 3878 61be ffb3 6f3c be19 f1be
00000040: fbf3 22c0 2f36 efbf 0fab 8840 093f 8540
00000050: 7953 8e3f c7d6 5bbd 2511 8c40 7876 8cbf
00000060: 5804 9d3c f69c 75bf dbed 62c0 c928 eabf
00000070: de06 6840 93cf 6740 cfae 813f 27f5 923e
00000080: ca4c 2440 8466 48bf 25cb 5c3e cfbc fcbe
00000090: e979 4f40 898f 81bf 82e1 dc3f 6926 f63f
000000a0: 24d1 883f 6de9 d33c e3cc 403f f2f1 3abf
000000b0: d9a7 f33d 8e96 62bf 6fa0 dd40 9198 6abf
000000c0: 0578 aa3f 497a af3f 0035 06c0 78a3 a4bb
000000d0: 34a4 17c0 c175 fc3f 8c15 8fbe b81f 7d3f
000000e0: 087f 2641 3686 6cbf 1ef4 66c0 3921 6bc0
000000f0: ddc0 1bbe 362d 56be a577 7a3f c51c a3bd
00000100: 37a1 a73d f49c 09bf 96c0 00c1 5aea 53bf
00000110: 6436 3b40 cc35 1b40 31a9 2740 a0fa 8cbe
00000120: 0361 b340 a3fa aebd a026 9a3e b07d 783d
00000130: 527f 1940 4ed2 bdbd 13cc 5ebf 512b 17bf
00000140: a336 5f3f e161 e9bd 540c 4f40 12a8 79bf
00000150: ec3f 9bbd 9f05 4dbf 6450 35c0 4f5c 97bf
00000160: 6018 4840 5110 5340 f52e 82bf 9f1b 013e
00000170: 5532 7a3f 0112 b0be ddb5 203d d7ee 82be
00000180: dd44 05c0 6ec8 90bf 41e0 5640 5baa 5f40
-1.1636776 0.20237705 1.5740212 -0.051647455 0.21242817 -0.4418762 -2.7691176 -1.5588781
3.2708173 3.0200095 -1.6452554 -0.121581025 2.2119205 -0.22018516 0.014630317 -0.47089952
-2.5461414 -1.868841 4.270881 4.1639447 1.1119224 -0.053671625 4.377093 -1.0973654
0.01916711 -0.9594263 -3.5457675 -1.8293697 3.6254191 3.6220443 1.0131472 0.2870266
2.5671868 -0.78281426 0.21561868 -0.493628 3.2418158 -1.0121928 1.725632 1.9230472
1.0688825 0.025868142 0.7531263 -0.7302543 0.11897249 -0.8851098 6.925834 -0.9163905
1.3317877 1.3709193 -2.0969849 -0.00502437 -2.3693972 1.9723436 -0.27946126 0.98876524
10.4060135 -0.9239229 -3.6086497 -3.6739028 -0.1521029 -0.20915684 0.97838813 -0.07964472
0.08185046 -0.53755116 -8.047018 -0.8277947 2.9251947 2.4251585 2.6197016 -0.27534962
5.6055923 -0.08543899 0.30107594 0.06066674 2.398396 -0.09268628 -0.8703014 -0.5905047
0.87192744 -0.11395622 3.2351274 -0.9752208 -0.075805515 -0.800867 -2.8330317 -1.1825045
3.1264877 3.2978709 -1.017058 0.12608193 0.9773305 -0.34388736 0.03923594 -0.25572845
-2.082328 -1.1311166 3.3574374 3.4947727

bias f4 [10]
00000000: af0d 9fc0 ebc8 c0c0 c153 c7c0 097a 30c0
00000010: 2f33 233f b0d5 c3bf f7a2 67c0 5087 5bbd
00000020: cbb6 7ac0 9736 82c0
-4.9704204 -6.024526 -6.228974 -2.7574484 0.63749975 -1.5299587 -3.6193216 -0.05359584
-3.9174068 -4.069164

weight f4 [10, 10]
00000000: 7139 5b41 3a54 4a41 213e 3741 27a1 b240
00000010: 51ff aac1 1b52 63c1 4904 3641 b9b0 38c1
00000020: 8b91 2741 d417 8d41 f695 6141 6f01 ba41
00000030: 92b9 6241 9874 1e41 a283 f5c0 5766 1fc1
00000040: 45ae 9741 816f 5fc1 a090 b9c0 e1f2 c8c0
00000050: ede4 5c41 c4f1 4f41 0539 3941 7143 b240
00000060: 6ed9 abc1 6709 62c1 7996 3541 e5d3 37c1
00000070: 158f 2641 18c8 8841 95b5 5941 b19c 4e41
00000080: b397 3b41 2ce1 b040 7ff6 adc1 9f83 62c1
00000090: 4f7f 3241 13fc 37c1 a41b 2841 3e9f 8c41
000000a0: 828e 7fc0 215b bf41 8015 1f41 acb4 5ac1
000000b0: 61e3 99c1 14c0 9cc1 90ea 0541 78a2 cac0
000000c0: a78f 6a41 6dab 4c41 67f7 6141 75df 1a41
000000d0: ce94 2041 f2eb 1740 5f0e 85c1 806b 7ec1
000000e0: 9c34 6f41 95c3 18c1 ddc5 f340 ed62 8441
000000f0: 616b 5741 4f9a 5141 90e1 3a41 9a61 b140
00000100: fc97 adc1 80f1 61c1 c5b4 3241 31e9 37c1
00000110: e018 2841 18cd 8b41 fa96 5e41 887b 4e41
00000120: f076 3c41 4833 b640 b76f afc1 2790 61c1
00000130: a454 3041 7165 3ac1 bae7 2941 9c81 8c41
00000140: fb5c 5941 4ceb 3241 aa63 3241 599f 9640
00000150: 013f a1c1 22c2 66c1 fbf2 4541 e5a7 35c1
00000160: 96d6 1941 e43c 8b41 9b8b 5c41 224f 4b41
00000170: ae02 3c41 0694 b240 b957 aec1 2ac9 62c1
00000180: 933a 3241 f930 38c1 2744 2841 79c3 8d41
13.701524 12.645563 11.452668 5.582172 -21.374666 -14.207545 11.376046 -11.543145
10.473033 17.636635 14.099112 23.2507 14.170305 9.903465 -7.6723185 -9.962485
18.960093 -13.964723 -5.7989044 -6.2796483 13.80589 12.996525 11.576421 5.5707326
-21.481167 -14.1272955 11.3492365 -11.489232 10.409932 17.097702 13.606832 12.913255
11.724536 5.527487 -21.74536 -14.157134 11.156081 -11.499042 10.506748 17.577755
-3.993073 23.919497 9.942749 -13.669109 -19.236025 -19.593788 8.369766 -6.3323326
14.660071 12.791852 14.122901 9.679555 10.036329 2.373776 -16.632017 -15.901245
14.950344 -9.5477495 7.617903 16.548304 13.463716 13.100173 11.680069 5.5431643
-21.699211 -14.12146 11.169133 -11.4944315 10.506073 17.475143 13.9118595 12.905159
11.779037 5.69376 -21.929548 -14.097693 11.020664 -11.649766 10.619074 17.563286
13.5852 11.182446 11.149332 4.7069516 -20.155764 -14.422396 12.371821 -11.35349
9.614889 17.404732 13.784083 12.70682 11.750654 5.5805693 -21.792833 -14.174112
11.1393 -11.511956 10.516639 17.720446

bias f4 [10]
00000000: 1940 12c1 c192 00c1 67ab 12c1 2df2 11c1
00000010: e873 2940 9b6b fcc0 d527 12c1 0049 12c1
00000020: deea 06c1 efb8 12c1
-9.140649 -8.035829 -9.166846 -9.121625 2.6476994 -7.8881354 -9.134725 -9.142822
-8.432341 -9.17015

weight f4 [10, 10]
00000000: 1e0d 9dbd 751f 60be 9894 42be 3607 7ebd
00000010: 19a9 5d3d 6f14 92be 1e03 ea3d 2f89 24be
00000020: 6eab 40be a59a 82be 9b12 7bbe 7ee8 ffbd
00000030: 26d4 713e 79d4 9dbe 64ef 5c3c beb5 633e
00000040: 97de c2bd 45c9 583e f5d8 ff3d 1b89 bebd
00000050: 0fec 00ba a8f6 5e3e dfc9 843d 0136 87be
00000060: 2b80 d7bd 6bef 773e 5a54 313e 9a74 7dbd
00000070: 077d 3e3e 7968 733e e23a 9dbe 3578 82be
00000080: 9a36 b03c e3da 473d c32e 7ebe 0d4a a1be
00000090: 6f40 60be 84ae 17bd f280 8e3e c20e 103d
000000a0: d330 02be 0884 273e 9344 623e 422b 5fbe
000000b0: 7f39 833e f905 10be dcc8 083e f567 d7bd
000000c0: 6207 6dbe 17b4 84bd 3b48 033e 1a1f 09be
000000d0: 6700 823d 12e4 29bb 9c37 0e3e 4054 933c
000000e0: cb3a a3bd 5bd8 c7bc 6689 2cbe 803b a0be
000000f0: c2b9 933e c6e7 c7bc d1c3 4b3e 4a2c fe3c
00000100: 7369 473e 95ca 943b 7c05 2cbe a7f4 36bd
00000110: c62d 013e 0cf6 913d 95b3 423d 72a0 8b3e
00000120: af06 65bc d653 713e ad71 723e c116 983c
00000130: 3c89 8dbe 3ee3 09bd 3460 f33d 072c 0b3e
00000140: 3157 23bd 337f 543e cdda 8abe 4418 373d
00000150: 3aad 65be 8600 68be 718b ffbd 2f0f 0b3e
00000160: 878c 28bd f484 113e 9db0 cbbd 58b5 05be
00000170: cbd3 b4bd 4c7b 3c3a 743b 6d3e e5ab ec3d
00000180: 3815 58be 34ec 5b3d a4a2 3ebd a3c2 973c
-0.076685175 -0.21887 -0.19001997 -0.062018596 0.054116342 -0.28531215 0.11426376 -0.16067956
-0.18815395 -0.2550861 -0.24518816 -0.12495516 0.23616084 -0.30826166 0.01348481 0.22237298
-0.09515112 0.21170528 0.12492553 -0.093034945 -0.0004917988 0.2177378 0.06483816 -0.2640839
-0.10522493 0.24212424 0.17317334 -0.061878778 0.18602382 0.23770322 -0.30708987 -0.25482336
0.021510411 0.04879273 -0.24822526 -0.3150181 -0.2189958 -0.037031665 0.27832752 0.035170324
-0.12713937 0.1635896 0.22096471 -0.21793845 0.25629804 -0.14064778 0.13357872 -0.10517875
-0.23147348 -0.06479662 0.12820522 -0.1339077 0.06347733 -0.0025923294 0.13888401 0.01798451
-0.07970198 -0.024395159 -0.16849288 -0.31295395 0.2885266 -0.02440251 0.19898917 0.031026978
0.1947382 0.004540751 -0.16798967 -0.044666912 0.12615117 0.07127008 0.047534544 0.27270848
-0.013978644 0.23567137 0.23676176 0.018565537 -0.27643764 -0.03366398 0.11883584 0.13591014
-0.039878074 0.20751648 -0.27120057 0.044700876 -0.22429362 -0.2265645 -0.12477768 0.13580011
-0.041149642 0.14210874 -0.09945796 -0.13057458 -0.08829459 0.00071900035 0.23167211 0.11556224
-0.21101844 0.053692058 -0.046541825 0.018525427

bias f4 [10]
00000000: 1be5 ee3d 8379 40be 13d1 3fbe 4134 8e3e
00000010: 7a81 503e caca 763d 42b5 68be 73b7 71bb
00000020: 7995 543e 86b7 3d3a
0.11664792 -0.18796353 -0.18732099 0.27774242 0.20361891 0.06025199 -0.22725394 -0.0036883026
0.20760144 0.0007237125

weight f4 [10, 10]
00000000: dfed 8bbe f35e 1e3e bd2a 49be 469a 983e
00000010: b0b2 61bd 336b fbbd 2ba5 7ebd e884 99be
00000020: 26ba a9bd b0a7 1c3d 1bf3 15be 472b cabd
00000030: 6784 d8bc 9ebd 11be 1559 803e 065f 84be
00000040: 2f4c ed3d ccf3 6fbe 7a9a 91be c80c 943e
00000050: 0920 473d 055d 99be 8dc1 8cbe 98a7 e03d
00000060: 877c d03d 2e99 833e b393 813e bcdd 80be
00000070: 13c3 b1bd e9fb 3a3e c541 5dbc 1567 8c3c
00000080: 72bd 32be dc26 c8bc 8eaf 51be 055c debd
00000090: a0b0 06be b8ee 923d a7f2 713e f322 5f3d
000000a0: 2127 9a3e b533 1d3e 2a82 073e 7051 463e
000000b0: 2739 ad3d d93f 733e a975 58be e26c 4e3e
000000c0: 2021 11be 4f7a 763d 50e5 7e3e 8268 a0be
000000d0: 12ab 43bd 605f bdbd c5f7 803e 8cd8 6bbe
000000e0: 733f 5f3e 31f3 fdbd f88d 72be b989 28be
000000f0: e65b bd3d 33e6 843e 0157 f2bd 6ddb bbbd
00000100: 1d08 343e 7ce5 28be 6e18 63be 2c33 3ebe
00000110: d14f 9fbc ea6b d5bd 1203 fc3d 9fbb 3e3e
00000120: f845 c5bd 1be7 5d3e 5a0f 98be bae5 693b
00000130: 974c 843e 9f75 d2bd b6d8 323e 773a 8eba
00000140: d157 42be cccd 1ebe eab8 85be 4fa0 893e
00000150: e4f4 3e3e 031d 123e 1109 94be 0cc8 62be
00000160: 6c37 503e a8e7 dbbd 2824 0f3d f05b 573d
00000170: b9d9 4ebe 8941 9abd 8397 debd c626 52be
00000180: 72aa 41be 770d 99be 8d9f 99be 51a1 4e3e
-0.2732992 0.15465908 -0.1964521 0.298052 -0.05510205 -0.12276306 -0.062169235 -0.29984212
-0.08287458 0.038245857 -0.14643519 -0.09871536 -0.026430322 -0.1423249 0.25067964 -0.25853747
0.115867965 -0.23432845 -0.2843817 0.28916 0.048614535 -0.2995378 -0.27491418 0.10969466
0.10180002 0.25702804 0.25307998 -0.2516917 -0.086797856 0.18260159 -0.01350445 0.017138997
-0.1745508 -0.024432592 -0.20477125 -0.10857395 -0.13153315 0.07174438 0.23627721 0.05447669
0.30107978 0.15351756 0.13233247 0.19367003 0.084581666 0.23754825 -0.21138634 0.20158723
-0.14172792 0.060175236 0.24892163 -0.31329733 -0.047770567 -0.09246707 0.25189033 -0.23031825
0.21801548 -0.12399901 -0.2368697 -0.16458787 0.09246044 0.25956878 -0.11833001 -0.091727115
0.1758122 -0.16493791 -0.22177288 -0.18574208 -0.01944724 -0.104209736 0.12305273 0.1862626
-0.09632486 0.21670191 -0.29699212 0.0035689906 0.25839683 -0.10276341 0.17465481 -0.0010851164
-0.18978812 -0.15508193 -0.2611764 0.26880118 0.18648106 0.1426888 -0.28913167 -0.22146624
0.20333642 -0.10737544 0.03494659 0.052577913 -0.20200242 -0.07532031 -0.10868742 -0.20522603
-0.18912676 -0.29893085 -0.3000454 0.20178725

bias f4 [10]
00000000: 0163 95bd 00ac b03d 7766 1f3d b3b8 7fbe
00000010: f5a8 813e 7b51 c33d 1f1f 2e3e ad83 54be
00000020: 9bdc 00bd 0913 8fbe
-0.07294274 0.086265564 0.038916077 -0.24972801 0.25324216 0.095370255 0.1700406 -0.20753355
-0.031460386 -0.2794421

weight f4 [1, 10]
00000000: 724e 9bc2 e59c 9bc2 7643 9bc2 a3ca 9bc2
00000010: b061 9bc2 d680 9bc2 a5ba 9bc2 c964 9bc2
00000020: ce3b 9bc2 607c 9bc2
-77.65321 -77.806435 -77.63176 -77.895775 -77.690796 -77.75163 -77.86454 -77.696846
-77.616806 -77.74292

weight f4 [10, 2]
00000000: 82f6 8e3e 0743 c43e 8946 ad3e a815 ee3f
00000010: 67fd 9f3e 7757 ae40 a38d 08bf 122e adbe
00000020: f1ef db3e 83d1 aabe e2da 09bf 9cba 233f
00000030: 6eaf 353e b19d 8ec0 872c 123f 410e 0ac1
00000040: 2368 f33e d47c 933f 1691 07be cf9e e8bd
0.27922446 0.38332388 0.33842877 1.8600359 0.31248018 5.448177 -0.5334112 -0.3382421
0.42956498 -0.3336297 -0.53849614 0.6395662 0.17742702 -4.4567494 0.57099193 -8.62848
0.47540388 1.152247 -0.1323894 -0.11358415

bias f4 [10]
00000000: 7af0 d640 15f4 a7c0 e07a b440 99d7 3abe
00000010: 875c cac0 6f84 92bd a066 f040 e15c e140
00000020: b5c4 bbc0 8946 993e
6.716855 -5.248545 5.6399994 -0.18246306 -6.323795 -0.07154166 7.5125275 7.0425878
-5.867762 0.29936627

weight f4 [10, 10]
00000000: 8cb6 c9bd ab05 3940 3bfa 623f 1474 0e3e
00000010: 1de7 0840 11ce cf3d 80d9 03be bc76 553e
00000020: 6020 0640 7467 3abe 39ec a8be 674c b240
00000030: 45d5 fb3e d575 56be 46cc fc3f fc96 4c3e
00000040: c2eb a7be 3d47 c73e b5bf 72bf a96f e03d
00000050: ebce e6bf 0f01 f040 32d8 7bc0 f80f 9cbe
00000060: ed41 7440 9f9b 713d 3543 7fbf 158f 023f
00000070: f20c 6840 6493 193e 06bb 9cbf f907 0140
00000080: b6cf e5bf e7c1 90bd 1e69 9e3f 9160 ce3c
00000090: c979 82bf 2d35 ecbd 55df 953f b9f1 773e
000000a0: e98a 95bf 3f05 0140 0beb a6bf 05cc 93b9
000000b0: 833a 823f f24b 9d3e ade3 2dbf eb17 67be
000000c0: ed3c 593f ba26 c93d 84d0 46be ed20 d83f
000000d0: d263 0840 ffba a23d 2d40 f73e 5d94 4dbc
000000e0: d2a5 17c0 240f ddbf 1e78 4b3f e8cd 683d
000000f0: 50fa a6bf f3d5 0540 4233 debf 5e0f 19be
00000100: 80be a93f f82f 80be d34c 8cbf f45f 54bd
00000110: bd0a 813f 0405 573e afe3 58bf a8b6 5040
00000120: 8e4e f83f ac46 84be 85ba c83f 19f3 853e
00000130: 1ed4 7bc0 bd1d 28c0 e037 1140 f222 03be
00000140: 9387 dfbf 0bee 2540 396c 313e bb91 213e
00000150: 3efe bd3f 00be 69be b19e aac0 a68c 4ec0
00000160: 99a6 1240 6b76 2e3e 8d59 523f 26eb c7bf
00000170: df6c ebbe 2430 573e ee82 cabe 2bfd a2bd
00000180: 65de 3a40 ec73 cc3f b461 29bf 887a 183e
-0.09849271 2.890971 0.8866307 0.13911468 2.139106 0.10146726 -0.12875938 0.20846075
2.095726 -0.18203527 -0.32992724 5.5718265 0.4918615 -0.20943387 1.9749839 0.19979471
-0.32797056 0.38921538 -0.9482377 0.109587975 -1.8031896 7.500129 -3.9350705 -0.30480933
3.8165238 0.058986302 -0.99711925 0.50999576 3.62579 0.14997631 -1.2244575 2.0161116
-1.7954013 -0.07068234 1.2375829 0.02519253 -1.0193416 -0.1153358 1.170878 0.24213304
-1.1683017 2.0159452 -1.304048 -0.0002819003 1.0174106 0.30722004 -0.6792553 -0.22567718
0.8485859 0.0982184 -0.1941548 1.6885048 2.1310925 0.07945823 0.4829115 -0.01254758
-2.3694959 -1.7270246 0.7948016 0.056836993 -1.3045139 2.0911834 -1.7359393 -0.14947268
1.3261261 -0.25036597 -1.0960945 -0.05184932 1.0081402 0.20998007 -0.8472242 3.2611485
1.9398973 -0.25835168 1.5681921 0.2616203 -3.9348216 -2.626815 2.2690353 -0.128063
-1.7463249 2.592654 0.1732644 0.15778248 1.4843214 -0.22826385 -5.3318715 -3.2273345
2.2914183 0.1703736 0.82167894 -1.5618637 -0.459815 0.21014458 -0.39553016 -0.07958444
2.919824 1.5972877 -0.6616471 0.14890492

bias f4 [10]
00000000: 9dfd d3bf 4f68 123f ce09 d8c0 ea38 b5c0
00000010: 2148 95c0 a2cf a1bf 5f7c b8c0 f328 adc0
00000020: 58ec 7ec0 e1dd cb3f
-1.6561772 0.5719041 -6.751197 -5.6631975 -4.665055 -1.264149 -5.765182 -5.4112487
-3.9831753 1.5927087

weight f4 [10, 10]
00000000: 0150 91c1 a613 92c1 e352 d441 147e 8b41
00000010: 4b1e 1641 dfe0 8c41 08fb 8841 381d 5541
00000020: 8c67 9fc1 74ee 2a41 a7d6 92c1 30e5 90c1
00000030: ec03 d441 7193 8e41 126d fb40 51c0 8c41
00000040: 5c72 8d41 bd17 5441 13f6 a1c1 3299 2441
00000050: 859f 8fc1 d08d 91c1 f233 d441 5465 8e41
00000060: e0af f340 dd29 8841 d12f 8f41 8e66 5d41
00000070: ce3b a3c1 e333 2241 2573 6fc1 2141 81c1
00000080: 419a bf41 8627 8241 c12e 4741 0b73 1541
00000090: 451c 8141 f174 a141 4a24 b9c1 dff7 ba40
000000a0: d121 91c1 16dc 90c1 c119 d441 281f 8d41
000000b0: cf41 0341 5ac4 8e41 4421 8d41 4c67 5041
000000c0: aafd 9fc1 a8f7 2841 efe8 6ac0 bb1f a6c0
000000d0: f9d1 7640 69f0 bc41 008f f4c0 2748 1240
000000e0: 423c c241 f476 0142 e950 7341 b379 0ec1
000000f0: ebb4 86c1 97ee 6cc1 f04d a441 f752 8141
00000100: 5b41 6f41 c0ad 3741 909e 7941 7afc 8441
00000110: 8f77 97c1 c6bd 0941 f5e5 91c1 99b0 90c1
00000120: e552 d441 63ca 8c41 f2cc fe40 d97d 8b41
00000130: 47d2 8e41 250c 5741 ba6e a1c1 7e39 2641
00000140: 7970 91c1 881d 8ec1 e7e6 d341 fc70 8f41
00000150: 7364 fc40 87c6 8b41 ebf3 8d41 420a 5641
00000160: dd9d a6c1 f560 1a41 2c3b 91c1 bd41 8fc1
00000170: 8bed d341 4271 8f41 593f f340 feb4 8741
00000180: 14dd 8d41 9107 5e41 0e91 a1c1 0147 2541
-18.164064 -18.259594 26.540472 17.436562 9.382396 17.6098 17.122574 13.3196335
-19.92556 10.683216 -18.35481 -18.111908 26.501915 17.821993 7.8570642 17.593904
17.68084 13.2557955 -20.245153 10.287401 -17.95289 -18.194244 26.525364 17.799477
7.615219 17.020441 17.898348 13.837538 -20.404202 10.137668 -14.965611 -16.156801
23.95032 16.269299 12.448915 9.340587 16.138803 20.1821 -23.14272 5.8427577
-18.141512 -18.107464 26.512575 17.640213 8.203567 17.845875 17.641243 13.025219
-19.99886 10.560463 -3.6704671 -5.1913733 3.8565657 23.617388 -7.642456 2.2856538
24.279423 32.366165 15.207253 -8.904712 -16.838339 -14.808249 20.538055 16.16551
14.953456 11.479919 15.601212 16.62328 -18.933378 8.608831 -18.237284 -18.08623
26.540476 17.598822 7.9625177 17.43645 17.852674 13.440465 -20.179066 10.389036
-18.179918 -17.76442 26.487745 17.930168 7.887262 17.471937 17.7441 13.377504
-20.827082 9.648671 -18.153893 -17.907099 26.490988 17.930302 7.601483 16.963375
17.732948 13.876847 -20.195827 10.329835

bias f4 [10]
00000000: 6150 88c1 76dd 83c1 847a 85c1 1609 6cc1
00000010: 750b 88c1 b211 72c0 473d 5dc1 a557 86c1
00000020: 57d1 82c1 c548 87c1
-17.039248 -16.483135 -16.684822 -14.752218 -17.005594 -3.78233 -13.82746 -16.792795
-16.352217 -16.910532

weight f4 [10, 10]
00000000: 88b4 7cbe 570e 923e d05d 9d3e 3796 84be
00000010: c55f 483e bcfc 173e 7f1d 07be 108b d83d
00000020: d5d7 673e 68d2 15be 97df 053e 489a 963e
00000030: c3e9 193e 063b 61be 1b83 833e 4e60 18be
00000040: e859 a73b 69e1 7e3d 2212 9bbe 43b8 63be
00000050: 6e2a d73d 0b8a 89bd ee48 313e 1cf1 003e
00000060: d885 6ebe ba3d 903e c05b 82be 0f5b 7c3e
00000070: 654c 713e 0911 98be 8163 78be 4f6e 32bc
00000080: 75b8 a43d d2be aa3d 5f02 873d 7d87 b53c
00000090: a2c5 98be 6767 22be 3a35 06be d176 8bbe
000000a0: 9801 bd3d ca27 2b3e fef9 93be 9636 c13d
000000b0: 061c 14bd 9a4e 56be c00f 2a3e fade ba3d
000000c0: e92c 5c3d 53d6 96be 160b 1f3e 8e70 8ebe
000000d0: 41b4 e2bd 2249 ec3d e7ed 89be c50e 443e
000000e0: b87a 3839 3feb 063e 2dcc 9d3e 1d79 2cbe
000000f0: 77e3 c1bd 51eb 40be 3966 623b 9f85 963e
00000100: d990 283e fb65 15be 9125 ea3d ef1b 9abe
00000110: efd5 28bd f173 8b3e e263 b03d 6ae0 403e
00000120: 5fba a0bc d7d3 93be e0db a7bb 7e09 6fbe
00000130: 16e4 3f3d 77b6 4e3e a7c3 0d3e 2a4a 8e3e
00000140: cb4f 383d 4477 9f3e 78ff 693e 12c3 493e
00000150: ae22 103e de36 f83d 899a 2c3e 0b5a 573e
00000160: e612 883d f0ef 943e c992 823e 7d9e 5bbd
00000170: 2c0d 49be bb10 9a3e 40e3 31be ba8c b2bd
00000180: 70a3 473e d164 69be cad7 8fbe 9c3c 6d3e
-0.24678242 0.28526565 0.30735636 -0.25895855 0.19567783 0.14842504 -0.13194846 0.10573399
0.22640927 -0.14631045 0.13073574 0.29414582 0.1503058 -0.21995172 0.25685963 -0.14880487
0.005107153 0.062226687 -0.30287272 -0.22238259 0.1050614 -0.06715783 0.17312977 0.12591976
-0.23293245 0.28172094 -0.25460625 0.24644111 0.23564298 -0.29700497 -0.24256708 -0.010890557
0.08042995 0.08337177 0.06592249 0.022159332 -0.29838282 -0.15859757 -0.13106242 -0.27239087
0.092288196 0.16714397 -0.28901666 0.094342396 -0.036159538 -0.20928422 0.1660757 0.09124561
0.053753767 -0.2946039 0.15531573 -0.27820247 -0.11069537 0.115373865 -0.26939318 0.19146259
0.00017593324 0.13175677 0.30819836 -0.16843076 -0.094672136 -0.18839766 0.0034545793 0.2939882
0.16461505 -0.14589684 0.114329465 -0.30099437 -0.041219648 0.27236894 0.08612801 0.18835607
-0.019620119 -0.28872558 -0.0051226467 -0.23343465 0.04684838 0.20186792 0.13844167 0.27790958
0.04499797 0.3114568 0.2285136 0.1970332 0.14075729 0.1211984 0.16855825 0.21030442
0.066442296 0.29089308 0.25502613 -0.053617943 -0.19633931 0.3009089 -0.17371845 -0.08718248
0.1949594 -0.22792365 -0.2809432 0.23167652

bias f4 [10]
00000000: 30e3 ee3d 7957 d43c dd5d 7f3e 50f6 50be
00000010: 3f50 f2bd fcd9 6c3c 78c9 0e3e 87e0 d2bd
00000020: a516 a0be 19b6 8b3e
0.11664426 0.025920616 0.2493815 -0.20406461 -0.11831712 0.014456268 0.13944042 -0.102967314
-0.31267276 0.27287367

weight f4 [10, 10]
00000000: 7100 99be 2671 793e e842 623e 7381 003d
00000010: c2f2 86bd 6f8e 533e c919 91be 0351 3c3e
00000020: 0f5a b33c 7a1c 97bd 212d 82bd f014 1f3e
00000030: 8e41 343e bf79 ee3c fcdc 903e ebb1 01be
00000040: 297b 943e 6764 8cbe c58d 2ebe bcef 1dbe
00000050: 7eac 0fbd 285e ee3b 5a56 1e3e bea8 d4bd
00000060: 2d11 2bbe dede 053b a556 7e3e e234 edbd
00000070: 26a2 333e ce48 40bc 247c 21bd 29ef 553e
00000080: dd68 933d eaeb 3c3e de61 32be 7c08 42be
00000090: 58a0 173e 3535 8b3d d473 913e 59f2 c43d
000000a0: 2f34 123e b170 a0bd 8152 ecbd cd52 69be
000000b0: b2e6 b23d f8ef a9bd b561 fa3d d751 573e
000000c0: b4b5 9ebe 8f56 92be 69e2 9cbe caad 9e3d
000000d0: 9971 23bd e7bc ca3d cd8f 27be 2203 933e
000000e0: 198b 513d 3d10 80be 7940 853e 1378 00be
000000f0: e25f a2bd 82e3 383d 99a9 683e 7267 2e3d
00000100: 0247 a03e 3e46 893e 9e44 4fbe 45a0 7abe
00000110: 573d 68be c870 85bd 7db5 1ebe 6cd8 b5bd
00000120: 046c c83d 56ad 3bbe 1d91 a5bd 21b4 023e
00000130: e01c dbbc 88fc 723d f2cc c9bc 33c6 303e
00000140: aa89 cf3c 090f 28be 0a91 3c3d ec3d 2ebe
00000150: 1c62 343b 9f3f 143e 4a39 5b3e 7daf 753e
00000160: bfd9 523d fd16 163e dd01 84be c31b 16be
00000170: a249 7dbd c5de 7e3e 15f6 2cbe f0c5 9abe
00000180: 65bd 93bd 3e73 67be 6506 23bd cf72 293e
-0.2988315 0.24359569 0.22095835 0.031373452 -0.06589271 0.20659803 -0.28339985 0.18390279
0.02189353 -0.07378478 -0.06356264 0.15535331 0.17603132 0.029110787 0.28293598 -0.12665527
0.29000214 -0.2742035 -0.17046268 -0.15423483 -0.03507661 0.007274408 0.15462628 -0.103837475
-0.16705771 0.0020427029 0.2483774 -0.11582352 0.17542323 -0.011736108 -0.03942503 0.20892014
0.071977355 0.18449369 -0.17420146 -0.18948549 0.1480726 0.06797258 0.28408682 0.09616537
0.14277719 -0.07833994 -0.11539174 -0.22785492 0.08735408 -0.082977235 0.122256674 0.21027313
-0.30998003 -0.28581664 -0.30641487 0.077479914 -0.039903257 0.098993115 -0.1636345 0.28713328
0.051158044 -0.2501239 0.2602575 -0.12545805 -0.079284444 0.045138843 0.22720946 0.042579122
0.31304175 0.26811403 -0.20241019 -0.244752 -0.2267965 -0.06515652 -0.1549892 -0.0887917
0.09786227 -0.18327841 -0.08084319 0.12764026 -0.026747167 0.059322864 -0.024633858 0.17263107
0.025334198 -0.16411985 0.046036758 -0.17015809 0.0027524298 0.14477395 0.21408573 0.23992725
0.05147719 0.14657207 -0.25782672 -0.14659028 -0.0618378 0.24889667 -0.16890748 -0.3022914
-0.072138585 -0.22602555 -0.03980102 0.16547702

bias f4 [10]
00000000: beee e63d 39c6 153e 75d1 d7bd a477 92be
00000010: fb87 813d 66d0 7fbd 0733 7cbe d6fd 6dbe
00000020: 9d8f 88bd 4218 3a3e
0.11276005 0.14626397 -0.10537998 -0.28606904 0.06324764 -0.062454604 -0.2462884 -0.23241362
-0.06668017 0.18173316

weight f4 [1, 10]
00000000: 775e 9bc2 6ee3 9bc2 3a85 9bc2 9979 9bc2
00000010: 3b00 9cc2 f030 9bc2 6894 9bc2 3476 9bc2
00000020: 62e9 9bc2 3677 9bc2
-77.6845 -77.9442 -77.76021 -77.737495 -78.00045 -77.59558 -77.789856 -77.730865
-77.955826 -77.732834
