models/model_omnet_obst.pth (torch, 8447 bytes, 14 tensors)

weight f4 [6, 2]
0.0999379 -0.43944123 0.5949808 -1.4074624 0.10155171 -0.5795492 0.60550743 -1.9969342
-0.7582223 -0.51092243 0.15216497 -0.51033205
00000000: 3eac cc3d 71fe e0be a950 183f ba27 b4bf
00000010: 58fa cf3d 565d 14bf 8902 1b3f 8a9b ffbf
00000020: db1a 42bf d0cb 02bf 22d1 1b3e 1fa5 02bf

bias f4 [6]
8.370253 4.3849826 8.996993 7.0436683 -0.3223279 -17.907883
00000000: 8eec 0541 c751 8c40 aff3 0f41 bb65 e140
00000010: 2a08 a5be 5843 8fc1

weight f4 [6, 6]
-0.092421874 -0.28385898 0.38571316 0.24923621 -0.18603006 0.34891745 0.17197606 -0.3410749
0.05089297 -0.18658213 -0.18409628 0.015520098 -0.30905056 -0.09398501 0.30718464 -0.25636038
-0.2246023 -0.01712528 0.26170605 0.366685 0.015888702 -0.06124322 -0.28825396 0.18865414
0.40327668 0.35577604 -0.057293896 0.27138713 0.20379424 -0.06329512 0.20594434 0.3676606
-0.1969006 -0.351577 0.30585024 -0.25654927
00000000: ae47 bdbd f755 91be 327c c53e c737 7f3e
00000010: aa7e 3ebe 4fa5 b23e 7e1a 303e 5fa1 aebe
00000020: 2675 503d 630f 3fbe bc83 3cbe 0248 7e3c
00000030: e03b 9ebe 377b c0bd 4e47 9d3e ab41 83be
00000040: 25fe 65be 514a 8cbc 56fe 853e 23be bb3e
00000050: 0629 823c 2cda 7abd 0696 93be 8d2e 413e
00000060: 487a ce3e 4728 b63e 01ad 6abd 41f3 8a3e
00000070: 70af 503e dfa0 81bd 13e3 523e 033e bc3e
00000080: 50a0 49be e701 b4be 6798 9c3e 6d5a 83be

bias f4 [6]
0.2691371 0.15650992 -0.3400915 -0.28592178 -0.07128702 0.27444148
00000000: 57cc 893e 2344 203e 7920 aebe 5764 92be
00000010: eefe 91bd 9883 8c3e

weight f4 [6, 6]
-0.13301872 0.3106886 0.32793483 -0.041771315 -0.34103218 -0.10960142 -0.1337969 -0.23900656
-0.34872562 -0.38369995 0.38690317 -0.2624781 0.34740922 0.1921002 0.39159635 -0.18494678
-0.05266732 -0.38893455 -0.39084965 0.007605483 0.31306794 0.35249686 -0.084826514 0.3936136
-0.37384647 -0.15838526 -0.1422102 -0.042008664 -0.11969096 0.20202349 -0.037481904 0.2575627
0.012769634 0.10999202 -0.19838032 0.38299525
00000000: 0f36 08be 9412 9f3e 13e7 a73e 6618 2bbd
00000010: c59b aebe b676 e0bd 0e02 09be 23be 74be
00000020: 2a8c b2be 5274 c4be 2c18 c63e 8863 86be
00000030: 9fdf b13e eab5 443e 517f c83e b062 3dbe
00000040: b0b9 57bd 6e22 c7be 721d c8be 6a37 f93b
00000050: 714a a03e 787a b43e 86b9 adbd b987 c93e
00000060: ce68 bfbe bf2f 22be 8d9f 11be 4711 2cbd
00000070: 8920 f5bd 3fdf 4e3e a086 19bd 42df 833e
00000080: ba37 513c 7f43 e13d 3624 4bbe f417 c43e

bias f4 [6]
0.014385962 0.059661884 -0.29839095 0.28527698 -0.31362674 -0.13854106
00000000: 19b3 6b3c 0560 743d b3c6 98be d30f 923e
00000010: af93 a0be b5dd 0dbe

weight f4 [1, 6]
-1.2328906 -0.59263283 -1.6133878 -0.27323076 0.0043436163 5.5983224
00000000: 5ccf 9dbf c9b6 17bf 7e83 cebf e7e4 8bbe
00000010: e554 8e3b 7525 b340

weight f4 [6, 2]
-0.38044688 -0.014393064 -0.17527607 -2.3860035 -0.49346066 0.48451227 -0.18158446 -0.6829326
-0.036844783 1.0659847 0.050030116 -2.32498
00000000: efc9 c2be e3d0 6bbc 927b 33be 48b4 18c0
00000010: e0a6 fcbe fe11 f83e 47f1 39be acd4 2ebf
00000020: 8eea 16bd 3072 883f 61ec 4c3d 79cc 14c0

bias f4 [6]
0.6444983 16.788275 0.39160097 -0.5026227 18.935816 17.696716
00000000: d7fd 243f 634e 8641 ec7f c83e e2ab 00bf
00000010: 8d7c 9741 e092 8d41

weight f4 [6, 6]
-0.39663693 -0.10427652 -0.198091 0.1887156 0.21717158 -0.38386503 -0.14185357 -0.33883053
0.206784 0.40522993 -0.36688715 -0.25129625 0.18769091 0.047569454 -0.34474728 0.22550122
0.21745048 -0.16372563 0.38100156 0.008525726 0.15131624 0.17788355 0.12927978 -0.36356592
-0.063991785 -0.22499299 -0.37744477 0.30282578 0.254407 -0.262948 -0.12974809 -0.07332641
-0.072344065 -0.18059483 -0.047508422 -0.066684775
00000000: ff13 cbbe ee8e d5bd 5ed8 4abe aa3e 413e
00000010: 3a62 5e3e f589 c4be 1042 11be 327b adbe
00000020: 2fbf 533e 4c7a cf3e a2d8 bbbe e7a9 80be
00000030: 0c32 403e 30d8 423d b782 b0be cbe9 663e
00000040: 57ab 5e3e b1a7 27be a312 c33e 7daf 0b3c
00000050: a5f2 1a3e 1b27 363e eb61 043e 5025 babe
00000060: 200e 83bd 9064 66be 7140 c1be fb0b 9b3e
00000070: a241 823e 1fa1 86be afdc 04be 282c 96bd
00000080: 2029 94bd daed 38be 3198 42bd 0792 88bd

bias f4 [6]
0.25841194 -0.29846463 0.23528032 0.22571512 0.06929367 -0.40382573
00000000: 924e 843e 5bd0 98be 53ed 703e dd21 673e
00000010: d7e9 8d3d 3fc2 cebe

weight f4 [6, 6]
-0.3953679 -0.061716605 0.36707765 -0.26282945 0.3175084 -0.056117762 -0.24860004 0.11548789
0.22506015 0.38962662 0.052969884 -0.37145773 0.28525138 -0.056245364 0.23071457 0.14793898
0.008733632 0.1655122 0.33878633 -0.2086074 -0.18990979 -0.35655934 0.07926573 -0.08116432
-0.30660525 -0.07839965 0.09005091 -0.311316 0.063759595 0.1276154 -0.32016408 -0.23592472
-0.3646372 -0.07699702 0.37208694 0.21038054
00000000: a96d cabe 8dca 7cbd 9af1 bb3e 9591 86be
00000010: 7690 a23e bddb 65bd 0291 7ebe ea84 ec3d
00000020: 2b76 663e 247d c73e f3f6 583d b52f bebe
00000030: 780c 923e 8a61 66bd 7140 6c3e 517d 173e
00000040: 8217 0f3c 087c 293e 6775 ad3e 2e9d 55be
00000050: b677 42be f28e b6be 1256 a23d 7b39 a6bd
00000060: 5dfb 9cbe ff8f a0bd 9d6c b83d d064 9fbe
00000070: 6494 823d 9dad 023e 8cec a3be 4096 71be
00000080: bab1 babe 9db0 9dbd 2e82 be3e ff6d 573e

bias f4 [6]
-0.052365586 0.3323529 -0.06291337 0.35301852 0.16876978 -0.19681749
00000000: 4c7d 56bd 292a aa3e bad8 80bd d8be b43e
00000010: fcd1 2c3e 868a 49be

weight f4 [1, 6]
-0.14798994 5.5008583 0.20811237 -0.15307982 -3.8512304 -2.458527
00000000: ad8a 17be 0807 b040 691b 553e f5c0 1cbe
00000010: 8f7a 76c0 8258 1dc0
