models/model_omnet_multi.pth (torch, 34251 bytes, 55 tensors)

weight f4 [10, 2]
000000 87 69 55 3e d6 b3 3c 3f 99 55 11 3f 66 dd 01 bf
       0.20841037 0.7371191 0.56771237 -0.5072845
000010 4c 38 19 be b7 6d 31 bf 6f 1e c9 bd 08 23 92 bd
       -0.14962882 -0.69308037 -0.09820258 -0.07135588
000020 80 37 29 bf 4e 95 be be 17 00 bb 3e 3b e5 dd bc
       -0.6610031 -0.37223285 0.36523506 -0.027086845
000030 2e d0 72 3e fc cb e2 3e ac fc 83 3e c6 61 5c 3e
       0.23712227 0.44296253 0.2577871 0.21521673
000040 75 f4 08 3f 65 43 68 3e a0 30 8c 3e 70 7f 49 3f
       0.5349801 0.22681959 0.27380848 0.7871008

bias f4 [10]
000000 1c 05 39 3f 06 f2 dd 3e 66 8b dd bd 56 5b 2e bf
       0.7227342 0.43348712 -0.10817604 -0.6810812
000010 55 2a 8a 3e b5 2a 9c be 63 42 07 3f 58 6f 0f bf
       0.26985422 -0.30501333 0.52835673 -0.5602927
000020 04 60 37 3f 28 7a 0e 3f
       0.71630883 0.55655146

weight f4 [10, 10]
000000 00 d3 8f 3e e4 2e 8c 3e ff 9a 6c be 51 0b 5b 3e
       0.28090668 0.27379525 -0.23106001 0.21391036
000010 6a 87 a0 3e c5 ff df ba 8a db cc 3e a0 d6 f4 3e
       0.31353313 -0.0017089775 0.40011245 0.47819996
000020 b6 54 08 3f 2d 35 21 3f 06 ce ea 3e 72 aa fb 3e
       0.5325426 0.62971765 0.45860308 0.49153477
000030 5f bb 18 3e 7f 06 d0 bc c7 c4 28 be 05 e6 e2 3e
       0.14915226 -0.025393723 -0.16481315 0.44316116
000040 d7 6b 32 3f 41 04 d5 3e 9c 0e 39 3e c4 4b 38 3e
       0.696958 0.41604808 0.1807198 0.17997652
000050 35 bb 81 be 04 2c 0c be 9d 8d a8 3d d2 11 a6 3d
       -0.2533814 -0.13688666 0.082301356 0.08108868
000060 60 5f 75 3e 31 ee bd bc 92 19 6e 3e db f0 e5 3d
       0.23962164 -0.023184868 0.23251942 0.1122758
000070 49 24 75 3e 1f da 8c 3e 33 08 ba 3e 6e d1 9f 3e
       0.23939623 0.27510163 0.3633438 0.3121447
000080 8e 98 10 be f2 3c 0b 3e 1b b7 39 bd 43 d7 99 3e
       -0.14120695 0.13597468 -0.04534064 0.30047044
000090 d2 36 91 3e a3 e6 4b 3e ff d6 90 3e 38 1c 12 3f
       0.28362137 0.199122 0.2828903 0.5707431
0000a0 04 87 1e 3e ef 81 96 3e 5b e2 64 3d cc 0c 8c 3d
       0.15481192 0.29396006 0.055879932 0.06838378
0000b0 7a b4 76 3e 22 11 db bd 2c 03 64 3e 54 14 9c 3d
       0.24092284 -0.10696627 0.22266835 0.07621065
0000c0 5e 36 74 be 96 19 69 3e 05 dd 91 bd bf 49 a0 3a
       -0.23848864 0.22763667 -0.07122234 0.0012229009
0000d0 6d 8f 61 be c4 ac 92 3e fa 2d b5 bd 36 c5 90 bc
       -0.22027369 0.28647435 -0.0884666 -0.017672163
0000e0 cf f8 dd 3e c0 72 8a 3e 73 0c 2b bc f3 a5 45 3e
       0.43353888 0.27040672 -0.01043998 0.19301586
0000f0 2e d1 10 3e 3c d6 87 3d cf 7b 05 3d 12 ad ad 3c
       0.14142296 0.06632659 0.032588776 0.02120069
000100 5c a7 10 3e 0d 09 79 3e 23 20 21 bd 03 6e ac bd
       0.14126343 0.24319859 -0.03933729 -0.084194206
000110 e2 a4 8c bc 7b de 6e 3e 99 71 3c 3d 46 33 53 bd
       -0.017168466 0.23327057 0.046006773 -0.05156257
000120 00 a3 1b 3d 0f e5 7d 3e 2c af 26 3e 62 62 6f 3d
       0.037997246 0.2479441 0.1627776 0.058443435
000130 d7 98 4f 3e 06 fb ab bd 6c 96 27 3e 9d 6d 69 3e
       0.20273148 -0.08397488 0.16365975 0.2279572
000140 e8 2f 9d 3e 7b 54 26 be 3b e0 15 3c 6b c5 16 bd
       0.30700612 -0.16243164 0.009147699 -0.036809366
000150 a0 e1 76 be 6e d2 15 3d 27 61 0a 3d 08 ee e6 3c
       -0.24109507 0.036577635 0.033784058 0.028189674
000160 e4 b1 a7 3e 1b 40 f3 bc 7f 6b be 3e eb 34 18 3e
       0.32752907 -0.029693654 0.37191388 0.14863937
000170 e5 66 0e 3e 2f d0 5c 3e ed c9 e7 bc 18 f1 87 3b
       0.13906439 0.2156379 -0.028294528 0.0041486137
000180 18 44 16 3f 9a 73 57 3e 52 1b e3 3e fd e1 ea 3e
       0.5869765 0.21040192 0.4435678 0.4587554

bias f4 [10]
000000 a2 1a 9b bb 6d 04 70 3d 53 40 2f 3e 71 74 fd 39
       -0.0047333995 0.05859797 0.17114381 0.00048342676
000010 32 31 d5 bd e4 6e af 3e fa c8 3b 3e 78 91 d2 3d
       -0.10409774 0.3426429 0.18338385 0.10281652
000020 6b 13 81 3d 22 87 7d 3e
       0.06302532 0.2475858

weight f4 [10, 10]
000000 2c b8 30 3f 8f 61 0c 3f be 00 fe 3f 1e c1 37 3f
       0.69031024 0.5483636 1.9843976 0.7177905
000010 6b da e2 3e 51 77 b8 3f c1 e4 b7 3f e2 18 86 3f
       0.44307265 1.4411412 1.4366685 1.0476344
000020 4f 5f 3f 3f 92 bc fe 3e a5 88 59 3f 79 5e 57 3f
       0.74754804 0.49753243 0.8497413 0.8412853
000030 cf 9b e7 3f df cf 0a 3f 30 bf 0d 3f c3 71 ae 3f
       1.8094424 0.54223436 0.55369854 1.3628467
000040 1a 13 b5 3f b3 1f 43 3f 76 6a 29 3f 24 58 65 3f
       1.4146454 0.76220244 0.6617807 0.89587617
000050 f0 c4 25 3f ca e3 4a 3f c9 a9 aa 3f 0b f9 51 3f
       0.6475363 0.7925383 1.3333064 0.82020634
000060 b1 45 60 3f 11 df de 3f ce c4 d7 3f cf 3e 69 3f
       0.8760634 1.7411824 1.6856935 0.91111463
000070 1f 54 27 3f 9a 3e 46 3f 1d 35 58 3f de f0 f6 3e
       0.65362734 0.7743927 0.84456044 0.48230642
000080 2f 0d f7 3f e7 ac 3c 3f 21 07 1e 3f 3b c8 8e 3f
       1.9300898 0.7370133 0.6172963 1.1154855
000090 37 19 d2 3f b9 cb 92 3f b1 62 80 3f 02 40 0e 3f
       1.6413945 1.1468421 1.0030118 0.5556642
0000a0 4b 94 60 3f 4c 29 73 3f 21 51 d3 3f e6 2d 05 3f
       0.8772628 0.9498489 1.6509134 0.5202316
0000b0 e3 ea 00 3f f8 28 be 3f cd c7 f5 3f 17 5a 95 3f
       0.5035841 1.4856253 1.9201599 1.1668118
0000c0 29 d9 83 3f e0 d0 6f 3f eb 6f 5d 3f 55 16 28 3f
       1.0300647 0.9367809 0.864989 0.65659076
0000d0 31 93 ba 3f f3 d8 35 3f 06 68 42 3f 68 6f a5 3f
       1.4576169 0.71034163 0.7593998 1.2924623
0000e0 9d e1 01 40 60 e6 a1 3f e9 2f 17 3f 44 bc 46 3f
       2.0293953 1.264843 0.5905748 0.7763102
0000f0 d4 d7 40 3f e7 a0 24 3f b8 87 e7 3f 1c 38 71 3f
       0.7532933 0.6430802 1.8088293 0.9422624
000100 33 17 50 3f 45 e3 68 3f dc 9e ef 3f 1d f7 84 3f
       0.812854 0.90971786 1.8720355 1.0387913
000110 b7 20 69 3f 22 93 30 3f fe 35 20 3f 3e e5 6d 3f
       0.91065544 0.68974507 0.62582386 0.9292792
000120 db c2 e0 3f d5 6b 5e 3f 29 52 e0 3e 91 7a b1 3f
       1.7559465 0.8688329 0.43812683 1.3865529
000130 f0 65 04 40 36 de 87 3f 42 a6 4a 3f 5b 7e 37 3f
       2.0687218 1.0614688 0.7915994 0.7167718
000140 f5 d1 41 3f b6 1e 29 3f 3d 9d d9 3f fd 85 83 3f
       0.75710994 0.66062486 1.700111 1.0275265
000150 5b a4 12 3f cb b4 95 3f 55 7d 03 40 d0 1c 8c 3f
       0.57282037 1.1695799 2.0545247 1.0946293
000160 01 39 64 3f da 80 38 3f 17 d6 87 3f f0 78 72 3f
       0.8914948 0.7207161 1.061221 0.94715786
000170 ff 4e c4 3f 4c 52 87 3f c4 3d 16 3f 8a c8 ae 3f
       1.5336608 1.057199 0.58687997 1.365495
000180 2b 13 e2 3f 0a 8b 43 3f 69 29 0d 3f 8b bd 83 3f
       1.76621 0.7638403 0.5514131 1.0292219

bias f4 [10]
000000 f9 9f 77 3f 1b c0 17 3f 11 5c 37 3f 40 f0 07 3f
       0.96728474 0.59277505 0.7162486 0.5310097
000010 4f 71 25 3f 27 b1 73 3f c3 6d f0 3e 1b ba 20 3f
       0.6462602 0.9519219 0.46958742 0.62783974
000020 9a bb fc 3e e0 de 12 3f
       0.4936188 0.5737133

weight f4 [10, 10]
000000 e4 75 34 be 47 d5 11 be 27 4e 94 3e 4c 4e 89 be
       -0.17623097 -0.14241515 0.28965876 -0.26817548
000010 b6 7e 50 3e e1 fa 89 be ce 51 29 be 41 0b 86 be
       0.20360836 -0.26949218 -0.16535112 -0.2618046
000020 4d 31 44 3e 8c 38 81 bd fb db 64 be 1d 09 1b 3b
       0.19159432 -0.063096136 -0.22349541 0.0023656555
000030 d5 a6 96 be 65 13 69 be 2a e2 9a 3e 5d 08 81 3e
       -0.29424158 -0.22761305 0.30250674 0.25201693
000040 7d f3 77 bd c0 66 0d bc 6c 92 41 3e be f4 16 be
       -0.060534943 -0.008630455 0.18903512 -0.14741799
000050 18 f9 32 be 32 e9 85 be fd bf 83 be 83 19 85 be
       -0.17477834 -0.26154476 -0.25732413 -0.25996026
000060 3a f7 9a 3d 64 1a 7c be 61 91 67 be 24 5d a6 3d
       0.07566686 -0.24619442 -0.22614051 0.08123234
000070 ca 25 9a 3e 03 d0 84 be 10 d6 95 be 5b 1c 3a 3e
       0.30106956 -0.2593995 -0.2926488 0.18174879
000080 8a 78 02 3e 0b 06 37 bd 23 51 97 be ef ea 96 be
       0.12741295 -0.044683497 -0.2955409 -0.29476115
000090 e9 90 95 be 08 6c 4e bc 37 d0 b7 3d 45 b9 e1 3d
       -0.2921212 -0.012598999 0.08975261 0.110216655
0000a0 f2 7a 68 3e de e0 8f bc 46 a3 9f 3e 57 62 7a bd
       0.2270315 -0.01756328 0.31179255 -0.06112894
0000b0 40 06 7c 3d 0b 4c 46 3c 0f c0 51 be 32 51 a8 bc
       0.061529398 0.012103091 -0.20483421 -0.02054653
0000c0 71 24 79 be b7 19 a1 bd 5d 03 25 3d 2d b6 9f 3e
       -0.24330308 -0.07866233 0.04028641 0.31193677
0000d0 0a 8b 3c be 6c 97 69 3e 29 ba 2b 3e 2f 72 3a 3e
       -0.18412414 0.22811669 0.16770233 0.1820762
0000e0 a2 29 9f 3d 70 41 34 be 56 4f 95 3e c2 b0 ef bc
       0.07771613 -0.17603087 0.2916209 -0.02925909
0000f0 c8 29 a1 be 50 7c b7 3d 26 6c 7b 3e 39 1b 9a be
       -0.3147719 0.089592576 0.24552974 -0.30098894
000100 76 85 28 3e fc 47 09 3e b4 cc e2 3d 8e 78 20 be
       0.16457161 0.13406366 0.110742 -0.15670988
000110 e7 5e 90 bd df 9a 1f be cc 32 81 be a6 4f be 3d
       -0.07049351 -0.15586422 -0.25234067 0.092925355
000120 3a 41 38 3e 0c 47 aa 3d dc 31 5d 3e 5e 0e 49 3e
       0.17993632 0.08314332 0.21601051 0.19634387
000130 92 ba ca 3d bd 88 3c 3d e7 84 9c 3c c1 9e 0d be
       0.09898867 0.04602884 0.019106342 -0.13830091
000140 e5 c5 d7 3d 56 2f 91 bd 8f fb 04 3e bb 63 2e 3d
       0.10535792 -0.07089107 0.12986587 0.04257558
000150 3d 71 9f bd 58 27 3d 3e e7 17 91 be 42 9d 94 be
       -0.0778527 0.1847204 -0.2833855 -0.29026228
000160 58 67 02 be 15 01 7c 3e be 66 59 3e 95 a6 36 bd
       -0.12734735 0.24609788 0.212306 -0.04459246
000170 2c 03 2e 3e 5d 53 b4 3d 07 22 a0 bd 47 62 d6 3b
       0.16993397 0.08804963 -0.0781899 0.0065424773
000180 57 6a 61 3e d1 a3 83 3e 3c 8a 81 be 15 e0 22 3e
       0.22013222 0.2571092 -0.25300777 0.15905793

bias f4 [10]
000000 55 2b cc bd 2e ef a3 3d df d5 36 3e 1c 5b a7 bd
       -0.099692024 0.08004604 0.17855023 -0.081716746
000010 5a c2 09 3e 74 af ec bb 97 41 b6 3c 01 09 63 be
       0.13453045 -0.007223064 0.022248073 -0.22171403
000020 f3 02 a5 bd 72 80 64 be
       -0.08057203 -0.22314623

weight f4 [10, 10]
000000 f6 1b 20 3e 71 d0 02 bd 4f 8d 52 3e 65 4f 0c be
       0.15635666 -0.031937066 0.20561717 -0.13702162
000010 ae af 79 be d8 7e 17 be 69 43 03 be ff ad 09 3d
       -0.24383423 -0.14794481 -0.12818684 0.0336132
000020 71 e3 e7 3d b4 74 e7 bc e6 de 7e 3e 99 dd 9b be
       0.11322678 -0.02825389 0.24889717 -0.30442503
000030 c3 99 9e 3e 15 1f ed bc 07 52 9f bd 09 8b 48 be
       0.30976686 -0.028945485 -0.07779317 -0.19584288
000040 3a ba 8a be e6 43 bc bd d8 e0 ff 3c d8 65 be bc
       -0.27095205 -0.09192638 0.031235144 -0.023241922
000050 c3 53 80 3e bd 01 a1 be e2 48 13 3e 8b 5b 79 3e
       0.25063905 -0.3144664 0.14383271 0.24351327
000060 41 da 1c be 98 5a 7c be f5 5a 83 be 1c ca 95 3e
       -0.15317632 -0.24643934 -0.25655332 0.2925576
000070 46 eb 1e be db 50 87 3c b6 c4 64 3e 43 c9 9b 3e
       -0.15519437 0.016518047 0.22340664 0.30426988
000080 9d 7c db 3b f5 de 7e 3e 6f e4 1f be 39 42 5d 3e
       0.0066982047 0.24889739 -0.15614484 0.21607293
000090 9d 8f 4f 3e 58 dc 16 3d 96 f3 46 3e 82 cd 34 3d
       0.20269628 0.03683123 0.19428858 0.0441413
0000a0 43 8c 8d 3e 1a 9b 5d 3d 51 25 84 bd c1 9d 8e be
       0.27646074 0.054102995 -0.0645243 -0.27854732
0000b0 b3 93 7b 3d e0 1c be 3d 04 00 27 bd 1c 53 a4 3d
       0.061420154 0.09282851 -0.0407715 0.08023664
0000c0 ce c8 a1 be a3 46 63 3e 2b bf 86 3e 69 19 3d be
       -0.31598514 0.22194915 0.26317725 -0.18466724
0000d0 f4 da 13 be a5 43 85 be d4 a0 dc 3d 99 b0 0d 3e
       -0.14438993 -0.2602817 0.10772863 0.13836898
0000e0 fc b6 0d 3e 71 7e 01 be ba 1c c6 bd 4d dd 88 be
       0.13839334 -0.1264589 -0.09673448 -0.2673134
0000f0 2a 0b 5e 3d e4 6d 97 3e 47 9e 94 be 8b ab 9c 3e
       0.054209866 0.29576027 -0.29027006 0.30599627
000100 38 d1 bd 3d 85 72 95 3e 6d 57 80 3e e7 64 71 3e
       0.09268421 0.29188934 0.250667 0.23573647
000110 c0 ae 03 be e9 1a 1e 3e 58 ec 8a be f4 a5 93 3d
       -0.1285963 0.15439953 -0.2713344 0.072093874
000120 89 c4 7b be 27 39 74 bd fd 8c 29 bd 94 1e 06 3e
       -0.24586691 -0.059624817 -0.041394223 0.13097602
000130 04 59 9a be 89 53 13 bc 17 7f 9c be c7 21 f8 bd
       -0.3014604 -0.008992084 -0.30565712 -0.121158175
000140 4b 9e 58 bd cb 04 93 3e 12 3f bb 39 2c bf b0 bd
       -0.052885335 0.28714594 0.0003571441 -0.08630213
000150 56 13 3a be 55 fa 05 3e 59 35 72 3e 96 29 c8 bd
       -0.18171439 0.13083775 0.23653163 -0.09773557
000160 e6 f6 90 3e 88 3b 6b be 21 93 7c be f3 5c 56 be
       0.2831337 -0.22971928 -0.246655 -0.20933895
000170 6f 82 a0 be 9b 9d 7f bd a4 c7 92 3e b4 ff 62 be
       -0.31349513 -0.062406164 0.2866794 -0.22167856
000180 c9 31 53 3e 36 88 64 3e 3a 8c 6b 3e f6 e4 62 be
       0.2062446 0.22317585 0.23002711 -0.22157654

bias f4 [10]
000000 de c9 64 3e 85 26 66 be 69 14 fd bd 03 5d 04 3e
       0.22342631 -0.22475632 -0.123574086 0.12926106
000010 53 b5 6c be ab 3c ed 3d 75 a8 6c 3d 58 7c fc bd
       -0.23116045 0.11583837 0.05777784 -0.12328404
000020 f0 d0 a1 3e 51 f3 99 be
       0.3160472 -0.30068448

weight f4 [1, 10]
000000 c6 f9 a2 c0 55 a8 9f c0 d0 3b a3 c0 ab 5c a7 c0
       -5.09299 -4.9892983 -5.1010513 -5.230062
000010 3d 84 9f c0 96 7c a0 c0 a3 7e 9f c0 da 6b a1 c0
       -4.9848924 -5.0152082 -4.9842086 -5.0444155
000020 3e a2 a1 c0 40 cf 9e c0
       -5.051055 -4.962799

weight f4 [10, 2]
000000 de 4a 00 bf 8c 88 ea be 83 5d e2 3e 09 d9 e4 3d
       -0.5011424 -0.45807302 0.4421197 0.11174209
000010 7c 65 2d 3f a3 84 8e 3e 2d 66 06 3f f3 8c 5e 3e
       0.6773298 0.2783557 0.5249966 0.21733455
000020 73 29 9b 3e 1f 69 e8 be 26 9d 25 3f c1 65 fb 3e
       0.3030506 -0.453927 0.64692914 0.4910107
000030 dc 3e 1d 3f a7 f1 ae bd 01 32 15 bf 6f 46 1c 3f
       0.6142404 -0.08542185 -0.58279425 0.61044973
000040 59 ad 12 3e b1 30 d7 3e af 21 18 3f 4f e9 dc be
       0.1432394 0.42029336 0.594264 -0.4314675

bias f4 [10]
000000 d8 d7 a6 3e 56 f2 f6 3e a0 5a 81 be c1 86 c5 3e
       0.3258655 0.48231763 -0.25264454 0.38579372
000010 b7 b3 27 3f ef 7d 65 3e 7d 05 3c bf 07 b8 e7 bd
       0.655086 0.22411321 -0.73445874 -0.11314397
000020 28 b0 d6 3e 20 d8 00 3e
       0.41931272 0.12582445

weight f4 [10, 10]
000000 a2 5b bf bc db cd bd 3e e7 53 67 bd 93 c1 a8 3d
       -0.023359124 0.37071118 -0.0564765 0.08240046
000010 7a 25 95 3e ff 3c 5f 3e 20 74 b0 3e d7 8d fd 3d
       0.29130155 0.21800612 0.34463596 0.123805694
000020 36 60 4d bd f0 a3 77 3e 22 c5 10 be a6 c0 96 3e
       -0.050140582 0.24183631 -0.141377 0.29443854
000030 d6 15 32 3c 3b 52 05 3d 63 f9 9c 3e 40 a8 6c 3e
       0.010869464 0.032549124 0.30659017 0.23111057
000040 6c f8 85 be 23 25 97 be a7 53 47 be 7d f4 dc bd
       -0.26166093 -0.2952052 -0.19465505 -0.1078882
000050 0d 96 3e be 7b 13 3e be 25 e8 89 3d 0f 14 c8 bd
       -0.18611927 -0.18562119 0.06733731 -0.09769451
000060 37 a8 2a bd 02 5e 35 bd f9 c1 9e 3d fd b9 9b be
       -0.04166433 -0.044279106 0.07751841 -0.30415335
000070 2d 34 d0 3e c8 e2 aa 3e 76 89 3e 3e d2 c2 1c be
       0.40664807 0.33376145 0.18607125 -0.15308693
000080 53 c2 73 3e ce 0d 5a bd 19 2e d0 3e f0 4a 59 be
       0.23804598 -0.05323582 0.4066017 -0.21219993
000090 78 0f ac 3d 9a 19 05 be d6 1c a0 3e ec 22 02 3e
       0.08401388 -0.12998047 0.31272 0.12708634
0000a0 46 50 a1 be fc f7 a0 3e 6f 97 b0 bc 25 8b 99 3d
       -0.31506556 0.31439197 -0.021556584 0.07497243
0000b0 95 81 9d 3e 6f 01 28 3c 28 5c c1 bd fd f5 4b 3d
       0.30762926 0.010254248 -0.094414055 0.04979514
0000c0 60 79 cd 3e e3 eb 24 be cb cf 50 be 11 e6 ac 3e
       0.40131664 -0.16105609 -0.20391767 0.33769277
0000d0 c5 73 29 3c f2 85 43 3d 06 cf c8 3d 82 b4 1e 3e
       0.010342543 0.047735162 0.098051116 0.15498546
0000e0 f8 98 5f 3e 10 10 74 3e 6d bd 8e 3e 8c e5 9b 3e
       0.21835697 0.23834252 0.27878895 0.30448568
0000f0 54 f3 4b be f8 17 39 3e 3b af f1 bd e8 00 b5 bb
       -0.19917041 0.1807555 -0.11801001 -0.0055237897
000100 4a 06 fc 3d aa d6 09 3e c0 60 96 3c 8a 87 9a be
       0.12305887 0.13460794 0.01835668 -0.30181533
000110 35 39 32 3e 00 43 4c 3d ea 04 f0 3d 6e e8 92 be
       0.17404635 0.049868584 0.11719687 -0.28692955
000120 07 b2 23 3e 77 56 8b bb f1 0c c3 be cb b9 90 3d
       0.15985881 -0.004252251 -0.3809581 0.07066687
000130 9c 40 39 be 8e 20 2d 3e 4c 74 43 3e ea dc b4 3d
       -0.18091053 0.1690695 0.19087332 0.088311985
000140 58 44 b1 bc 7a 79 71 be d8 41 6e 3e d8 f9 63 3d
       -0.021639034 -0.23581496 0.23267305 0.05565819
000150 33 33 81 3e f4 be d8 3c fa c3 18 3d 50 c9 cd bd
       0.25234374 0.026458241 0.037296273 -0.10048163
000160 31 73 c6 3c 78 68 48 3b 37 67 9d 3e d1 9b bf 3d
       0.02422485 0.0030579846 0.3074281 0.093558915
000170 4e 97 7c 3c ff a1 ad 3e b5 87 4e 3e 03 fc 27 be
       0.015416933 0.33912656 0.20168956 -0.16404729
000180 06 0a ca 3d 89 79 20 3e a4 c9 f0 bd 38 7d ad bd
       0.09865193 0.15671362 -0.1175721 -0.08471149

bias f4 [10]
000000 94 04 48 be 00 46 ce bd 00 ca 05 3f 8d b4 f6 bd
       -0.19532996 -0.10071945 0.5226135 -0.12046156
000010 f0 1c 8d 3e e5 80 b1 bc 31 6f 44 bc d1 2f 9d be
       0.2756114 -0.021667907 -0.011989401 -0.30700544
000020 34 28 c3 3d 99 df cc 3c
       0.095291525 0.025008963

weight f4 [10, 10]
000000 b9 72 8c 3f 9d a6 35 3f ad 98 9b 3f 29 ef fa 3f
       1.097251 0.70957357 1.2155968 1.9604236
000010 d6 6d 88 3f e7 f9 6d 3f c2 78 3e 3f f2 bc 8d bd
       1.0658519 0.92959446 0.7440301 -0.06920804
000020 a8 47 8c 3f 98 68 4a 3f 15 04 80 3f 2b 31 82 3f
       1.0959368 0.7906585 1.0001246 1.0171255
000030 62 49 ba 3f dd f9 d6 3f 75 31 62 3f 23 33 84 3f
       1.4553645 1.6795002 0.88356715 1.0328106
000040 10 ca 31 3f 9b 89 44 be f6 97 2a 3f b6 49 a4 3f
       0.6944895 -0.19193117 0.66638124 1.2834995
000050 60 07 7f 3f 5a 1f 42 3f 06 49 8c 3f 29 cb 01 40
       0.9962063 0.7582909 1.0959785 2.028025
000060 80 47 78 3f 1b e7 66 3f 4e ed 2e 3f ee de af 3d
       0.969841 0.9019639 0.6833085 0.08587442
000070 bf 0d 6c 3f a1 c7 97 3f 36 2a 25 3f 43 04 a3 3f
       0.92208475 1.1857797 0.64517534 1.2735676
000080 b0 36 b3 3f 61 1b c8 3f a5 2c 93 3f 98 37 8c 3f
       1.4001064 1.5633355 1.1498 1.0954466
000090 6f 7a 74 3f 56 32 b0 bd 95 84 51 3f ff 31 93 3f
       0.9549932 -0.08603351 0.8184293 1.1499633
0000a0 51 69 0e 3f 93 06 46 3f 79 63 69 3f 76 3e fc 3f
       0.5562945 0.7735378 0.9116741 1.9706562
0000b0 ff 1f b5 3f b9 9b 6b 3f 19 2c 81 3f a3 c2 d3 bd
       1.415039 0.9203449 1.0091583 -0.103398584
0000c0 fd 94 80 3f 7d 20 80 3f 68 2b 85 3f a7 ae 1d 3f
       1.0045468 1.0009915 1.0403872 0.61594623
0000d0 6e 96 80 3f 68 a0 ca 3f 48 2f 49 3f 3b 6f 93 3f
       1.0045907 1.5830202 0.7858777 1.151832
0000e0 b9 bd 96 3f eb dc 6b bd 11 32 52 3f 39 78 83 3f
       1.1776649 -0.05758373 0.82107645 1.0271064
0000f0 e2 17 6f 3f 4b a4 93 3f 81 4d a9 3f db 28 f5 3f
       0.9339582 1.1534513 1.3226777 1.9153093
000100 f1 ba a6 3f 9d 6d 2b 3f cf 05 26 3f 0a a5 7c 3e
       1.30258 0.6696413 0.64852613 0.24672332
000110 9f cd 54 3f 99 27 8e 3f 55 15 89 3f a7 72 88 3f
       0.8312625 1.1105834 1.0709635 1.0659989
000120 a4 4f 54 3f 1a f2 24 40 ea e9 54 3f 4b 0f 77 3f
       0.8293402 2.5772767 0.83169425 0.9650771
000130 fb 4c 77 3f af 14 c1 bd 4a 6b 3e 3f 4f 4b 92 3f
       0.9660184 -0.09427773 0.7438246 1.1429232
000140 09 2a 35 3f 5c 60 8b 3f 95 0c 92 3f ae 40 15 40
       0.70767266 1.0888782 1.141009 2.3320727
000150 08 e5 5b 3f 0f dd 77 3f 90 5d 8e 3f fe 6f 78 bd
       0.8589635 0.96821684 1.1122303 -0.06065368
000160 e9 eb 7d 3f 9a a2 53 3f 1e 6a 91 3f d8 a7 8b 3f
       0.99188095 0.82669985 1.1360509 1.0910597
000170 a2 2c 72 3f 63 2f 17 40 16 25 85 3f 0f 59 2e 3f
       0.94599354 2.3622673 1.0401943 0.6810464
000180 59 e7 91 3f 99 77 b0 3e ae 49 91 3f 1b e2 8e 3f
       1.1398727 0.34466246 1.135061 1.1162752

bias f4 [10]
000000 3a 49 6e 3f 1f 8f 2e 3f 01 a4 8d 3f cf 1c 8f 3f
       0.93080485 0.68187135 1.1065675 1.1180667
000010 d0 cd 88 3f c6 30 69 3f 1e 01 83 3f f9 bc 34 3f
       1.0687809 0.9109005 1.0234716 0.7060085
000020 f6 e5 3c 3f 5b 75 36 3f
       0.7378839 0.7127282

weight f4 [10, 10]
000000 0b d8 84 bd 48 90 28 3c 05 30 bd 3d 6e 15 7f 3e
       -0.064865194 0.010288306 0.092376746 0.24910519
000010 03 9b 89 3e 01 31 8f 3e c4 37 63 3e 37 6d 7b be
       0.26876077 0.27967075 0.22189242 -0.24553381
000020 08 af 24 be f2 74 56 be fd ab 8b be e9 46 9a 3e
       -0.16082394 -0.20943049 -0.27279654 0.30132225
000030 54 26 0d be 42 bd 5a be 12 9e bd 3c e4 0e e9 bd
       -0.13784152 -0.21361259 0.023146663 -0.11379793
000040 4a 53 82 3e be bd 05 3e 76 67 bd bd 37 b6 31 3e
       0.2545417 0.13060662 -0.09248249 0.17354666
000050 36 96 ff 3c fe 05 65 be d2 1e 69 3c 51 52 94 bd
       0.031199556 -0.22365567 0.01422854 -0.07242263
000060 de d4 51 3e e4 f5 7f 3e 31 d1 96 3e 52 80 e0 bd
       0.20491359 0.24996144 0.29456475 -0.10961975
000070 8b ff 95 be 2f 64 2c be 68 77 7b 3e da 32 27 3c
       -0.29296526 -0.16835092 0.24557269 0.010204995
000080 7d 81 6a 3e 39 dc 8d 3e 27 0f 3b be 66 c8 a9 bc
       0.22900958 0.2770708 -0.18267499 -0.02072544
000090 4e 38 95 3e 72 a4 95 bd e7 64 98 3e 3f b3 57 be
       0.2914452 -0.07306756 0.29764482 -0.2106447
0000a0 c9 a4 21 be 57 1c 97 bd cb 6d c5 bd fb 61 49 be
       -0.15785517 -0.07378452 -0.09640082 -0.19666283
0000b0 27 f8 93 3d 0f a8 81 3e 07 a9 8c be 63 66 05 3c
       0.07225066 0.2532353 -0.27472708 0.008142087
0000c0 d9 37 83 be 60 64 95 3e d3 ca 25 3d 37 bc 99 be
       -0.25628546 0.29178143 0.04047663 -0.3002641
0000d0 b3 3d 9a 3c 01 5a e4 bd 62 52 57 3e fe 50 7b 3e
       0.018828249 -0.111499794 0.2102752 0.24542615
0000e0 60 65 cf ba 1a db 79 be ca df a4 3c cc 22 c0 bd
       -0.0015823059 -0.24399987 0.020126242 -0.09381637
0000f0 a2 18 3f be 8d d0 1a be 0a 42 34 3e 70 fa 9e be
       -0.1866174 -0.15118618 0.17603317 -0.31050444
000100 b4 90 44 be 6f b3 30 bd 12 f1 cc bd f2 9e b8 3d
       -0.19195825 -0.04313987 -0.10006918 0.090146914
000110 3b 41 31 be 3d 46 71 be d8 20 32 be 7d 44 62 3e
       -0.1731004 -0.2356195 -0.17395341 0.22096439
000120 03 58 01 3e ab c8 9e 3d 15 5f fe bd c3 78 a0 3e
       0.1263123 0.07753118 -0.12420479 0.31342134
000130 54 88 6a 3e f6 fc 7e 3e 0f 3d 8b 3e 4f 30 0b bd
       0.22903568 0.24901184 0.27195022 -0.033981618
000140 b8 7d a1 bb a3 aa ed 3d cb fc 8b be 6e 4c 75 3e
       -0.004928317 0.11604812 -0.27341303 0.23954937
000150 0f a7 88 3e 31 ef 4f 3e 08 eb da 3d 65 b8 9f be
       0.26689956 0.20306088 0.1068936 -0.3119537
000160 10 24 70 3e cf 7d 49 bc e1 db 04 bd 65 4a 5b 3e
       0.23451257 -0.0122980615 -0.032436255 0.21415098
000170 36 52 99 3d f9 e7 a1 3b 51 ba 0f be 73 4b b6 3d
       0.074863836 0.0049409834 -0.14035918 0.089011095
000180 50 87 82 3c a3 3d 86 3e ce 10 93 be cf 19 5f 3e
       0.015933663 0.262189 -0.28723758 0.21787189

bias f4 [10]
000000 01 b3 9f 3e 96 d3 93 3e f9 39 d5 3c 18 f6 29 3d
       0.31191257 0.28872365 0.02602862 0.04149446
000010 1c 8e 5f be a8 26 d4 3d 8d cf ac bd 06 26 96 3e
       -0.21831554 0.103589356 -0.08438025 0.29325885
000020 21 c8 17 3d 19 9d 8b 3e
       0.037056092 0.27268293

weight f4 [10, 10]
000000 03 1c 62 be a0 50 61 3e 8f 7a 75 bd 2c 7d 64 be
       -0.22080998 0.22003412 -0.059931334 -0.22313374
000010 70 c5 10 be c5 14 9c be 9c 1c 41 be 64 bd bc bb
       -0.14137816 -0.30484596 -0.1885857 -0.005759882
000020 18 bd 26 bd ff b1 02 3e 54 c6 99 be 15 a1 2b bd
       -0.040707678 0.12763213 -0.30034125 -0.041901667
000030 1a 5a c4 bd fd c4 0c 3e 18 20 76 3e d9 ef 0c 3c
       -0.09587498 0.1374702 0.2403568 0.008602106
000040 7f e3 2e be 64 ea 92 3d 36 2a d7 bc 19 69 26 bc
       -0.1707897 0.07173613 -0.026265245 -0.010156893
000050 23 3a 7b 3e 72 45 80 bd 55 1a 3f bd 19 19 d4 3d
       0.24533896 -0.06263246 -0.04665597 0.103563495
000060 0f 6f 90 be 96 20 3f 3e e2 ec dc 3d 52 8e 6e 3e
       -0.2820973 0.18664774 0.10787369 0.23296478
000070 12 12 6c 3e 17 3e 75 be bd 9b 6c 3e 16 1a 6e 3d
       0.23053768 -0.23949467 0.23106284 0.058130346
000080 53 df 39 be c0 c0 39 3c dd 39 40 bd 8e 45 72 3d
       -0.18151598 0.011337459 -0.046930183 0.059148364
000090 72 06 13 3e bf e1 94 3c c8 f2 7b be 42 64 23 3e
       0.14357927 0.01817405 -0.24604332 0.15956214
0000a0 13 87 88 3e 53 48 8a 3e 5e c5 95 be bb d8 2d 3e
       0.26665553 0.27008304 -0.29252142 0.16977207
0000b0 54 19 2c bc 90 5d 94 3e 5a 58 88 3d c3 ed 17 bd
       -0.010504086 0.28977633 0.06657477 -0.03709198
0000c0 ca 4a ae 3c 6e 90 78 be 8c 89 2f 3d 5a 38 a8 3d
       0.021275897 -0.24273846 0.042855784 0.08213873
0000d0 44 67 69 3e 41 a5 92 3e 42 3c 84 3e 84 df 53 be
       0.22793299 0.28641704 0.25827223 -0.20690733
0000e0 de ee fe bd e1 42 8d be 97 65 9f 3e dd 0f 97 3e
       -0.12447904 -0.27590087 0.31132194 0.2950429
0000f0 cb e1 77 3e 77 f0 c3 3d a4 7e 8d 3e 4d 31 e6 3d
       0.24207227 0.095673494 0.27635682 0.11239872
000100 cc ef 9f 3e e6 75 83 be 75 3b 3f be ad b1 3a bd
       0.31237638 -0.25675887 -0.18675025 -0.0455796
000110 99 56 e0 3c e6 2f 63 bd 12 2f 09 bd 32 7f 33 3e
       0.027385043 -0.0554656 -0.033492155 0.1752899
000120 71 1f 47 be 38 7f 37 3e 8d 34 ee bd 50 98 02 3d
       -0.19445588 0.17919624 -0.11631117 0.031883538
000130 57 b1 5c be 38 35 a0 3e 92 b9 7a 3e 1d 93 49 be
       -0.21552025 0.31290603 0.24484852 -0.19685026
000140 89 b5 d8 3d 96 d2 a4 3c e1 da 7b be 49 81 86 3e
       0.105815 0.020119946 -0.24595214 0.26270512
000150 e3 8b 6f be a6 f6 63 be 21 f1 32 3e ff 2b 8e be
       -0.23393206 -0.22262058 0.17474796 -0.2776794
000160 ca 41 55 3e 16 43 7c 3c a1 76 5d be 6f e9 8a 3d
       0.20825878 0.015396854 -0.21627285 0.06782805
000170 af bb 60 3e 9e 10 ea 3d 15 51 73 3e b6 63 81 3d
       0.21946596 0.11428951 0.23761399 0.063178465
000180 97 bf 37 be a7 d4 2f be ac ae 1a bd 90 00 9c be
       -0.1794418 -0.17170964 -0.037764236 -0.3046918

bias f4 [10]
000000 2c 7e 71 bd ac 01 fa bd 15 c9 6b 3e 51 ed 66 3d
       -0.058958218 -0.1220735 0.23025925 0.056378666
000010 1b 6b 58 3b 81 38 fb 3b 2d db e6 3a 2b 63 56 3e
       0.0033022824 0.007666648 0.0017612927 0.20936267
000020 14 94 38 be e5 11 97 be
       -0.18025237 -0.2950584

weight f4 [1, 10]
000000 11 99 a2 c0 19 58 a8 c0 fa c8 9f c0 4f 80 a0 c0
       -5.081185 -5.260754 -4.9932833 -5.0156627
000010 47 cb a5 c0 6f 92 a2 c0 9a b4 a2 c0 55 87 a2 c0
       -5.181064 -5.080375 -5.084546 -5.07902
000020 14 9a a5 c0 5f e3 a0 c0
       -5.1750584 -5.0277553

weight f4 [10, 2]
000000 59 cb 19 bf 3c f9 e3 be f7 35 0b 3f 94 f4 05 3f
       -0.6007591 -0.44526088 0.5437922 0.5232632
000010 6b 82 ca be 9a b0 84 3e 13 2e 06 3f 26 aa 0a bf
       -0.39552626 0.25915986 0.52414054 -0.54165876
000020 8c 39 2a bf b4 1d b2 be e2 82 2b bf 81 e3 28 bf
       -0.6649406 -0.34788287 -0.66996586 -0.65972143
000030 66 b8 04 3f dd a9 90 be 67 fb 21 3f 91 3e 34 3f
       0.5184387 -0.28254595 0.63274235 0.7040797
000040 a3 8e 52 be d7 18 e7 be 3d 91 af 3e 18 a9 ed 3e
       -0.20562224 -0.4513614 0.34290496 0.4641807

bias f4 [10]
000000 6d 0e 9c bd 7e d7 0e bf 10 da 32 bf 79 db 1a bf
       -0.07619939 -0.55797565 -0.69863987 -0.6049114
000010 96 ba 2e 3f 74 aa e0 be 09 4d 66 be 5f f1 98 be
       0.6825346 -0.43880045 -0.22490324 -0.29871652
000020 ba 93 b8 3e d0 09 09 3f
       0.36050206 0.535306

weight f4 [10, 10]
000000 1b ee 5a 3e 49 34 48 bd 21 1e 82 3e 35 73 0b be
       0.21379893 -0.048877988 0.25413612 -0.13618167
000010 90 7b 84 3e 88 55 68 be d5 b9 29 3e 17 f4 43 3e
       0.2587552 -0.22688878 0.16574796 0.19136082
000020 a1 43 da bd 4b 9f 47 3d 7f 3f 4a bc 02 ea b0 3d
       -0.106574304 0.048735898 -0.01234424 0.086383834
000030 c8 3d 12 3e 14 2a 04 be 76 74 21 3e eb 84 ff 3d
       0.1428138 -0.12906677 0.15767083 0.12476524
000040 b0 6b 4f be c7 c4 ed 3c 1f c5 68 be bc 76 b4 3d
       -0.20255923 0.029024495 -0.22731446 0.08811709
000050 09 d3 92 be 1d d2 b3 3e 29 d2 a1 3e a0 c0 b2 3e
       -0.28676632 0.3512124 0.31605652 0.34912586
000060 29 32 9a bd 66 1f 10 bd 88 5a 6d 3e 72 cf bb 3e
       -0.075290985 -0.035186194 0.23179066 0.36681706
000070 77 37 22 be 01 ac 93 3d 0e e4 6a 3e b8 12 39 3e
       -0.1584147 0.072105415 0.22938558 0.18073547
000080 2f 5f 63 be 7e a0 6c be e1 61 81 3e 0b 8b 2b 3e
       -0.22204278 -0.23108098 0.25269988 0.1675226
000090 7f 09 80 3e 8a 58 19 be 92 d7 68 be 94 c3 5d be
       0.25007245 -0.14975181 -0.22738484 -0.21656638
0000a0 23 a1 7e bd 52 a3 f9 bd 57 a1 b5 bc bf 99 0a 3e
       -0.06216539 -0.12189354 -0.02217166 0.13535212
0000b0 ef cf 67 3b a8 f2 0c be ff ea c0 3c 6a b5 19 3e
       0.003537174 -0.13764441 0.023549555 0.1501061
0000c0 0b 66 a0 be c1 42 51 3d 8c 20 9a 3e 3e cc 47 3c
       -0.31327853 0.051089052 0.30102956 0.012194691
0000d0 7e 94 a1 3e 64 d7 19 be 9d 68 82 3e 61 32 53 be
       0.31558603 -0.15023571 0.2547044 -0.20624687
0000e0 9b 3c 80 3e 13 de 14 3d 23 ef 9f 3e 21 9f d4 3d
       0.25046238 0.0363446 0.31237134 0.10381914
0000f0 a3 35 88 3e 07 a6 c3 3e d4 54 cb bd 68 b8 18 bd
       0.26603422 0.38212606 -0.09928289 -0.03728524
000100 aa 01 4d 3e 9b 31 93 3e 3d 5d 20 3d 8a b1 a5 3e
       0.20020166 0.28748783 0.03915142 0.32362014
000110 af 1e 1f 3d e9 00 58 3e 2f e9 88 bc 3d ef 02 3e
       0.03884762 0.21094097 -0.016712753 0.12786575
000120 bf 60 1c be db 66 81 3d 68 e8 a1 3d 82 f0 8d be
       -0.1527128 0.06318446 0.07905656 -0.27722555
000130 29 86 a7 bd 3a e7 77 3d 51 d3 95 3e cf fc 01 3d
       -0.08179886 0.06052325 0.29262784 0.031735238
000140 a2 24 0f bd 6b 73 c2 3e 75 67 a3 3d d8 44 8d 3e
       -0.034947045 0.37978682 0.07978717 0.27591586
000150 ae 70 55 bc a0 cf 5d be ff 99 48 be 87 f3 1a be
       -0.013027353 -0.21661234 -0.19589995 -0.15131961
000160 84 0b 97 be 4a 4a b2 3d 4d 08 6b be e3 11 b5 3d
       -0.29500973 0.08705576 -0.22952385 0.08841302
000170 84 91 8a be b1 2f e3 3e 75 bb d0 bc 26 74 88 be
       -0.27064145 0.44372323 -0.025480011 -0.26651114
000180 7b d2 d8 3e 64 3f f6 3d e8 1d 9c 3e b5 26 63 3d
       0.42348084 0.120238096 0.30491567 0.055456836

bias f4 [10]
000000 37 34 d6 3d 49 e1 80 be 7e 3b 8c 3e f7 91 a9 be
       0.10459178 -0.2517188 0.2738914 -0.33119175
000010 10 ea e6 bc d0 fc cd 3e 40 54 3a be bb c5 6f 3e
       -0.028187782 0.40231943 -0.18196201 0.23415272
000020 1f 09 7d bd 1f bb 8a 3e
       -0.061776277 0.27095887

weight f4 [10, 10]
000000 18 2b 87 3f d6 7a 7f bc ba 35 5c 3f c2 8b 84 be
       1.0560026 -0.015593251 0.8601948 -0.25887877
000010 fa b1 bb 3f ea 79 bb 3f c4 00 82 3f b4 20 b5 3f
       1.4663689 1.464658 1.0156484 1.4150605
000020 e0 50 0f 40 9e 8d 05 3f ff d3 8a 3f 3e e4 64 be
       2.2393112 0.52169216 1.0845946 -0.22352692
000030 8f 4d 26 3f e3 37 c3 3d 41 fd 91 3f 4a 5a 7b 3f
       0.64962095 0.09532144 1.1405412 0.98184645
000040 2b 5b 57 3f 81 ca b8 3f c4 cd 19 40 5f 2e 4f 3f
       0.84123486 1.4436799 2.403184 0.8093013
000050 2b f0 24 3f d9 97 4b 3e 3c 6e 1f 3f f9 7f 15 3e
       0.6442897 0.19882144 0.6227758 0.14599599
000060 2c 62 bd 3f c7 85 81 3f dc b9 8c 3f 07 6c 88 3f
       1.4795585 1.0118951 1.099422 1.0657967
000070 c8 30 34 40 28 b2 45 3f 88 36 28 3f 45 db 33 be
       2.8154774 0.7722497 0.6570821 -0.17564113
000080 fb 90 3c 3f 9e c3 55 3e 10 1a e8 3f a6 09 b0 3f
       0.7365872 0.20875403 1.8132954 1.3752944
000090 e0 ad 63 3f 6c 88 ad 3f 1c 7c 43 40 d3 ce 80 3f
       0.8893719 1.3557258 3.05445 1.0063118
0000a0 e7 bb 93 3f d4 a9 00 be 20 9a 29 3f fc 2b a1 bd
       1.1541718 -0.12564784 0.662508 -0.078697175
0000b0 8d 95 95 3f 7d 86 93 3f a4 08 69 3f 92 64 78 3f
       1.1686264 1.1525418 0.9102881 0.9702846
0000c0 56 72 29 40 89 2a 22 3f e2 09 85 3f bc ff 02 3e
       2.6476035 0.63346153 1.0393641 0.12792867
0000d0 f5 99 65 3f ed 22 af 3d e1 3b c5 3f 27 17 a5 3f
       0.89688045 0.085515834 1.5408899 1.289769
0000e0 7c 0c 3f 3f 99 5f 8a 3f 85 1c 24 40 e6 f9 92 3f
       0.74628425 1.0810424 2.5642407 1.1482513
0000f0 6f a0 23 3f 19 b1 15 3e 55 c4 55 3f 2c 87 4b 3e
       0.6391668 0.14618339 0.83502704 0.19875783
000100 22 88 a6 3f e5 69 93 3f 0d 62 4c 3f 45 4e 89 3f
       1.3010294 1.1516691 0.79837114 1.0727011
000110 32 a1 27 40 bb ff 07 3f be 34 1f 3f fb cc 43 be
       2.6192136 0.5312459 0.62189853 -0.19121163
000120 d3 ab 50 3f 35 6f 23 3e bf 34 cf 3f 30 83 88 3f
       0.8151218 0.15960391 1.6187972 1.0665035
000130 cf e2 2c 3f 8a bf b6 3f e9 1e 1d 40 4f c5 87 3f
       0.6753358 1.4277203 2.4550116 1.0607089
000140 86 42 39 3f fd 64 ba bc 42 bd 97 3f a8 d2 43 be
       0.7236713 -0.022753233 1.1854632 -0.19123328
000150 8c 75 cc 3f 1d 15 6f 3f ba ea 65 3f 7f 1b 83 3f
       1.5973372 0.9339159 0.8981129 1.0242766
000160 42 fe 18 40 c9 b2 45 3f 13 66 80 3f b3 3c 46 be
       2.3905187 0.7722593 1.003115 -0.19359092
000170 d0 24 5d 3f 5c 07 5a be 63 ee b7 3f 55 27 a7 3f
       0.86384296 -0.2129187 1.4369625 1.3058878
000180 f6 c7 7d 3f 03 98 3f 3f 49 eb 39 40 b5 ec 90 3f
       0.9913324 0.74841326 2.9049857 1.1322237

bias f4 [10]
000000 5f dc 5d 3f 54 83 56 3f e4 81 86 3f 70 a1 60 3f
       0.86664385 0.8379414 1.050839 0.87746334
000010 b9 db 4f 3f 17 ad 0f 3f 2a d6 83 3f db 3b 55 3f
       0.81194645 0.5612349 1.0299733 0.8329446
000020 80 c2 20 3f ec 28 4e 3f
       0.62796783 0.8053119

weight f4 [10, 10]
000000 b8 a8 96 be 38 71 3e 3e e8 e4 74 bd 94 0f 7f be
       -0.29425597 0.18597877 -0.059788615 -0.24908286
000010 43 e7 a1 bc 83 42 18 be 5b 82 3e be 79 00 51 3c
       -0.019763594 -0.14869122 -0.18604414 0.01275646
000020 ec 7a cc 3c 8e 5b 3f 3e 66 5a 00 3d fe f0 54 3e
       0.024960957 0.18687269 0.03133621 0.20795056
000030 5a dc 70 3e 84 4a a8 bd 87 bf b6 3d 50 09 4a be
       0.23521557 -0.08217338 0.0892325 -0.19730115
000040 8f ea ba 3d fb 27 1c be df d5 75 3e 7d 4b 63 3e
       0.0912677 -0.15249626 0.24007367 0.22196765
000050 62 f1 5b 3d 20 0f dc 3d 41 40 2b 3e 1d cd 04 3e
       0.053696997 0.10745072 0.1672373 0.1296887
000060 0e ec d6 bd 80 c7 db bd 3a 8a 7c 3e ac 7d 7b 3e
       -0.104942426 -0.10731411 0.24662104 0.24559659
000070 55 5f a9 bc 50 c4 10 bd d7 2d 1f 3e ff 91 de 3d
       -0.02067534 -0.03534347 0.1554483 0.1086769
000080 a4 45 29 3c 91 68 13 3d 03 2c 27 be 8f 35 7e 3e
       0.010331545 0.035988394 -0.16325383 0.24825118
000090 5c c0 0b be 49 10 ae b9 c5 b4 98 3e 18 5c 5a bd
       -0.13647598 -0.000332 0.29825416 -0.053310484
0000a0 d8 4e 5d 3e 65 bc c5 3c 3f 46 c2 bd f8 c6 7a 3e
       0.21612108 0.024137685 -0.09486055 0.24489963
0000b0 39 18 9e 3e 70 af a1 be c8 ea a8 bd af c0 8b 3d
       0.30877855 -0.3157916 -0.08247906 0.06823861
0000c0 da bb 16 bc c7 f6 60 be 28 61 71 3d f8 c3 9b be
       -0.009200061 -0.21969138 0.058930546 -0.3042295
0000d0 36 40 e4 3d 98 2d 97 3e d0 b5 95 be 8a 73 86 be
       0.1114506 0.29526973 -0.29240274 -0.26260024
0000e0 b7 0a 52 3e 8c 75 2c 3e ca ea 41 be 4d 5c 68 3e
       0.205119 0.16841716 -0.18937221 0.2269146
0000f0 cf b3 b0 bd 61 95 01 3e a2 1d d2 bd 70 88 98 3b
       -0.08628046 0.1265464 -0.10259558 0.0046549365
000100 56 54 9d be b6 b3 9d be a9 d5 3c be fa 96 6c 3e
       -0.30728406 -0.3080117 -0.1844088 0.23104468
000110 b4 a9 d6 3d cb 8f 76 3e 43 b2 e9 3d 46 f5 1f be
       0.10481587 0.2407829 0.11410954 -0.15620908
000120 41 7a c0 bd 9a 80 98 3e af e2 96 be 9b 37 92 3d
       -0.09398318 0.29785615 -0.2946982 0.07139512
000130 84 6e 93 3d fd 2a 3e 3d 21 1f bb 3b 17 c0 3b ba
       0.071988136 0.046427716 0.005710498 -0.00071621075
000140 21 3d de 3d 42 2e 1e be 2e 30 dd bd 11 0c 8c be
       0.10851503 -0.15447333 -0.10800205 -0.27352956
000150 f2 cb 96 be a0 69 25 3e b3 1d 40 3e 52 57 4d be
       -0.29452473 0.16153574 0.1876133 -0.20052841
000160 da d9 70 be 99 7c 6d be 29 cf 78 be e0 b3 53 be
       -0.23520604 -0.23192061 -0.24297775 -0.20674086
000170 28 fa 70 be fa ef 9f be e7 d8 90 be 9a af b7 3d
       -0.23532927 -0.31237775 -0.28290483 0.0896904
000180 0b ad 0a be 8a b8 90 3e f1 83 f4 3d 60 c6 f8 3c
       -0.13542573 0.28265792 0.11939228 0.03036803

bias f4 [10]
000000 9a c2 8b 3e a7 a4 b4 3d d3 eb fe bd ab 68 08 3e
       0.27296907 0.088204674 -0.12447324 0.13321178
000010 2c ed 94 3d 38 c6 98 3e ae 55 48 3e b6 61 61 be
       0.072717994 0.2983873 0.19563934 -0.2200993
000020 1c 62 de 3d 52 f8 94 be
       0.10858557 -0.29095703

weight f4 [10, 10]
000000 bf f9 7c 3d f5 2a a1 be 97 36 84 3d 3c c8 e8 bd
       0.061761614 -0.31478086 0.06455725 -0.11366317
000010 95 2f e3 3c 38 84 e1 3d d6 1c 7d 3e 32 57 9a 3d
       0.02773265 0.11011547 0.24718031 0.075361624
000020 cc 9b f4 3d 83 1f 8f 3e de 5c 64 3e 7e 49 9f 3e
       0.119437784 0.2795373 0.22301051 0.31110758
000030 7f 18 2c 3d d8 55 f3 3d 98 c4 d1 3d 97 03 13 3e
       0.04201555 0.11881608 0.102425754 0.14356838
000040 2f 00 35 bd 79 b9 95 3d 07 c2 5b 3d b0 75 85 be
       -0.04418963 0.07310767 0.053651836 -0.2606635
000050 07 c6 d3 3d af 54 9f be 49 4e 84 bd 1f 5e 74 be
       0.10340505 -0.31119296 -0.06460244 -0.2386403
000060 41 ec 8d be b4 1f 9f 3e 78 fc 29 be 3a b4 71 3e
       -0.2771931 0.31078875 -0.16600215 0.23603907
000070 4a 02 f7 bd 22 36 d4 bd 95 5a 01 3d 24 d5 9b bd
       -0.120609835 -0.103618875 0.031580526 -0.07609013
000080 d8 39 88 be 9d a4 92 3e c8 12 89 be ec fb 9d be
       -0.2660663 0.28641215 -0.2677214 -0.30856264
000090 99 8f 39 be bb 69 e0 3d 00 99 f2 3d 54 cb 3a bd
       -0.18121184 0.109576665 0.11845589 -0.045604065
0000a0 19 a6 2e 3e 2b fe 11 be a7 e1 65 3e 43 da 4d be
       0.17055549 -0.14257114 0.22449361 -0.20102791
0000b0 d9 00 98 3e 34 95 6a be d8 61 98 be f5 30 5e 3d
       0.29688147 -0.22908479 -0.2976215 0.054245908
0000c0 d7 f0 3d 3d 07 b3 88 ba 9f 81 2f 3e 72 79 6f be
       0.04637226 -0.0010429331 0.1713929 -0.23386171
0000d0 23 a6 88 3e 8a e3 82 be 6d 0b ab 3c b2 38 06 be
       0.26689252 -0.25564224 0.020879472 -0.13107565
0000e0 9e b3 53 3e d6 de ed 3d 60 c3 4c 3d b6 da 01 3e
       0.20673987 0.11614768 0.04999101 0.12681088
0000f0 ac 0b 70 be a3 64 9e 3e f7 67 9d be ea 76 35 be
       -0.23441952 0.30936155 -0.3074338 -0.17721143
000100 7d f1 0a 3e ba b5 42 3e 69 d4 72 3e a4 2f 78 3e
       0.13568683 0.19014636 0.2371384 0.24236923
000110 ec d7 e1 bd 02 90 cf 3d 5d 9b 9f 3e 8a f8 f2 3d
       -0.11027512 0.10134889 0.3117322 0.11863811
000120 36 e0 6f be 14 ad d5 3a c6 c1 ff 3d 7e 18 67 be
       -0.23425373 0.0016302192 0.12488131 -0.22567937
000130 75 ca b0 3d 7c a2 2e 3e 9f fc a0 3d 6e ba c0 bd
       0.086323656 0.1705417 0.07860684 -0.09410559
000140 56 97 96 3e 5f 0c b7 bd 7f 44 86 3d 4c 61 6c 3e
       0.29412335 -0.089379065 0.06556033 0.23083991
000150 20 b2 24 3e e8 4b 36 3e 14 8c 2f 3d 52 4d 4b be
       0.16083574 0.17802393 0.0428582 -0.19853714
000160 37 5a 1c bb af ad f4 3c ce ce 4e 3e 62 92 19 3d
       -0.0023857483 0.029867975 0.20196077 0.037493117
000170 ae 74 9e be 49 1f 98 be 10 08 44 3e 7e 67 6e 3e
       -0.30948395 -0.2971137 0.191437 0.23281667
000180 39 6e 27 be 30 04 ba bd 68 6a 00 be 1a f6 9b be
       -0.1635064 -0.0908283 -0.12540591 -0.30461198

bias f4 [10]
000000 d7 1e 22 3d 6e a1 74 bd a6 1d e8 bc 35 be 18 be
       0.039580192 -0.059724264 -0.02833445 -0.14916308
000010 74 ec 5d bd 8c 00 77 3d 3d 2a 16 be c7 d2 93 3d
       -0.054180577 0.060303256 -0.1466455 0.07217937
000020 3b 1b 81 be a3 28 97 be
       -0.25216088 -0.2952319

weight f4 [1, 10]
000000 ee 7c a7 c0 c1 d1 ab c0 d0 bc a8 c0 87 9a a1 c0
       -5.234 -5.3693547 -5.2730484 -5.050113
000010 86 35 ac c0 0c 0c a5 c0 0b ce a2 c0 5c 69 a7 c0
       -5.3815336 -5.1577206 -5.0876517 -5.2316113
000020 cc db aa c0 97 5d a0 c0
       -5.3393307 -5.0114245

weight f4 [10, 2]
000000 5f fe cb 3d aa d0 a2 3d 02 e8 1b bf 82 27 2b bf
       0.09960627 0.07949956 -0.6090089 -0.6685716
000010 ad 41 7d 3c 0f 52 f3 3e ea 28 05 bf ec 2f ed bd
       0.015457553 0.47523543 -0.52015555 -0.11581406
000020 1b 34 67 be 89 b6 1c 3f f7 7c bc b9 47 df 2b be
       -0.2257847 0.61216027 -0.0003595126 -0.16784392
000030 c3 70 a4 3e ab 10 31 3e d1 22 c1 3e 38 6b bc be
       0.3211728 0.17291515 0.37721875 -0.3680055
000040 2d 1b 04 3f 83 0c 03 3f 15 d4 de be 7e cb bb 3e
       0.51603967 0.51190966 -0.4352118 0.3667869

bias f4 [10]
000000 a1 80 77 bf 6f 1a a1 3e 72 32 1b 3f 32 1b 34 bf
       -0.9668065 0.3146548 0.6062385 -0.70353997
000010 11 0c f4 3c 70 85 21 bf 6e dc 31 3f 61 e2 29 3f
       0.02979091 -0.63094234 0.69476974 0.6636105
000020 74 d4 9c be 60 49 7a 3e
       -0.3063084 0.24442053

weight f4 [10, 10]
000000 27 d6 a1 3e e2 52 55 be 44 48 93 3e 03 98 81 3e
       0.31608698 -0.20832399 0.28766072 0.25311288
000010 e7 32 94 3e f1 9f 89 bd 94 e5 03 3f d9 99 e6 3e
       0.28945085 -0.067199595 0.51522183 0.4503925
000020 37 19 1b 3f 8c 1d de 3b b4 2c a6 3e 80 a9 9b bd
       0.6058535 0.0067784246 0.3245598 -0.07600689
000030 18 29 96 3e 51 e3 bc bd 26 17 00 be e9 ab 9e be
       0.29328227 -0.09223045 -0.1250883 -0.30990532
000040 29 dc c0 3e 92 4d b8 3e 88 af 1e 3e 40 0c 88 be
       0.3766797 0.3599668 0.15496647 -0.26571846
000050 94 05 35 be 06 1f 9c be 91 ce 3a 3d 3f 2e 12 3e
       -0.17677909 -0.3049242 0.045607153 0.14275454
000060 fc f8 83 be 56 65 08 be 50 04 d3 3e 2d 51 1f 3d
       -0.25775898 -0.13319907 0.41214228 0.038895775
000070 83 4d 85 bd 4e f6 8e 3b 36 44 9b bd f8 02 ef 3d
       -0.06508925 0.004362858 -0.075813696 0.11670488
000080 3e cc e5 3e d5 02 4c 3d 1b e8 2a be d6 aa 3d 3d
       0.44882387 0.04980739 -0.16690104 0.0463055
000090 5d 15 f6 3e c7 c5 fc 3e 86 d4 d3 3c 3b e7 0c bd
       0.48063174 0.49369642 0.025858175 -0.034400206
0000a0 8f 69 25 be e5 ae 2e 3e 87 b7 06 be d7 48 88 3e
       -0.16153549 0.17058904 -0.13155948 0.26618072
0000b0 8c e8 90 3e c3 af fe 3c 92 c8 2e 3e 6f b0 92 3e
       0.2830242 0.03108967 0.17068699 0.28650233
0000c0 c8 49 7a bc 37 c4 64 3e 7e 78 2d be 9a 24 c4 3d
       -0.01527638 0.22340475 -0.16940495 0.09577294
0000d0 fc 3d ad 3e d7 64 82 3e 21 09 b1 3c bc 36 44 3e
       0.33836353 0.2546756 0.021610798 0.19161505
0000e0 43 f5 50 bd 73 84 7b 3e 83 a4 c6 3e 0d 56 2f 3e
       -0.05101515 0.24562244 0.38797387 0.1712267
0000f0 e5 da 2c 3d d8 54 e4 bd ef 74 10 be 05 95 f1 bd
       0.04220094 -0.11148995 -0.14107107 -0.11796001
000100 c2 8c c7 bd 3b 51 c4 3d bd 08 8c be ba da 8f be
       -0.09743644 0.09585806 -0.27350417 -0.28096563
000110 a2 64 90 3e d0 2b 88 be 3d 31 33 be 0e 08 06 3d
       0.28201777 -0.26595926 -0.17499252 0.032722525
000120 40 6c 98 bd 52 da 64 3e 74 04 df bd 6c 26 db bd
       -0.07442522 0.22348908 -0.10889521 -0.10700688
000130 a2 b1 2f 3e 18 db 2f 3e 6f 36 87 3c ee 82 46 3e
       0.17157605 0.17173421 0.016505448 0.19385883
000140 65 08 f5 bd 3c b2 56 be 8c 1d d7 3d bd 48 67 be
       -0.11964492 -0.20966429 0.105036825 -0.22586341
000150 50 bb e6 bc 13 1c 8c 3d a6 3b ef 3d 5c 8b c1 3d
       -0.02816549 0.06841292 0.11681299 0.09450409
000160 16 6b b7 3d 59 f2 8b be a8 af 07 3e c1 5c 73 3e
       0.08955972 -0.27333334 0.13250601 0.23765852
000170 dc 7e 5e bc 56 68 9a be 59 55 5c 3d 1b 5d 8a 3e
       -0.01358005 -0.30157727 0.05379233 0.2702416
000180 ac 9d 53 be 93 47 45 be 2f ea b8 3e 46 b8 60 bd
       -0.20665616 -0.19265585 0.36116168 -0.054863237

bias f4 [10]
000000 9f 21 fe 3c 96 96 04 3f 8e 95 04 3f 14 4e eb 3e
       0.031021891 0.51792276 0.517907 0.45958006
000010 75 97 b8 3d 04 8e a8 3e fc 62 f0 bd 8a 90 b4 3e
       0.09013263 0.3292085 -0.1173763 0.35266525
000020 48 8e 95 3d 1a 35 b1 3e
       0.073025286 0.34610826

weight f4 [10, 10]
000000 43 a6 a1 3f b6 2d 9d 3f b0 b8 90 3f 81 a6 5b 3f
       1.2628864 1.2279575 1.1306362 0.8580094
000010 a7 f3 96 3f e6 32 8c 3f 18 da f8 3d 4d 18 03 40
       1.1793107 1.0953033 0.12150973 2.0483582
000020 54 34 45 3f 93 ba 9c 3e a6 71 6e 3f 55 c3 7c 3f
       0.7703297 0.30611095 0.93142164 0.98735553
000030 3d a2 54 3f 78 24 91 3f 97 3e b0 3f 96 4c 5d 3f
       0.83060056 1.1339254 1.3769101 0.86444986
000040 c1 0a 58 3e 4c 8f d1 3f 68 2a 48 3f 85 d9 29 3f
       0.21097852 1.6371856 0.78189707 0.66347533
000050 04 b0 8c 3f c6 7b 66 3f cb 7d ae 3f 32 1d 45 3f
       1.0991216 0.90032613 1.3632139 0.76997674
000060 6c 24 65 3f fb a5 7f 3f df 02 73 be 10 27 fe 3f
       0.895087 0.9986264 -0.23731564 1.9855671
000070 20 e2 99 3f d6 b5 3e 3f d2 89 8d 3f 53 0e 9b 3f
       1.2022133 0.7449621 1.1057684 1.2113746
000080 ef a1 a4 3f 84 f3 34 3f 4b 63 67 3f de 29 6c 3f
       1.2861918 0.70684075 0.90385884 0.92251384
000090 03 68 0e 3e e7 cf 17 40 f1 14 3e 3f 7f 15 43 3f
       0.13906865 2.3720644 0.74250704 0.76204675
0000a0 71 43 91 3f 73 b8 43 3f de 88 6c 3f 51 57 54 3f
       1.1348706 0.7645332 0.9239634 0.82945734
0000b0 0f 58 96 3f 10 4a ab 3f b6 a6 48 be f3 47 13 40
       1.1745623 1.3381977 -0.19594845 2.3012664
0000c0 ce 5d 51 3f f6 ca 5c 3f f3 d4 66 3f 93 af a4 3f
       0.8178376 0.86247194 0.90168685 1.2866081
0000d0 23 74 57 3f c5 cc 8b 3f 86 d3 b6 3f da 16 9c 3f
       0.84161586 1.0921866 1.4283302 1.2194474
0000e0 19 21 77 3e e3 ac d3 3f 6a 71 62 3f f8 55 05 3f
       0.2413372 1.6537136 0.88454306 0.520843
0000f0 c1 d8 3b 3f 5d 36 88 3f a9 29 95 3f 8f 9a a2 3f
       0.73377615 1.064159 1.1653339 1.2703418
000100 68 4a 89 3f 9e df 97 3f 89 28 c9 bd 58 d9 1a 40
       1.0725832 1.1865118 -0.098221846 2.4195156
000110 aa b4 48 3f 44 97 8f 3f 06 b8 27 3f 3a 93 60 3f
       0.7840067 1.1218038 0.6551517 0.8772465
000120 0b b4 74 3f b8 86 88 3f 68 d1 5f 3f 41 fa 8a 3f
       0.95587224 1.0666113 0.87428904 1.0857621
000130 94 c4 28 3e 7d a2 32 40 7a ea 94 3f a6 a3 e3 3e
       0.16481239 2.7911675 1.1634057 0.4446079
000140 c5 7b 88 3f a1 b1 55 3f 99 9e 8a 3f 15 b6 8c 3f
       1.0662771 0.83474165 1.082965 1.0993067
000150 c1 31 63 3f 88 da 63 3f 0b b6 76 be 1d 5c fe 3f
       0.88747793 0.8900533 -0.24092881 1.9871861
000160 6f ee 67 3f e8 63 54 3f 5a 9f 3a 3f 57 f7 7b 3f
       0.90598196 0.82964945 0.728994 0.98424286
000170 0a 83 63 3f 12 b7 9a 3f a7 8d 9d 3f 90 e6 4d 3f
       0.88871825 1.2087119 1.2308854 0.80429935
000180 82 b6 bd bd e9 34 08 40 a5 93 66 3f 9b 4c 1d 3f
       -0.09263326 2.1282294 0.9006904 0.61445016

bias f4 [10]
000000 b1 35 2d 3f 2b 78 69 3f 1c cd 9e 3f db d5 79 3f
       0.6766005 0.91198987 1.2406344 0.9759194
000010 97 8e 93 3f c1 d8 3a 3f d6 ae 81 3f 67 f0 93 3f
       1.152789 0.7298699 1.0131481 1.155774
000020 8a 6c 9f 3f f0 44 50 3f
       1.2454998 0.8135519

weight f4 [10, 10]
000000 29 28 2e 3d a9 c6 31 3e 28 27 1b 3d 7f 8c 58 3e
       0.04251877 0.17360939 0.03787914 0.21147345
000010 b8 d9 99 3e 9a 86 81 3e bc 42 2e be 41 a5 91 3e
       0.3004892 0.25298005 -0.17017645 0.2844639
000020 59 97 5a 3d 1e 94 5a be 48 9e 9b be 73 1a 55 3e
       0.053366993 -0.21345565 -0.30394197 0.20810871
000030 99 80 11 be ab b9 40 be 01 b9 31 be 6c 66 65 3e
       -0.14209212 -0.18820827 -0.1735573 0.22402352
000040 e9 b6 19 3e 52 90 93 be 38 9c 65 3d 54 5c 89 3e
       0.15011181 -0.28821045 0.056057185 0.26828253
000050 7a 70 17 3e 13 cc 34 3e cb a9 a4 bb 07 90 15 3e
       0.14789 0.17655973 -0.0050251237 0.14605723
000060 e3 50 f0 3d 5f 91 bf bd 57 08 eb 3c 11 f1 30 be
       0.11734178 -0.09353899 0.0286905 -0.1727946
000070 91 79 44 3d bc 90 eb bd 82 70 0c 3e ca 5c d7 3d
       0.047967497 -0.11502215 0.13714793 0.10515745
000080 db 39 6c bd d8 3c 4e be 6c a6 05 bd dd 01 4f 3e
       -0.057672363 -0.20140398 -0.032629415 0.20215555
000090 29 2f 8e bd e5 f2 55 be c7 58 81 be ad 4c 24 3e
       -0.06942589 -0.20893438 -0.25263044 0.16044874
0000a0 e2 d1 00 3e 5e 53 2b bd b4 d6 c5 3d f5 57 9f bd
       0.12580064 -0.041827552 0.09660092 -0.07780448
0000b0 30 a4 9f 3d bb 6b 6a 3e e2 65 7b 3d a2 d4 bc bc
       0.07794988 0.22892658 0.06137646 -0.02305061
0000c0 52 91 10 3d e9 ad 52 3d d6 27 8c 3e ef 1a 5a be
       0.03529484 0.051435385 0.27374142 -0.21299337
0000d0 24 a2 3a 3e 8f 06 88 be d7 30 28 be 58 58 8b be
       0.18225914 -0.26567504 -0.16424881 -0.27215838
0000e0 08 9e 81 be 6d da d0 bd 9b 5e fa bd 8f ea 0f 3e
       -0.2531588 -0.101979114 -0.12225076 0.14054321
0000f0 21 9c 26 3e 32 61 ca 3d c7 65 86 bd 38 d5 03 be
       0.16270496 0.0988182 -0.06562381 -0.12874305
000100 d1 6c ad 3d 96 ed 91 be 6d 86 5e 3e 7e 41 80 3d
       0.08468021 -0.28501576 0.21730967 0.06262492
000110 38 af e6 bd eb eb 7d 3e 42 b5 8f be f7 88 71 3d
       -0.11263889 0.24797027 -0.28067976 0.05896851
000120 6b 6f 05 3e fb a0 f8 3d 32 41 96 3e 5c 47 9d 3e
       0.13030784 0.121400796 0.29346615 0.30718505
000130 fa 1d dd 3d 51 5e 11 bc 8b 42 54 3e 30 87 91 be
       0.10796733 -0.008872584 0.20728509 -0.28423452
000140 81 8f 7c be 15 0d c7 3d 88 1c 86 3c b9 45 fa bc
       -0.24664117 0.09719292 0.016371027 -0.030550824
000150 46 2e 67 3e 0a 2a 3e bd 1d 67 80 3e 2f 75 b8 bd
       0.22576246 -0.04642681 0.2507867 -0.09006726
000160 fa 87 66 be 9d 43 db 3d b9 ec 4f bb cf 8c f3 3d
       -0.22512808 0.107062556 -0.003172679 0.118920915
000170 8a 1b 95 bd 7e bc 7b bd ed 3d 30 3e 49 c4 51 3e
       -0.07280643 -0.061459057 0.17211123 0.20485033
000180 c8 cf 84 bd 39 a6 95 3e bc 4a 25 be 72 4c 76 be
       -0.06484944 0.2922838 -0.1614179 -0.24052599

bias f4 [10]
000000 54 93 22 3e 5a 8d e4 bd 84 56 14 3e bc c0 38 3e
       0.15876514 -0.11159773 0.14486128 0.18042272
000010 ce 7e 82 be bb 25 85 be 76 99 5d 3e 78 7c 8e 3e
       -0.2548737 -0.2600535 0.21640572 0.27829337
000020 a8 d8 23 3e 96 ef 6d 3e
       0.16000617 0.23235926
