models/model_omnet_free_obst.pth (torch, 14215 bytes, 22 tensors)

weight f4 [10, 2]
0	0xbe1e9d5d	-0.15489717
1	0xbecf1081	-0.4044228
2	0x3e8c0d9f	0.27354142
3	0x3ee817f9	0.4533079
4	0xbe878b88	-0.2647364
5	0xbc4f85fe	-0.012666224
6	0xbedad0f4	-0.42737544
7	0xbecd45ab	-0.40092215
8	0x3f04ebec	0.5192249
9	0x3f5166dd	0.8179758
10	0xbf238616	-0.63876474
11	0x3d543f0e	0.051817946
12	0xbef30220	-0.4746256
13	0x3eaf22b6	0.3420617
14	0x3e698141	0.22803213
15	0x3e1c8a01	0.1528702
16	0xbe689751	-0.22713973
17	0xbd78279f	-0.06058466
18	0xbe561bc7	-0.20909034
19	0xbeaaa63a	-0.33329946

bias f4 [10]
0	0x3be6cb03	0.007043244
1	0x40ba2428	5.8169136
2	0xbf044ac2	-0.5167657
3	0x3ebe95df	0.37223718
4	0xc09f49fa	-4.9777803
5	0xbf0ced5a	-0.5504967
6	0x3f060831	0.5235625
7	0xc0bdc491	-5.930245
8	0xbed8b4fb	-0.42325577
9	0xbea108c1	-0.3145199

weight f4 [10, 10]
0	0x3daf261d	0.085521914
1	0xc00b5a01	-2.1773684
2	0x3d7dc209	0.061952624
3	0x3e0689a1	0.13138439
4	0x3f2ca562	0.67439854
5	0xbe461248	-0.19342911
6	0x3db516bc	0.08842227
7	0x403c8892	2.9458356
8	0x3e9219c4	0.28535283
9	0x3d9bc3a6	0.07605676
10	0xbe8cbc41	-0.27487376
11	0x3e238da5	0.15972002
12	0x3dd5840c	0.104255766
13	0xbe9e574a	-0.3092597
14	0xc03ec18d	-2.9805634
15	0x3e8a5597	0.27018425
16	0x3e0a4e74	0.1350649
17	0x3efa27b2	0.4885841
18	0xbe8834a2	-0.26602656
19	0xbe39ff80	-0.18163872
20	0x3ca70e7c	0.020392649
21	0xbfc22dc7	-1.517022
22	0xbd020fd2	-0.03175337
23	0x3c1734a6	0.009228861
24	0x3edbbd9e	0.42918104
25	0x3deee896	0.11665456
26	0xbc1dc307	-0.009629018
27	0x40099a3f	2.1500394
28	0xbde44a59	-0.11146993
29	0xbe4e8057	-0.20166145
30	0x3e9267fa	0.28594953
31	0xc02876d0	-2.6322517
32	0x3dfaafd6	0.12240569
33	0xbdea54c3	-0.11441948
34	0x3f7b7fa2	0.9824163
35	0xbde036eb	-0.10947975
36	0xbd9a2828	-0.075271904
37	0x4065e5f8	3.5921612
38	0xbe152756	-0.14565787
39	0x3de0441e	0.10950492
40	0xbe5dea7f	-0.21671484
41	0xbfd5034a	-1.6641629
42	0xbd208e6a	-0.039198317
43	0x3e8ffd99	0.28123167
44	0x3f182806	0.5943607
45	0x3e8c7e51	0.27440122
46	0xbe36359f	-0.17793892
47	0x3ffb1246	1.9614952
48	0xbb8a912a	-0.0042287307
49	0x3e5a19ae	0.21298859
50	0x3d203644	0.03911425
51	0xc0064214	-2.097783
52	0x3d687f48	0.05676201
53	0x3e06e74b	0.13174169
54	0x3f21f9b3	0.63271636
55	0x3d08e81e	0.03342449
56	0x3dcbacd2	0.09945072
57	0x40371c63	2.8611076
58	0x3e2f50d3	0.17120676
59	0x3e27191c	0.16318172
60	0xbde4f545	-0.11179594
61	0x3e8d2087	0.2756388
62	0x3e8e47ca	0.27789146
63	0x3e6dcebc	0.23223394
64	0xbec0f589	-0.37687328
65	0xbe8cb489	-0.27481487
66	0x3d0b4edd	0.034010757
67	0xbcc085ef	-0.023501365
68	0x3da32cbd	0.079675175
69	0xbe8e3242	-0.2777272
70	0xbe45ec86	-0.19328508
71	0xbfeb5f9c	-1.8388553
72	0xbdc8f13f	-0.09811639
73	0x3e2a0648	0.16603959
74	0x3f2724d3	0.65290564
75	0xbe87e335	-0.26540533
76	0xbe9c851c	-0.30570304
77	0x400fd7e2	2.2475514
78	0xbde85ecf	-0.11346208
79	0x3e97d593	0.29655132
80	0xbe98b557	-0.2982585
81	0xbfa2d64b	-1.2721647
82	0x3e1f5d9c	0.15563053
83	0x3dc12d93	0.09432521
84	0x3e4e4424	0.20143181
85	0xbbf56949	-0.0074893576
86	0x3e07b128	0.13251173
87	0x4012e380	2.2951355
88	0xbd421e5d	-0.047392238
89	0xbe845130	-0.2584319
90	0x3c06c214	0.008224983
91	0xbfea274d	-1.8293244
92	0x3e4a5677	0.19759546
93	0xbdfd4544	-0.12366727
94	0x3f12eab0	0.57389355
95	0xbc4f07ee	-0.012636168
96	0xbe74b8c3	-0.23898606
97	0x401beb68	2.436243
98	0xbe46482e	-0.19363472
99	0x3e4d3cff	0.200428

bias f4 [10]
0	0xc0ba13f7	-5.814937
1	0xbef82ae6	-0.4847023
2	0xc085b48b	-4.178289
3	0xc0bfa4b7	-5.988857
4	0xc07938fa	-3.8941026
5	0xc0a8667e	-5.2625113
6	0xc03d90df	-2.9619672
7	0xc0a48f74	-5.1425114
8	0xc0868759	-4.204022
9	0xc09ad630	-4.838646

weight f4 [10, 10]
0	0x414ac103	12.672122
1	0x3ff6b76e	1.9274728
2	0x4102c2cc	8.172558
3	0xc137555a	-11.458338
4	0x40e2c2a6	7.086261
5	0x4144a577	12.290397
6	0x4019820d	2.3985627
7	0x412d5efb	10.835689
8	0x40d6eab2	6.7161493
9	0x4128b3a7	10.54386
10	0x41454226	12.3286495
11	0x3ff95e7f	1.9481963
12	0x40fd1b4f	7.9095836
13	0xc132a181	-11.16443
14	0x40e7f564	7.248705
15	0x4142391d	12.138944
16	0x4016ad1c	2.3543158
17	0x412dcdea	10.862772
18	0x40e251a8	7.072468
19	0x412ed3cb	10.926707
20	0x4141d287	12.113898
21	0x3fc2a5bd	1.5206829
22	0x410a5c8f	8.647597
23	0xc134caeb	-11.2995405
24	0x410af3cb	8.68452
25	0x4134fd03	11.31177
26	0x4005ba38	2.089491
27	0x4123f799	10.247949
28	0x40efd290	7.4944534
29	0x41269f72	10.413927
30	0x412f9749	10.974435
31	0xbfa8b226	-1.3179367
32	0xc01323cd	-2.29906
33	0xc08301fd	-4.0939927
34	0xbfcd05e6	-1.6017425
35	0x4128452a	10.516886
36	0x400eec3c	2.2331686
37	0x40b7c446	5.742709
38	0xc08dac8e	-4.427314
39	0x409d9919	4.9249387
40	0x41437b64	12.217625
41	0x40b8f4e7	5.7798953
42	0x40988a59	4.766888
43	0xc11693d9	-9.411096
44	0x40a0237b	5.004331
45	0x4136e25b	11.430263
46	0x40ffc7ea	7.9931536
47	0x411510f1	9.316636
48	0x4029c5fd	2.6527092
49	0x41140354	9.250813
50	0x414afc9f	12.686675
51	0x3fe929f2	1.8215926
52	0x410143bd	8.079038
53	0xc133cdd2	-11.237749
54	0x40f5a7bf	7.676727
55	0x413c5d80	11.772827
56	0x3f9661a0	1.1748543
57	0x41258571	10.345078
58	0x40e45a6b	7.1360373
59	0x412b15d9	10.692834
60	0x40b591d1	5.67405
61	0x3f9e4fd4	1.2368112
62	0x40b99a66	5.8000975
63	0x40b76617	5.731212
64	0x40b38f57	5.6112475
65	0x40b362e0	5.6058197
66	0x405c1fc7	3.4394395
67	0x40c53179	6.162289
68	0x40c5675e	6.168868
69	0x40c502b3	6.1565795
70	0x4142dbc8	12.178658
71	0x4028941a	2.6340394
72	0x40fd67d7	7.918926
73	0xc137ad03	-11.479739
74	0x40ebdf79	7.3710294
75	0x4142d2e3	12.176486
76	0x40396c68	2.8972416
77	0x412c79cd	10.7797365
78	0x40e6da13	7.2141204
79	0x412e6926	10.900671
80	0x413c3dfa	11.765131
81	0x400b73c0	2.1789398
82	0x410b1615	8.692891
83	0xc134e381	-11.305543
84	0x410b5f8e	8.710829
85	0x4137d012	11.488298
86	0x40203cc7	2.5037096
87	0x41217333	10.090625
88	0x40fb6760	7.856369
89	0x41257f71	10.343614
90	0x4141c5a5	12.110753
91	0x3fa7c5e2	1.3107264
92	0x41000923	8.002231
93	0xc136447c	-11.39172
94	0x4102edc3	8.183047
95	0x413f2068	11.945412
96	0x3fdf5e99	1.7450744
97	0x4123846d	10.2198305
98	0x40eb12f9	7.346066
99	0x412cbb72	10.795763

bias f4 [10]
0	0xc11a0338	-9.625786
1	0xc11f3f4d	-9.952954
2	0xc11dca86	-9.861944
3	0xbfbe163c	-1.4850535
4	0xc0e7c103	-7.242311
5	0xc11d4b85	-9.830937
6	0x403efe79	2.9842818
7	0xc11a48ea	-9.642801
8	0xc11d8618	-9.845238
9	0xc11b76b6	-9.716482

weight f4 [10, 10]
0	0xbe2d4394	-0.1692031
1	0x3e0e3563	0.13887553
2	0xbbf7b3e3	-0.007559286
3	0xbdfbd255	-0.12295977
4	0xbe06a862	-0.1315017
5	0x3e48ef1a	0.1962246
6	0x3e1fda3c	0.15610594
7	0xbdee026e	-0.11621557
8	0x3e376762	0.17910531
9	0xbe375fd0	-0.17907643
10	0xbdfa5cd8	-0.1222474
11	0xbdc78915	-0.09742943
12	0xbc64e1d8	-0.013969861
13	0xbd689177	-0.05677935
14	0x3d39d4fd	0.045369137
15	0x3e713b57	0.23557793
16	0xbc2bdd67	-0.010489798
17	0xbdb4741d	-0.08811209
18	0x3e61b808	0.22042859
19	0x3e60636d	0.21912928
20	0x3dcc77c2	0.099837795
21	0xbd96d846	-0.0736547
22	0x3d148457	0.03625902
23	0xbd257bc5	-0.04040124
24	0xbdaede82	-0.08538534
25	0xbe2d6216	-0.16931948
26	0x3e7db6a2	0.247767
27	0x3db2943d	0.087196805
28	0x3e9cb65c	0.3060788
29	0x3e87ac62	0.26498705
30	0xbe1c8952	-0.15286759
31	0x3d93e1ae	0.07220779
32	0x3e989076	0.29797715
33	0xbe9421a1	-0.28931907
34	0xbe922c10	-0.28549242
35	0xbd7ddfc3	-0.061980974
36	0xbe1dfb63	-0.15427928
37	0xbe41ee0d	-0.18938465
38	0x3e159963	0.14609294
39	0xbc78c2bd	-0.015183148
40	0xbe0c70f6	-0.13714966
41	0xbd1596fc	-0.036520943
42	0xbd10d8f2	-0.035363145
43	0x3e572943	0.21011834
44	0x3e87adcc	0.26499784
45	0x3c829ad7	0.015942974
46	0xbd2dd1d5	-0.04243644
47	0xbe068b82	-0.13139156
48	0xbdc97c58	-0.0983817
49	0xbdb71d4f	-0.08941137
50	0x3e9e7c42	0.30954176
51	0xbdb18a03	-0.08668902
52	0xbe458620	-0.19289446
53	0x3d837dee	0.064205036
54	0x3e713dbe	0.23558709
55	0xbe38c070	-0.18042159
56	0xbe4ccdd0	-0.20000386
57	0x3e8125a4	0.2522403
58	0x3e7f0d00	0.24907303
59	0xbd8d9861	-0.069138296
60	0x3d610d06	0.05494406
61	0xbe2c5b40	-0.16831684
62	0x3e089490	0.13337922
63	0x3df93e11	0.12170041
64	0xbe59edb6	-0.21282086
65	0x3e2285a2	0.1587129
66	0xbe51ef02	-0.2050133
67	0xbea0cae0	-0.3140478
68	0xbe1f1419	-0.1553501
69	0x3dd68ce4	0.104760915
70	0x3d0a5d25	0.033780236
71	0xbe1f3235	-0.15546496
72	0x3d167699	0.036734197
73	0xbe7c2985	-0.24625213
74	0xbe30f933	-0.17282562
75	0xbe524f6b	-0.20538108
76	0x3e2ece8c	0.17070979
77	0x3d519334	0.051165774
78	0xbb2bbfad	-0.0026206777
79	0x3d131598	0.035909265
80	0xbe1fc324	-0.15601784
81	0x3e45f63a	0.19332209
82	0x3e2970f1	0.1654699
83	0x3e1eb0be	0.1549711
84	0x3da3ad5d	0.07992051
85	0x3e380bfb	0.1797332
86	0x3d20bab0	0.03924054
87	0xbdb1f519	-0.08689327
88	0x3e901efd	0.28148642
89	0xbe689130	-0.22711635
90	0x3df9677e	0.12177943
91	0xbe2cf55d	-0.16890474
92	0x3e15d91b	0.146336
93	0x3e6b5b64	0.22984082
94	0xbdc8fb8b	-0.09813603
95	0xbe1ad6d5	-0.15121014
96	0x3e92b92b	0.28656897
97	0xbd1e7c89	-0.038692985
98	0x3b967254	0.0045912657
99	0x3e523e82	0.20531657

bias f4 [10]
0	0x3e9902da	0.29884988
1	0xbd5397eb	-0.051658552
2	0x3dead21b	0.11465856
3	0xbe94418c	-0.28956258
4	0xbe5faa6a	-0.21842352
5	0xbe7e5bda	-0.24839726
6	0xbe0d8f6d	-0.13824244
7	0xbe8343fe	-0.2563781
8	0x3e9791e8	0.29603505
9	0x3e49cfd7	0.19708191

weight f4 [10, 10]
0	0xb9401bbe	-0.00018320882
1	0xbe0afeeb	-0.13573806
2	0xbe2d341d	-0.16914411
3	0x3cd74f22	0.02628285
4	0xbcb6509c	-0.022255234
5	0xbdab321b	-0.08359166
6	0x3e80b90b	0.25141177
7	0xbda1746e	-0.07883535
8	0x3e7f10aa	0.249087
9	0x3e95f82c	0.29290903
10	0x3e630fe1	0.22174026
11	0x3d0cecf7	0.034405675
12	0xbd3b527a	-0.045732953
13	0x3e9647e0	0.2935171
14	0xbe439108	-0.19098294
15	0xbe1d36a7	-0.1535288
16	0x3dd549f6	0.104144976
17	0x3e923fc3	0.2856427
18	0xbe463754	-0.19357044
19	0x3d6102e7	0.05493441
20	0x3e96b553	0.29435214
21	0xbe18afb0	-0.1491077
22	0x3d00fead	0.031492878
23	0x3e4eec4d	0.20207329
24	0x3d56be6b	0.05242769
25	0xba9a2a7d	-0.001176193
26	0xbe49b306	-0.19697198
27	0xbe0a4a1d	-0.13504834
28	0xbde7a4f3	-0.113107584
29	0xbc2c0cfe	-0.010501144
30	0xbd6b64a4	-0.057469025
31	0xbe8a036b	-0.26955733
32	0x3d105de5	0.035245795
33	0xbe3c61a2	-0.18396619
34	0x3e600d4b	0.21880071
35	0xbe9526eb	-0.29131255
36	0xbd22eb15	-0.039774973
37	0xbe1e1380	-0.15437126
38	0x3e4a88d3	0.19778757
39	0xbe666881	-0.22500803
40	0x3e017dc3	0.1264563
41	0x3e2281d4	0.15869838
42	0xbca6d188	-0.020363584
43	0x3c3ff5cb	0.011716316
44	0xbe4fecb1	-0.20305134
45	0x3dc1a02b	0.09454378
46	0x3e8f0f85	0.27941528
47	0x3e3452ac	0.17609662
48	0x3e866dc2	0.26255614
49	0x3deb8059	0.1149909
50	0x3d508e5b	0.05091701
51	0x3e784622	0.24245504
52	0x3e5d924c	0.21637839
53	0xbea0fb3b	-0.31441674
54	0xbd9ca00a	-0.076477125
55	0xbe7127e2	-0.2355037
56	0xbd76a1ff	-0.060213085
57	0x3e50077e	0.20315358
58	0x3d580931	0.05274314
59	0xbea0008d	-0.3125042
60	0xbe8440e5	-0.2583076
61	0xbdc8b4a1	-0.09800077
62	0xb9975fd1	-0.00028872353
63	0x3e8da11e	0.27661985
64	0x3e3f0f74	0.18658239
65	0x3e468fb0	0.1939075
66	0x3e94b968	0.29047704
67	0xbe5d23a3	-0.21595626
68	0xbd507f6a	-0.05090276
69	0x3e2eda68	0.17075503
70	0xbd25444f	-0.040348347
71	0x3e3b7b04	0.18308645
72	0xbe5dad90	-0.2164824
73	0xbe75a6af	-0.23989366
74	0x3e8fe179	0.2810171
75	0x3cd02c5d	0.025411779
76	0x3e822c27	0.2542431
77	0xbe9a9b7f	-0.3019676
78	0xbe04ac02	-0.12956241
79	0x3bc33486	0.005957189
80	0x3d09a557	0.033604946
81	0x3dd80ec4	0.10549691
82	0x3e34a07e	0.17639348
83	0xbdd2dcac	-0.10295996
84	0xbe51a222	-0.20472005
85	0xbea010ae	-0.31262726
86	0x3dff2909	0.12458999
87	0xbd286454	-0.041111305
88	0xbe14ce66	-0.1453186
89	0xbd595657	-0.053060856
90	0x3e557187	0.20844088
91	0xbe1798e7	-0.14804421
92	0x3e8fcaa3	0.28084287
93	0x3e930d97	0.28721306
94	0x3e60ace6	0.21940956
95	0x3cc530dc	0.02407115
96	0x3e3f83c6	0.18702611
97	0x3e7674ab	0.24067943
98	0x3e51f7df	0.20504712
99	0x3d3bf523	0.045888077

bias f4 [10]
0	0xbe79bc87	-0.24388324
1	0xbdb089b6	-0.08620016
2	0xbe18b879	-0.1491412
3	0xbe606be0	-0.21916151
4	0x3e82024c	0.25392377
5	0x3e7ab2b1	0.24482228
6	0x3da68ad1	0.08131946
7	0x3d7508ea	0.059822954
8	0xbe871218	-0.26380992
9	0xbe8fab9e	-0.2806062

weight f4 [1, 10]
0	0xc1edf331	-29.743746
1	0xc1ee1423	-29.759832
2	0xc1ef8f4e	-29.944973
3	0xc1e9dcbc	-29.23278
4	0xc1eea087	-29.828382
5	0xc1eee301	-29.860842
6	0xc1ea38bf	-29.277708
7	0xc1edfbbf	-29.747923
8	0xc1f05769	-30.04268
9	0xc1ef0ea0	-29.882141

weight f4 [10, 2]
0	0x3ebbd95a	0.36689264
1	0xc005df12	-2.0917401
2	0x3dd62685	0.10456566
3	0xbfa870db	-1.3159441
4	0xbf0de065	-0.55420524
5	0x3e567e93	0.20946722
6	0xbe51b183	-0.20477872
7	0x3f167058	0.5876517
8	0x3e05e74f	0.13076518
9	0x3f4cbddf	0.7997722
10	0x3f2f492d	0.6847103
11	0x3b857c6c	0.00407367
12	0xbe8b8b90	-0.27254915
13	0xbda817c7	-0.0820766
14	0x3eee7b9a	0.46578676
15	0xbff832b8	-1.9390478
16	0xbf283b17	-0.65715164
17	0x3ee6b885	0.45062652
18	0xbf349812	-0.7054454
19	0x3e8c3b67	0.2738907

bias f4 [10]
0	0xc07075c7	-3.7571886
1	0x40b90470	5.7817917
2	0x3f12df70	0.5737219
3	0xbec2f618	-0.3807838
4	0x40cb4b85	6.3529687
5	0xc0b97cac	-5.7964687
6	0x3b7faca2	0.003901281
7	0x40931d8b	4.5973563
8	0xbedff867	-0.43744203
9	0xbf341636	-0.7034639

weight f4 [10, 10]
0	0x3f9385e3	1.1525234
1	0xc0029ecd	-2.0409424
2	0xbe1b2f70	-0.15154815
3	0x3daf983b	0.085739575
4	0xbfc647f1	-1.5490705
5	0x3f577fba	0.8417927
6	0x3e9bf4e7	0.30460283
7	0xbec16e58	-0.37779498
8	0xbe976990	-0.29572725
9	0xbe5357be	-0.2063894
10	0x3e8b5101	0.2721024
11	0x3fb18228	1.3867846
12	0xbdff95a9	-0.12479717
13	0xbe1786c8	-0.14797509
14	0x3e076cf8	0.13225162
15	0xbfe466e1	-1.7843896
16	0xbe94f08f	-0.29089782
17	0xbf3b0890	-0.7305994
18	0x3e21d6c5	0.15804584
19	0x3e86f514	0.26358855
20	0x3f598564	0.8496916
21	0xbfddc1d8	-1.7324781
22	0xbe9cfcc5	-0.30661598
23	0x3cf55e89	0.029952304
24	0xbfe4a1a9	-1.7861835
25	0x3f776980	0.96645355
26	0x3b404e57	0.002934357
27	0xbeae97c8	-0.34100175
28	0x3caafc2b	0.020872196
29	0x3e6e058d	0.23244305
30	0x3f91ee27	1.1400803
31	0xbf8a5aaf	-1.0808924
32	0x3e0abaca	0.13547817
33	0x3e111cd6	0.14171156
34	0xbf9ac2c0	-1.2090683
35	0x3e8b8007	0.27246115
36	0xbe234998	-0.15946043
37	0xbf11bdd7	-0.569303
38	0x3d123f78	0.03570506
39	0xbe531db7	-0.20616804
40	0xbf10d518	-0.56575155
41	0x40243a9f	2.566078
42	0x3e3a0562	0.18166116
43	0x3db92f8b	0.09042271
44	0x3fea1bc0	1.8289719
45	0xbfc34f31	-1.5258542
46	0xbe3cbedc	-0.18432182
47	0x3f06e0fb	0.5268704
48	0x3d509bc1	0.05092979
49	0xbdde2b4d	-0.10848103
50	0xbfa7be79	-1.3105003
51	0xbf1620af	-0.5864362
52	0xbea06b16	-0.313317
53	0xbe51bb16	-0.20481524
54	0x3fbc00e7	1.4687775
55	0x3e66d0b6	0.22540554
56	0x3e05c9e6	0.130653
57	0x3cd6f316	0.02623896
58	0x3da8609c	0.08221552
59	0xbe79dbf9	-0.24400319
60	0x3f7f9a72	0.9984504
61	0xbfbf1435	-1.4928042
62	0x3df6a0b6	0.12042372
63	0x3dfbffb0	0.12304628
64	0xbfc9c4d3	-1.5763191
65	0x3f7918b0	0.97303295
66	0xbcfc3f87	-0.030792011
67	0xbf19680f	-0.59924406
68	0x3e0806c1	0.13283826
69	0xbd42b93c	-0.047539935
70	0x3f39a90e	0.7252358
71	0xbfdd8913	-1.7307457
72	0x3e0be63f	0.1366205
73	0x3dff839d	0.12476275
74	0xbfcaa292	-1.5830863
75	0x3f489094	0.7834561
76	0xbe621217	-0.22077213
77	0xbdfbc2e7	-0.12293034
78	0x3e9099ca	0.28242332
79	0x3de38099	0.111085124
80	0x3f454fd5	0.7707494
81	0xbe6968db	-0.22793905
82	0xbe8d637d	-0.27614966
83	0xbe2c7434	-0.16841203
84	0xbf51eea3	-0.82004756
85	0x3c354c44	0.011065546
86	0xbca8677d	-0.02055716
87	0xbeee41d5	-0.465346
88	0x3ce0d160	0.027443588
89	0x3e8eabb2	0.27865368
90	0x3fa01d0e	1.2508867
91	0xbff251ba	-1.8931191
92	0xbe9d4445	-0.30716148
93	0xbe9c1ad2	-0.30489212
94	0xbfd3a8ca	-1.6535885
95	0x3f815e7a	1.0106957
96	0xbe682179	-0.22669019
97	0xbf201e18	-0.6254592
98	0xbc7d447f	-0.015458225
99	0x3e961128	0.29309964

bias f4 [10]
0	0xc0994a3a	-4.790311
1	0x3fae39c4	1.3611379
2	0xc09fed2d	-4.997702
3	0xc016b3bd	-2.3547204
4	0x4050043c	3.2502584
5	0x3ef49deb	0.47776732
6	0xc0a13ef0	-5.038933
7	0xc09dcc48	-4.9311867
8	0xc00e5da6	-2.2244658
9	0xc0bb7a55	-5.858683

weight f4 [10, 10]
0	0x40fcc97d	7.8995957
1	0x4096c095	4.7110085
2	0x41134e6d	9.206647
3	0x3fbd70a7	1.4800004
4	0xc11e4469	-9.891702
5	0xc043952b	-3.0559795
6	0x40f7023c	7.7190228
7	0x411be864	9.744236
8	0x3fd9d55e	1.701824
9	0x410e206e	8.882917
10	0x4100ab20	8.041779
11	0x404dd457	3.2160852
12	0x411b5fbd	9.710874
13	0x3f8ce508	1.1007395
14	0xc1263445	-10.387761
15	0xc049a84b	-3.1508968
16	0x40fa9e44	7.8318195
17	0x41157241	9.340394
18	0x400db330	2.2140617
19	0x410e83b3	8.907153
20	0x4101f73e	8.122862
21	0x40238f87	2.5556352
22	0x41183989	9.514047
23	0x3fb23eda	1.3925431
24	0xc127b64f	-10.482009
25	0xc04338e6	-3.0503478
26	0x40f2ebcd	7.5912843
27	0x41211b70	10.069199
28	0x3fbae955	1.4602457
29	0x410bfe17	8.749534
30	0x4103321f	8.199737
31	0x410d804a	8.843821
32	0x4107255a	8.446619
33	0x3fdbe3e2	1.7178919
34	0xc10976b5	-8.591481
35	0xc038ba25	-2.8863614
36	0x4102c1a7	8.172278
37	0x410148cd	8.080274
38	0x3faccef8	1.3500662
39	0x4112ce5f	9.175384
40	0x4100a364	8.03989
41	0x412fd309	10.989022
42	0x40ed61f3	7.4182067
43	0x3fac7168	1.3472109
44	0xc0b395c9	-5.6120343
45	0xc005409d	-2.0820687
46	0x40f428c6	7.629977
47	0x40d31fbb	6.5976233
48	0x3fbae418	1.4600859
49	0x411e68a4	9.900547
50	0x40a4775f	5.1395717
51	0x402c57a4	2.6928492
52	0x40c3875a	6.1102724
53	0x3fb40f51	1.4067174
54	0x4116bdbe	9.421324
55	0x40594409	3.3947775
56	0x40ae6029	5.4492383
57	0x40c7e07d	6.2461534
58	0x3fefac29	1.8724414
59	0x40c12e38	6.036892
60	0x410364c0	8.212097
61	0x3fc286dc	1.5197406
62	0x411acd61	9.675141
63	0x3f78c84c	0.9718063
64	0xc1282f52	-10.511553
65	0xc03d207f	-2.9551084
66	0x40fa6b78	7.8256187
67	0x411a263d	9.6343355
68	0x3fbdcf25	1.482884
69	0x410ae89b	8.681788
70	0x40b7767a	5.7332125
71	0x409704b2	4.719323
72	0x40b90514	5.78187
73	0x3f9e9119	1.238803
74	0x40238eab	2.5555828
75	0xbe126e71	-0.14299943
76	0x404ea0d1	3.2285655
77	0x403f9cc5	2.9939435
78	0x3fd8cc3e	1.693733
79	0x41009a25	8.037633
80	0x41030e44	8.190983
81	0x40c77eef	6.234245
82	0x410db543	8.856753
83	0x3f8ced63	1.1009945
84	0xc120dd9f	-10.054107
85	0xc03d40c9	-2.9570792
86	0x40fd4603	7.9147964
87	0x41112b58	9.073082
88	0x3f97b164	1.185101
89	0x411743d3	9.454059
90	0x41010c55	8.065511
91	0x3fd64648	1.6740198
92	0x411a2d9c	9.636135
93	0x3f8dbfe1	1.1074182
94	0xc12689fb	-10.408687
95	0xc03f9bf7	-2.9938943
96	0x40fbc0b5	7.867274
97	0x4119e7f6	9.619131
98	0x3fc5489d	1.5412785
99	0x4109b706	8.607183

bias f4 [10]
0	0xc10dcf8c	-8.863171
1	0xc10db745	-8.857244
2	0xc10e80e3	-8.9064665
3	0xc10d6cc1	-8.839051
4	0xc111aaf2	-9.104235
5	0x40afebf3	5.4975524
6	0xc10e8ca8	-8.90934
7	0xc0a5645e	-5.168502
8	0xc10db465	-8.856542
9	0xc10dacd2	-8.854692

weight f4 [10, 10]
0	0xbe0fe1f4	-0.14051038
1	0x3e95617a	0.2917593
2	0xbc3401d1	-0.010986761
3	0xbdeb84cc	-0.11499938
4	0xbe6fc7af	-0.23416017
5	0xbea08832	-0.3135391
6	0xbd0b8b11	-0.03406817
7	0xbe8e02b6	-0.27736443
8	0xbcfddbf8	-0.030988678
9	0xbc1a645c	-0.009423342
10	0xbe02b799	-0.1276535
11	0x3e155478	0.14583004
12	0xbe9f86d4	-0.31157553
13	0xbe137e98	-0.1440376
14	0x3e411333	0.1885498
15	0x3e4bc3fc	0.19898981
16	0xbd809421	-0.06278253
17	0xbe937481	-0.28799823
18	0x3e6fa02f	0.23400949
19	0x3e596506	0.21229944
20	0xbe2e66d6	-0.17031416
21	0x3e1608f4	0.14651853
22	0xbe654743	-0.22390465
23	0x3acc3d19	0.0015582173
24	0x3e7253ea	0.23664823
25	0xbd4580bf	-0.048218485
26	0x3c9c811c	0.019104533
27	0x3e23b8f7	0.15988527
28	0x3e9a2e57	0.3011348
29	0xbdd18ef9	-0.10232348
30	0xbe22e0ef	-0.15906118
31	0xbe96f637	-0.29484722
32	0x3dabbf70	0.08386123
33	0x3e19cd7b	0.15019791
34	0xbc629c4d	-0.01383121
35	0xbe0b5a93	-0.1360877
36	0xbd798079	-0.060913537
37	0x3e542122	0.20715764
38	0x3e2d92a3	0.16950469
39	0xbdc8d8a8	-0.09806949
40	0x3e79d75e	0.24398562
41	0x3e4f9c66	0.20274505
42	0x3e453012	0.19256619
43	0x3e1201cc	0.14258498
44	0xbcbbdd80	-0.022932768
45	0x3e9cd6ac	0.30632532
46	0x3e92c55a	0.28666192
47	0xbe5d26a9	-0.21596779
48	0xbe9a0ca0	-0.30087757
49	0xbe4578b9	-0.19284333
50	0x3e654972	0.22391298
51	0x3e431433	0.19050674
52	0x3e91d327	0.2848141
53	0xbe44dc7a	-0.1922473
54	0x3e5b6f7b	0.21429245
55	0xbdf91ade	-0.12163328
56	0x3e32357f	0.1740322
57	0x3c3df882	0.011594893
58	0xbe0d5fdd	-0.138061
59	0x3e21481c	0.15750164
60	0x3e99ec0d	0.30062905
61	0xbe1e2523	-0.15443854
62	0x3df8209d	0.121155955
63	0x3e50254f	0.20326732
64	0xbe9a7981	-0.30170825
65	0xbe6c3302	-0.23066333
66	0xbe8f17ac	-0.27947748
67	0x3d337bbc	0.043819174
68	0xbe0e45a9	-0.1389376
69	0xbe44a4c8	-0.19203484
70	0x3d1bb4d3	0.038014244
71	0x3e3ca45e	0.18422076
72	0x3db75e37	0.08953517
73	0xbe4dba06	-0.20090494
74	0x3da9cdbc	0.08291194
75	0x3e1e0eef	0.15435384
76	0xbe994eac	-0.29942834
77	0xbe4319b4	-0.19052774
78	0xbe0d8086	-0.13818559
79	0xbe9e0a77	-0.3086736
80	0x3c546184	0.012962703
81	0x3a78cd55	0.0009491046
82	0xbe4064d7	-0.18788467
83	0x3e6c3dc5	0.23070438
84	0x3e280fbc	0.16412252
85	0xbd640f46	-0.05567863
86	0xbe9f9349	-0.31167057
87	0xbe0dbcc4	-0.1384154
88	0x3e722012	0.23645046
89	0xbd885090	-0.06655991
90	0x3e1f2a4b	0.15543477
91	0xbcab71f6	-0.020928364
92	0xbe90ae60	-0.28258038
93	0x3e819599	0.25309446
94	0xbdb58139	-0.08862538
95	0xbe870ed1	-0.26378492
96	0x3e8fc7c3	0.28082094
97	0xbd895e77	-0.06707471
98	0x3e8b958a	0.27262527
99	0xba2a776e	-0.0006502782

bias f4 [10]
0	0xbcfea14b	-0.03108277
1	0xbd27fbe5	-0.04101171
2	0xbe81be5c	-0.25340545
3	0x3e82d1fe	0.25550836
4	0xbe8ffc03	-0.28121957
5	0x3e5b4502	0.21413043
6	0xbea15868	-0.3151276
7	0x3e80ab44	0.25130665
8	0xbe8408e0	-0.2578802
9	0xbe95d520	-0.29264164

weight f4 [10, 10]
0	0xbe990696	-0.29887837
1	0x3c1d8743	0.009614768
2	0x3dc2270a	0.09480102
3	0x3e86a09a	0.26294404
4	0x3dfd46b5	0.12367002
5	0x3e67b7f1	0.22628762
6	0x3e40d84b	0.18832509
7	0xbd9a85af	-0.07545029
8	0xbcb96168	-0.022629455
9	0xba975d49	-0.0011548187
10	0x3c1d1937	0.009588531
11	0x3cec0803	0.028812414
12	0xbe836756	-0.25664777
13	0x3e7176ac	0.23580426
14	0xbe9c4c2a	-0.3052686
15	0x3c1919be	0.009344516
16	0x3d58fde0	0.05297649
17	0x3d9c6126	0.07635717
18	0xbd55df33	-0.052214812
19	0x3d6f34fe	0.058400147
20	0x3d152fef	0.036422666
21	0xbda40fdf	-0.0801084
22	0xbb20718f	-0.0024481749
23	0xbc0151e2	-0.007893058
24	0xbe78b60a	-0.24288192
25	0xbd7ddb19	-0.061976526
26	0xbde2b91e	-0.110704646
27	0xbd0fac0e	-0.035076194
28	0xbe3d24ba	-0.18471041
29	0x3e8b1c68	0.2717011
30	0x3d188c8c	0.03724341
31	0xbddb9d4e	-0.10723363
32	0xbe3e875b	-0.18606322
33	0xbe194990	-0.14969468
34	0x3e65db12	0.2244685
35	0x3e43299b	0.1905884
36	0x3e9020d0	0.28150034
37	0xbe66b665	-0.22530515
38	0x3cd21b2e	0.025647726
39	0x3de63f6f	0.11242568
40	0x3e071f23	0.13195471
41	0xbc88ad2e	-0.016684141
42	0x3de84324	0.11340931
43	0xbe0e52a8	-0.13898718
44	0xbe8aa4f8	-0.27078986
45	0x3e939f20	0.2883234
46	0xbe1a39e0	-0.1506114
47	0x3d22856a	0.039678015
48	0x3d8cd7c7	0.06877094
49	0xbdaed885	-0.085373916
50	0x3e7581df	0.23975323
51	0xbe7b1eda	-0.24523488
52	0xbd2d3a52	-0.042291947
53	0xbe6aa8b4	-0.22915918
54	0x3d1666c9	0.036719117
55	0x3e8c9fbb	0.27465615
56	0xbdc35592	-0.095378056
57	0x3e966458	0.2937343
58	0xbe08d672	-0.13363054
59	0x3e83f61c	0.25773704
60	0xbe2ab51b	-0.16670649
61	0x3d18f602	0.037343986
62	0xbc958908	-0.018253818
63	0xbdbcdd5e	-0.0922191
64	0xbd21b8bd	-0.03948282
65	0x3e37581b	0.17904703
66	0x3c8c45a4	0.017123051
67	0xbd8d5fb2	-0.06903018
68	0xbc77a64a	-0.01511533
69	0xbd710648	-0.05884388
70	0x3c779bdb	0.015112842
71	0x3e187329	0.1488768
72	0xbe9abb6e	-0.30221123
73	0xbdd8d672	-0.10587777
74	0xbdb928a5	-0.090409555
75	0x3e8d9cd5	0.27658716
76	0x3e8b3daa	0.27195483
77	0xbdfc567e	-0.123211846
78	0x3b6e0d84	0.0036323974
79	0xbe91ccfb	-0.284767
80	0xbe79ba0a	-0.24387375
81	0x3e38e71e	0.18056914
82	0xbe517c02	-0.20457461
83	0x3df9d06c	0.121979564
84	0x3d0bce58	0.03413233
85	0x3dbc33f3	0.09189596
86	0xbd45753f	-0.048207518
87	0xbe5bb0c1	-0.21454145
88	0xbd74beff	-0.05975246
89	0x3e7ed562	0.24886087
90	0x3e81713f	0.25281712
91	0xbe1d4d92	-0.15361622
92	0xbd6d86b0	-0.057989776
93	0xbe5f0800	-0.21780396
94	0x3e03013d	0.12793441
95	0xbe147f91	-0.14501788
96	0x3e952a7b	0.29133973
97	0x3e2c7bdf	0.16844128
98	0xbea108b5	-0.31451955
99	0x3d553a9b	0.052057844

bias f4 [10]
0	0x3d766376	0.060153447
1	0x3d9ec873	0.077530764
2	0x3e98de3a	0.29857045
3	0xba5f7e75	-0.00085256185
4	0xbe138a53	-0.14408235
5	0xbe9f41d9	-0.31104925
6	0xbe1f84da	-0.15578023
7	0xbe912bc6	-0.2835371
8	0xbc4978e8	-0.012296893
9	0x3e7dafd8	0.2477411

weight f4 [1, 10]
0	0xc1ef618b	-29.922628
1	0xc1efb9b5	-29.965677
2	0xc1ee26e3	-29.768988
3	0xc1edec03	-29.74024
4	0xc1ed2072	-29.640842
5	0xc1ee5244	-29.790169
6	0xc1ee6ebd	-29.804071
7	0xc1ee394b	-29.777975
8	0xc1ed80cc	-29.68789
9	0xc1f0487b	-30.03539
