models/model_rssisim0.pth (torch, 20915 bytes, 33 tensors)

weight f4 [10, 2]
-0.2280137 0.14957318 0.66139174 -2.771861 -0.453475 -0.06198113 0.2880877 3.9366815
0.46898887 4.354837 0.4302465 4.5469866 0.7081402 -4.028301 -0.0045175827 6.237458
0.079869464 -5.033825 -0.06790755 -1.4305642
00000000: 6c7c 69be b629 193e f850 293f 2c66 31c0
00000010: e02d e8be eddf 7dbd 3b80 933e 97f2 7b40
00000020: 4f1f f03e d35a 8b40 4549 dc3e ea80 9140
00000030: ad48 353f d7e7 80c0 3b08 94bb 4299 c740
00000040: 9a92 a33d 1815 a1c0 1d13 8bbd ba1c b7bf

bias f4 [10]
-0.119383894 3.639379 0.3462251 -1.6732229 -2.4912033 -3.2812054 2.7644272 -0.96621877
4.095852 7.2797594
00000000: 8b7f f4bd 96eb 6840 6b44 b13e 2b2c d6bf
00000010: e06f 1fc0 45ff 51c0 60ec 3040 1d5a 77bf
00000020: 3811 8340 caf3 e840

weight f4 [10, 10]
0.2768757 -0.02047101 0.119171254 0.4554057 0.17850102 0.5808484 -0.46325663 4.330488
-1.8920763 -4.5175066 -0.08412805 0.012493501 -0.11069135 0.002383518 -0.23385507 -0.4210661
0.11928878 0.7153209 1.576013 3.8023198 0.23089057 -0.43874592 0.10290425 0.22426033
0.012594325 0.31028527 -0.3531767 3.3039844 2.74066 0.7364859 -0.14993742 -0.49683875
-0.03468898 0.6052243 0.6176548 0.95356506 -0.43525234 1.3467828 -3.9115784 -3.3273003
0.15437801 -1.1753736 -0.12777767 1.208088 1.529813 1.9185477 -0.97393876 2.7794507
-5.0319095 -0.3120739 0.10572193 0.5789324 -0.28623754 -1.0404481 -1.2827736 -1.2018105
0.9429316 2.0188725 2.8907745 -2.0398316 -0.28088292 0.85253114 -0.20936953 -0.34637672
-0.09199602 0.10206143 0.75134695 -6.6636434 -3.5964515 -0.42942473 0.24803212 0.68559414
0.24549429 -0.9700084 -0.50252 -0.8373133 0.96755517 -4.8733125 1.6401464 -6.7739406
-0.14430408 -0.5837672 -0.010183959 0.31947932 0.41163316 0.69320935 -0.9224465 3.1505525
0.79190934 2.6361747 -0.10983636 -0.8811265 -0.1447466 0.85451 0.76499254 1.0532359
-0.71089274 2.2606306 -2.0691276 5.0355177
00000000: a7c2 8d3e d2b2 a7bc 0f10 f43d f02a e93e
00000010: f9c8 363e 7bb2 143f f92f edbe 5c93 8a40
00000020: 8e2f f2bf 6a8f 90c0 544b acbd 8bb1 4c3c
00000030: 26b2 e2bd cc34 1c3b b477 6fbe fa95 d7be
00000040: ad4d f43d 451f 373f cbba c93f 3559 7340
00000050: 946e 6c3e 4ea3 e0be 77bf d23d 80a4 653e
00000060: 6d58 4e3c b6dd 9e3e 94d3 b4be 7b74 5340
00000070: f966 2f40 578a 3c3f 3289 19be a661 febe
00000080: 0816 0ebd fbef 1a3f a01e 1e3f d71c 743f
00000090: 65d9 debe 6163 ac3f 4d57 7ac0 7df2 54c0
000000a0: 4515 1e3e a472 96bf 26d8 02be a1a2 9a3f
000000b0: ead0 c33f f992 f53f 0d54 79bf 85e2 3140
000000c0: 6705 a1c0 26c8 9fbe bd84 d83d ea34 143f
000000d0: ba8d 92be 672d 85bf ed31 a4bf edd4 99bf
000000e0: f763 713f 3535 0140 7302 3940 9a8c 02c0
000000f0: e3cf 8fbe 7b3f 5a3f f764 56be 4a58 b1be
00000100: 6968 bcbd 9505 d13d 4658 403f 913c d5c0
00000110: 432c 66c0 8fdd dbbe 22fc 7d3e 1983 2f3f
00000120: db62 7b3e 7852 78bf 27a5 00bf 2a5a 56bf
00000130: b2b1 773f 2df2 9bc0 51f0 d13f 1fc4 d8c0
00000140: 73c4 13be c471 15bf 9fda 26bc cb92 a33e
00000150: 95c1 d23e 2b76 313f 7425 6cbf a7a2 4940
00000160: 92ba 4a3f 16b7 2840 e3f1 e0bd 8291 61bf
00000170: 7438 14be 2bc1 5a3f 8dd6 433f 6fd0 863f
00000180: 11fd 35bf 2cae 1040 966c 04c0 f622 a140

bias f4 [10]
0.9763385 6.5062556 -4.0166955 -7.502186 -7.4322467 -3.0989106 -6.5706167 -2.1656692
2.878056 -1.0941278
00000000: 52f1 793f 3f33 d040 c588 80c0 e811 f0c0
00000010: f7d4 edc0 8d54 46c0 7e42 d2c0 539a 0ac0
00000020: 1232 3840 610c 8cbf

weight f4 [10, 10]
3.3458192 -14.503199 -16.43843 22.712107 -6.7446203 25.814182 6.6706367 -5.1014595
1.6416335 5.8331056 6.157918 -6.047459 -5.4261274 -7.7979407 -7.5826707 36.84948
0.6879304 -0.97751945 -35.461433 3.0480525 4.2000766 -16.236624 -15.004137 19.980295
-6.534868 26.960722 2.0374393 -2.6072707 -5.903549 7.9127207 15.1113 -7.734134
-10.756676 5.4373927 -31.09023 35.315464 -0.049599983 1.5342175 0.49831802 -39.759377
-0.58458436 -9.227108 -11.38906 3.1044316 -31.740896 19.45264 -1.3275058 3.5904806
-0.08132686 -4.8967357 -2.3432686 -16.63484 -5.4274964 16.384422 -11.792132 21.712814
11.376571 -4.9048367 -7.9743905 5.156863 5.266235 -13.538599 -11.346847 11.712752
-6.001108 25.583296 0.24678531 -3.2275271 -4.6527605 -0.011025229 15.844559 -6.846195
-5.441959 1.5380607 -31.761711 36.527966 0.8539792 -0.78998566 -47.756294 -4.9425426
0.28140983 -13.17793 -32.084652 0.21281089 -19.308563 23.615559 -1.814469 0.9004007
-11.75782 21.770409 -2.6159937 -13.79669 -12.24738 5.003929 -23.386314 20.363054
0.7370427 3.6145823 -12.204518 -9.947058
00000000: e721 5640 1a0d 68c1 e881 83c1 65b2 b541
00000010: eed3 d7c0 7283 ce41 db75 d540 283f a3c0
00000020: 0c21 d23f cda8 ba40 aa0d c540 c984 c1c0
00000030: d6a2 adc0 bb88 f9c0 3da5 f2c0 de65 1342
00000040: 351c 303f b73e 7abf 82d8 0dc2 4b13 4340
00000050: 0767 8640 9be4 81c1 f210 70c1 a5d7 9f41
00000060: a31d d1c0 8faf d741 6865 0240 86dd 26c0
00000070: e0e9 bcc0 0235 fd40 e3c7 7141 077e f7c0
00000080: 581b 2cc1 1fff ad40 cbb8 f8c1 0943 0d42
00000090: 5a29 4bbd 3d61 c43f 8a23 ff3e 9a09 1fc2
000000a0: 52a7 15bf 3ca2 13c1 9739 36c1 02af 4640
000000b0: 5bed fdc1 029f 9b41 b6eb a9bf 6fca 6540
000000c0: b28e a6bd 0fb2 9cc0 1df8 15c0 2714 85c1
000000d0: 0dae adc0 4c13 8341 93ac 3cc1 d8b3 ad41
000000e0: 6f06 3641 6cf4 9cc0 352e ffc0 0605 a540
000000f0: ff84 a840 1a9e 58c1 af8c 35c1 6f67 3b41
00000100: 1409 c0c0 97aa cc41 4ab5 7c3e ce8f 4ec0
00000110: 6ae3 94c0 29a3 34bc 5083 7d41 0814 dbc0
00000120: 8724 aec0 2cdf c43f fc17 fec1 a31c 1242
00000130: 619e 5a3f 803c 4abf 7206 3fc2 4f29 9ec0
00000140: f314 903e cdd8 52c1 af56 00c2 19eb 593e
00000150: f077 9ac1 aaec bc41 8540 e8bf a980 663f
00000160: 0820 3cc1 cc29 ae41 716c 27c0 3ebf 5cc1
00000170: 45f5 43c1 3020 a040 2c17 bbc1 89e7 a241
00000180: d5ae 3c3f 5155 6740 b545 43c1 2627 1fc1

bias f4 [10]
-6.0043764 -0.7748778 -3.1211016 -0.39446038 -2.0062592 1.1825502 -2.4716523 -0.24793255
-2.842996 -1.5700356
00000000: da23 c0c0 645e 46bf 21c0 47c0 b6f6 c9be
00000010: 8d66 00c0 ce5d 973f 8d2f 1ec0 08e2 7dbe
00000020: a5f3 35c0 edf6 c8bf

weight f4 [10, 10]
-0.21919578 0.26306206 -0.036735628 0.0066917585 -0.12917714 -0.16401845 -0.053264685 0.18259653
0.22951567 0.2935171 -0.18560286 -0.24101587 -0.22018333 0.10252207 0.27503443 0.030570954
0.28559053 -0.04944791 0.041392867 0.054460365 0.16311657 0.097195484 -0.15808097 -0.12965386
0.004338204 -0.16610213 0.19185266 -0.14418417 0.1621274 -0.30005556 0.0033769608 -0.3076468
-0.17883201 -0.13516675 0.29938185 -0.26869217 -0.11599727 0.092352435 -0.09460888 0.25566673
0.23504084 -0.111734755 -0.019355182 -0.2515078 -0.06942423 0.22218072 -0.11013915 -0.2188977
0.19341344 -0.11252629 0.07855116 -0.27779508 0.13033494 -0.2910623 0.24379581 0.021505548
-0.080440246 0.2627618 -0.10900178 0.28847012 0.01563431 0.069287196 0.14058672 -0.1486583
0.19701552 -0.3052454 -0.060493816 -0.056880794 -0.2132718 -0.27804235 0.25018853 -0.15297017
0.0480343 -0.08033699 0.24488647 0.03956398 -0.08757208 0.2769035 -0.2978294 -0.058958482
-0.13076647 -0.08924335 0.0065721828 -0.060373828 0.2137837 0.12541763 -0.25891376 -0.16750266
-0.16785161 -0.019778296 0.29873756 -0.056210615 0.03860304 0.1087641 0.28346163 -0.23738909
-0.011787866 0.30964065 -0.20645455 0.31525868
00000000: dc74 60be 12b0 863e 1978 16bd 8a46 db3b
00000010: 0347 04be 74f4 27be 122c 5abd 96fa 3a3e
00000020: 2806 6b3e e047 963e ad0e 3ebe ddcc 76be
00000030: bd77 61be 17f7 d13d 50d1 8c3e f06f fa3c
00000040: ec38 923e e489 4abd 918b 293d d511 5f3d
00000050: 0808 273e 6d0e c73d fadf 21be fbc3 04be
00000060: 7e27 8e3b ad16 2abe 0675 443e 04a5 13be
00000070: ba04 263e e2a0 99be 0050 5d3b e283 9dbe
00000080: bd1f 37be 2769 0abe 9448 993e 0592 89be
00000090: fa8f edbd 4623 bd3d 4dc2 c1bd c0e6 823e
000000a0: 8cae 703e 31d5 e4bd c28e 9ebc a1c5 80be
000000b0: 4a2e 8ebd 5883 633e a290 e1bd b826 60be
000000c0: 2c0e 463e 2f74 e6bd 6edf a03d 283b 8ebe
000000d0: 8676 053e 1e06 95be 9ca5 793e 672c b03c
000000e0: dbbd a4bd b788 863e 533c dfbd 5bb2 933e
000000f0: 8613 803c 72e6 8d3d f7f5 0f3e e239 18be
00000100: 70be 493e 2049 9cbe 5dc8 77bd d6fb 68bd
00000110: ec63 5abe 915b 8ebe b618 803e 36a4 1cbe
00000120: 9dbf 443d b887 a4bd 85c3 7a3e d70d 223d
00000130: fe58 b3bd 4cc6 8d3e 187d 98be 737e 71bd
00000140: a5e7 05be 38c5 b6bd 775b d73b 8c4a 77bd
00000150: 1dea 5a3e 7b6d 003e 5890 84be d185 2bbe
00000160: 4be1 2bbe 1806 a2bc 21f4 983e 1a3d 66bd
00000170: 391e 1e3d b6bf de3d e221 913e 2016 73be
00000180: e521 41bc 3889 9e3e d268 53be 9669 a13e

bias f4 [10]
0.1729547 -0.25379023 -0.2937739 0.28088957 0.18190834 -0.028103253 -0.21400234 0.16765763
0.028685525 0.108438246
00000000: 091b 313e cbf0 81be 8869 96be c2d0 8f3e
00000010: 2e46 3a3e cb38 e6bc 6e23 5bbe 71ae 2b3e
00000020: e8fd ea3c df14 de3d

weight f4 [10, 10]
0.0063656014 -0.25783354 -0.040728223 -0.062062174 0.27680683 0.20255902 -0.056406226 -0.08838585
-0.3091404 0.15214014 -0.15582736 -0.2907326 0.043324966 0.27608216 -0.13585925 -0.26646638
-0.026800396 0.097304955 -0.03120491 0.30237794 -0.23052622 0.23541255 0.07515749 -0.09323666
0.18588303 -0.19246385 0.11791557 0.21048291 0.1832332 0.072906666 0.19326374 0.30855688
-0.13701814 -0.19999844 -0.034453135 0.28380486 0.17617495 -0.08386844 -0.27599564 0.18946928
0.050388265 -0.11979011 0.26971948 0.16156895 0.14623426 0.1386686 0.25780013 0.30825415
-0.1222814 0.2391759 -0.2684691 -0.21339835 0.28791723 -0.20751788 0.26656106 0.27783293
-0.027689561 0.116564274 -0.25215504 -0.023488313 -0.030814555 0.08757461 -0.30881006 0.17440005
0.11724629 0.20023838 0.17532255 0.29874843 -0.1973231 -0.15084332 0.12539859 -0.11007827
0.14147653 -0.2270784 0.25933105 -0.07019465 0.039505135 0.09886773 -0.18011948 -0.30410534
0.0064085764 -0.19174959 0.11046274 -0.2797181 -0.0060670767 0.20890607 -0.010822552 -0.12201462
-0.2169085 0.14352164 0.1512733 -0.30853334 -0.05544577 0.24783693 -0.1356391 0.28762203
0.29636228 -0.0015869804 0.040925078 -0.044839945
00000000: 8996 d03b c202 84be a3d2 26bd e834 7ebd
00000010: a0b9 8d3e a26b 4f3e 370a 67bd a403 b5bd
00000020: a747 9ebe a0ca 1b3e 3591 1fbe e7da 94be
00000030: 8575 313d a45a 8d3e b01e 0bbe 486e 88be
00000040: 818c dbbc d247 c73d 70a1 ffbc 48d1 9a3e
00000050: 110f 6cbe fd0f 713e 2cec 993d ddf2 bebd
00000060: 1f58 3e3e 3e15 45be b87d f13d d588 573e
00000070: 7ca1 3b3e 1750 953d eee6 453e 2bfb 9d3e
00000080: 7c4e 0cbe 64cc 4cbe bb1e 0dbd df4e 913e
00000090: 3567 343e 37c3 abbd 4d4f 8dbe 3c04 423e
000000a0: ed63 4e3d 8454 f5bd ac18 8a3e 5572 253e
000000b0: 6fbe 153e 24ff 0d3e 61fe 833e 7dd3 9d3e
000000c0: ac6e fabd 87ea 743e c874 89be 1985 5abe
000000d0: e369 933e 917f 54be b17a 883e 1e40 8e3e
000000e0: 38d5 e2bc 40b9 ee3d 771a 81be 906a c0bc
000000f0: ce6e fcbc 515a b33d 5a1c 9ebe ed95 323e
00000100: d31e f03d 4a0b 4d3e c187 333e 8ef5 983e
00000110: 110f 4abe ac76 1abe 7d68 003e b770 e1bd
00000120: 39df 103e 3d87 68be 0ac7 843e 36c2 8fbd
00000130: 23d0 213d 2a7b ca3d 3e71 38be b2b3 9bbe
00000140: 09ff d13b 015a 44be 4a3a e23d 3637 8fbe
00000150: 54ce c6bb 79eb 553e 1351 31bc cde2 f9bd
00000160: 431d 5ebe 56f7 123e 63e7 1a3e 15f8 9dbe
00000170: 1b1b 63bd f7c8 7d3e fae4 0abe 3243 933e
00000180: ccbc 973e 3a02 d0ba 0ea1 273d 17aa 37bd

bias f4 [10]
-0.036849286 -0.26018116 -0.25808617 -0.13791318 0.087946944 -0.2625805 0.12739858 0.28827634
0.28987026 -0.028434083
00000000: 47ef 16bd 7736 85be df23 84be 1d39 0dbe
00000010: 871d b43d f470 86be c674 023e f598 933e
00000020: e069 943e 98ee e8bc

weight f4 [1, 10]
-36.724785 -29.848993 -47.097565 -37.659492 -32.20234 -29.291254 -30.93662 -36.640995
-30.33746 -31.395939
00000000: 2ee6 12c2 bdca eec1 e863 3cc2 52a3 16c2
00000010: 32cf 00c2 7d54 eac1 337e f7c1 6190 12c2
00000020: 1eb3 f2c1 e22a fbc1

weight f4 [10, 2]
0.26420358 -1.7593416 0.30149165 0.17283574 0.71351254 -1.9491422 -0.5829 -0.06880498
-0.25528583 0.08916663 0.111715436 3.0682824 -0.6796433 0.61720145 0.028408224 -3.086822
0.58202165 0.5560627 0.54260945 1.7121897
00000000: b145 873e 1b32 e1bf 1d5d 9a3e dafb 303e
00000010: c2a8 363f 7e7d f9bf ef38 15bf a0e9 8cbd
00000020: d3b4 82be fe9c b63d 10cb e43d bd5e 4440
00000030: 1afd 2dbf ea00 1e3f 5db8 e83c 7e8e 45c0
00000040: 5fff 143f 205a 0e3f 74e8 0a3f 0829 db3f

bias f4 [10]
-5.084056 -4.540819 -5.167063 0.47774667 -0.6226578 5.250662 -0.29206324 -3.0142307
4.97948 5.6179094
00000000: 96b0 a2c0 644e 91c0 9558 a5c0 369b f43e
00000010: 8066 1fbf 6c05 a840 5089 95be 28e9 40c0
00000020: e657 9f40 eac5 b340

weight f4 [10, 10]
0.8882182 -0.3038667 0.8217842 -0.16942981 0.14985716 -3.7950652 -0.21960755 5.318476
-0.16895643 -0.7301927 1.3465317 -0.13639034 0.28931445 -0.25519475 -0.0045600147 -3.313687
-0.31607223 5.0214953 -0.12283445 -0.483133 -1.861605 -1.1100727 -0.96872246 0.26362377
-0.009792285 4.7671375 0.017132249 -1.5951711 0.87152004 0.9754738 -1.6381592 -0.80539864
-0.581815 0.12048147 -0.011227232 1.9426247 -0.2903761 0.9718076 0.50332433 0.6185536
0.93964034 1.0651702 0.47903657 0.15398291 -0.04147825 -0.9397261 -0.29344183 -2.5369914
-0.4503452 -0.51355237 1.1159513 0.793616 0.39595598 0.12866955 -0.2950254 -2.6725156
-0.1644937 0.33753318 -0.40489942 -0.5533629 -1.9808056 -3.7526436 -0.76898474 -0.12221585
-0.05272275 -0.19151102 -0.18352064 6.5171065 0.9857272 1.0200675 0.870206 0.565915
0.8524235 0.30360252 -0.0004431693 -2.636091 0.08252159 3.2597263 -0.44060948 -1.0455235
2.0794332 1.366477 0.688671 -0.039303906 -0.1840515 -4.914502 0.29955453 2.9668374
-0.9042561 -1.242714 1.5701301 1.0589755 0.66442627 0.05927608 0.3153841 -3.2747853
-0.22288944 0.69117826 -0.45618978 -0.8682137
00000000: 4562 633f 6b94 9bbe 7360 523f 027f 2dbe
00000010: 2874 193e 59e2 72c0 cde0 60be f530 aa40
00000020: ea02 2dbe e9ed 3abf 275b ac3f e9a9 0bbe
00000030: 0621 943e e3a8 82be 2d6c 95bb 7313 54c0
00000040: 38d4 a1be 17b0 a040 a190 fbbd 355d f7be
00000050: 1349 eebf dd16 8ebf 32fe 77bf b2f9 863e
00000060: d26f 20bc 648c 9840 ee58 8c3c 912e ccbf
00000070: f01b 5f3f a7b8 793f 33af d1bf 9b2e 4ebf
00000080: d4f1 14bf fdbe f63d 6df2 37bc eda7 f83f
00000090: 2dac 94be 62c8 783f ddd9 003f 8759 1e3f
000000a0: 458c 703f 7f57 883f 4844 f53e b2ad 1d3e
000000b0: 19e5 29bd e491 70bf 023e 96be 115e 22c0
000000c0: a593 e6be 2b78 03bf 7ed7 8e3f 6b2a 4b3f
000000d0: beba ca3e f3c1 033e 920d 97be 7f0a 2bc0
000000e0: 0971 28be 26d1 ac3e fa4e cfbe 31a9 0dbf
000000f0: 0a8b fdbf 502b 70c0 2fdc 44bf 4e4c fabd
00000100: cff3 57bd 771b 44be d6ec 3bbe 238c d040
00000110: 9e58 7c3f 9291 823f d2c5 5e3f cedf 103f
00000120: 6d38 5a3f ca71 9b3e 2d59 e8b9 b7b5 28c0
00000130: 1401 a93d 5b9f 5040 9197 e1be b7d3 85bf
00000140: 6f15 0540 b8e8 ae3f be4c 303f 22fd 20bd
00000150: ff77 3cbe 9a43 9dc0 365f 993e aae0 3d40
00000160: 547d 67bf 4111 9fbf 06fa c83f 828c 873f
00000170: d717 2a3f 7acb 723d 067a a13e 1596 51c0
00000180: 213d 64be 0ff1 303f b591 e9be 4143 5ebf

bias f4 [10]
1.0464481 1.4952606 6.247893 2.2670627 -3.1703153 -0.9098792 11.85051 -3.159542
-4.2459254 -3.8801394
00000000: 03f2 853f b364 bf3f bdee c740 8e17 1140
00000010: 72e6 4ac0 d8ed 68bf b09b 3d41 f035 4ac0
00000020: 9fde 87c0 3454 78c0

weight f4 [10, 10]
25.487724 22.54218 -37.315163 -10.121804 9.283436 9.838319 -11.48646 -32.102608
-41.3953 -9.571744 -6.9958 -6.0097404 25.363472 15.928489 -12.730057 -1.5475578
-1.066614 16.223003 18.009869 -10.933649 6.333143 4.7599783 -18.935812 -28.4952
6.1102567 10.022653 8.134752 -27.553188 -18.7267 11.497498 1.5623317 0.15940893
-12.485162 -4.813182 12.064004 10.944451 3.2878606 -11.064398 -33.247112 10.765082
8.242048 6.2793546 -27.646198 -9.796456 8.523266 1.1116608 0.58276767 -15.967682
-18.217056 5.178986 23.871517 19.787132 -27.625858 -7.202531 8.407976 6.432315
-15.2382555 -25.748402 -35.372078 -9.2647915 -12.08861 -8.84228 13.9144745 29.939651
-10.876741 -8.314225 11.3559 23.995956 19.891237 -0.17194892 1.7987127 0.613906
-11.944768 -31.108723 15.668639 13.299301 5.136289 -20.878136 -10.079586 9.714393
26.251106 22.776947 -35.302956 -11.419975 0.02642319 16.886232 -13.526875 -35.599155
-36.70959 -9.124 -18.220276 -14.789121 16.51576 7.0111237 -6.3589606 -7.9752398
43.321945 25.70669 23.702555 4.6547236
00000000: dce6 cb41 6256 b441 ba42 15c2 e9f2 21c1
00000010: f488 1441 c169 1d41 8ac8 37c1 1269 00c2
00000020: ca94 25c2 dd25 19c1 98dd dfc0 cb4f c0c0
00000030: 64e8 ca41 17db 7e41 50ae 4bc1 6016 c6bf
00000040: cf86 88bf b6c8 8141 3614 9041 3af0 2ec1
00000050: 1ca9 ca40 be51 9840 8b7c 97c1 2bf6 e3c1
00000060: 3987 c340 c95c 2041 f227 0241 ee6c dcc1
00000070: 48d0 95c1 c0f5 3741 7cfa c73f 183c 233e
00000080: 39c3 47c1 9605 9ac0 2906 4141 791c 2f41
00000090: 4f6c 5240 c607 31c1 0bfd 04c2 c73d 2c41
000000a0: 6edf 0341 79f0 c840 6a2b ddc1 49be 1cc1
000000b0: 4c5f 0841 e74a 8e3f 4330 153f a07b 7fc1
000000c0: 88bc 91c1 41ba a540 def8 be41 0c4c 9e41
000000d0: c201 ddc1 227b e6c0 1287 0641 86d5 cd40
000000e0: e5cf 73c1 bafc cdc1 027d 0dc2 963c 14c1
000000f0: f26a 41c1 fb79 0dc1 b0a1 5e41 6884 ef41
00000100: 2207 2ec1 1107 05c1 c4b1 3541 b8f7 bf41
00000110: 4121 9f41 6113 30be 383c e63f f228 1d3f
00000120: c51d 3fc1 aade f8c1 bfb2 7a41 f0c9 5441
00000130: 7b5c a440 6c06 a7c1 fc45 21c1 276e 1b41
00000140: 4402 d241 3037 b641 3a36 0dc2 38b8 36c1
00000150: 7275 d83c 0117 8741 146e 58c1 8965 0ec2
00000160: 9fd6 12c2 e7fb 11c1 20c3 91c1 3da0 6cc1
00000170: 4720 8441 205b e040 9b7c cbc0 2a35 ffc0
00000180: ac49 2d42 4da7 cd41 d59e bd41 7ff3 9440

bias f4 [10]
7.4255524 -1.7490469 1.2074736 -3.7223423 7.21492 -0.108003974 -1.2048827 -3.3278291
6.248449 3.9073517
00000000: 209e ed40 c5e0 dfbf 7f8e 9a3f db3a 6ec0
00000010: a0e0 e640 3031 ddbd 9939 9abf 27fb 54c0
00000020: 4bf3 c740 0d12 7a40

weight f4 [10, 10]
0.040002853 0.19907576 0.009714779 0.2592806 -0.08495574 0.25209522 -0.070689425 -0.19140007
0.07707471 -0.2236608 -0.22673142 -0.23196588 0.18642609 0.031603143 0.08010745 0.10297734
0.28433442 -0.19585708 0.012942157 -0.181824 0.066277295 -0.064745694 -0.10009776 -0.08830265
-0.1377581 0.025482008 -0.3133521 -0.18515083 -0.01531343 0.012806974 0.20416263 0.121840045
-0.29043248 -0.08672578 -0.1224438 -0.28598094 0.07336876 0.09620868 -0.013475196 -0.030562095
-0.035968076 -0.29737264 0.2110439 -0.074715644 0.015999973 -0.091465905 -0.108306155 0.13965204
0.059210565 -0.26990065 -0.01840408 0.17951682 -0.1167327 0.23330101 0.27232075 0.18040328
0.28442988 -0.1026945 -0.11343958 0.08661706 0.14566703 0.09107845 -0.03809903 -0.24231549
0.2897271 -0.23791037 0.08008627 -0.16918957 -0.20557235 -0.30512255 -0.013227186 0.079499505
-0.30837226 -0.17221776 0.029821156 0.10114604 -0.16682415 0.03292775 -0.23608468 -0.21325807
-0.31351462 0.103642695 -0.03361878 -0.21066277 -0.13838893 0.23541063 -0.11129649 -0.09439329
-0.21504538 -0.05684223 -0.04280169 0.011230323 0.06332062 0.27392063 0.016414229 -0.25229007
0.23873737 0.19855402 -0.088992134 0.044137906
00000000: 08da 233d 84da 4b3e bd2a 1f3c 6dc0 843e
00000010: 46fd adbd a012 813e 9ec5 90bd 61fe 43be
00000020: 58d9 9d3d 5607 65be 482c 68be 7788 6dbe
00000030: 7be6 3e3e 4c72 013d 600f a43d c9e5 d23d
00000040: 4894 913e c28e 48be 570b 543c 1230 3abe
00000050: 64bc 873d 6499 84bd 0e00 cdbd 05d8 b4bd
00000060: 7610 0dbe a5bf d03c b06f a0be 2e98 3dbe
00000070: 2ee5 7abc 58d4 513c 0210 513e 4687 f93d
00000080: 91b3 94be 499d b1bd d1c3 fabd 186c 92be
00000090: 5c42 963d 0e09 c53d 12c7 5cbc 5c5d fabc
000000a0: 4353 13bd 3a41 98be e41b 583e 8404 99bd
000000b0: 6012 833c 7a52 bbbd 9ecf ddbd f200 0f3e
000000c0: c786 723d 6b30 8abe 27c4 96bc 42d3 373e
000000d0: 8e11 efbd 76e6 6e3e a06d 8b3e a3bb 383e
000000e0: cba0 913e 7e51 d2bd 0353 e8bd 4964 b13d
000000f0: bd29 153e 5787 ba3d ba0d 1cbd 8d21 78be
00000100: 1c57 943e c79e 73be 4504 a43d 0840 2dbe
00000110: 8f81 52be 0639 9cbe d7b6 58bc a3d0 a23d
00000120: f8e2 9dbe da59 30be 7f4b f43c a825 cf3d
00000130: f3d3 2abe 40df 063d 2fc0 71be 5360 5abe
00000140: fd84 a0be 9f42 d43d d9b3 09bd fbb7 57be
00000150: d4b5 0dbe 7c0f 713e 6aef e3bd 4551 c1bd
00000160: db34 5cbe 66d3 68bd d350 2fbd 64ff 373c
00000170: 3eae 813d 533f 8c3e 2277 863c 2a2c 81be
00000180: 9277 743e bf51 4b3e 8241 b6bd f3c9 343d

bias f4 [10]
0.2685982 0.18665186 0.31060794 0.065834545 -0.2021879 -0.14953828 0.31479847 -0.2547169
0.14528403 -0.03126918
00000000: b485 893e aa21 3f3e 0108 9f3e 43d4 863d
00000010: 580a 4fbe 9020 19be 442d a13e 416a 82be
00000020: 56c5 143e 1d14 00bd

weight f4 [10, 10]
-0.07165734 0.2929797 -0.0456032 -0.30923423 0.24443434 0.0035835041 0.10189272 0.081698015
-0.26427475 0.12169521 0.18755938 0.085230514 -0.14418206 0.2993822 0.07599113 0.03885987
-0.27391037 0.044472694 -0.15244052 0.30015162 0.0057160775 -0.0010035394 0.17703603 -0.25974265
-0.2490596 0.13504156 -0.041431468 -0.12144796 0.26219994 0.23552006 -0.19585215 0.29216954
-0.026029224 -0.03629819 0.1945649 -0.21769957 0.113209404 -0.19019552 -0.0719668 -0.001186899
0.10656752 0.2845395 0.108145826 -0.14297752 -0.126177 -0.22237788 -0.12400315 -0.12936623
-0.28111526 -0.23388954 0.0020746326 0.006877531 0.016600264 -0.118854046 0.06143964 0.06063537
-0.26235965 0.20399669 0.17116578 -0.046072945 -0.2312096 0.17289054 -0.22110748 0.31542456
-0.15844814 0.034628164 0.055162553 -0.08736546 -0.29538113 0.101947635 -0.07738145 0.16270629
-0.09854704 -0.18722391 0.18110342 -0.05960107 0.14500703 -0.21501032 0.30608615 0.24081585
0.21550378 -0.1690977 -0.061984744 -0.30575776 0.29230902 0.123397775 0.2718111 0.028310739
0.30834278 0.09626884 0.10913319 0.15158361 -0.18924664 0.13434586 0.14276223 0.30520496
0.09987968 0.18364957 -0.14755099 0.077203855
00000000: 15c1 92bd 6f01 963e 6cca 3abd f353 9ebe
00000010: ff4c 7a3e 39d9 6a3b 21ad d03d 4a51 a73d
00000020: 054f 87be 573b f93d 910f 403e 568d ae3d
00000030: 76a4 13be a048 993e 3da1 9b3d 872b 1f3d
00000040: fb3d 8cbe 0029 363d 5e19 1cbe 79ad 993e
00000050: ef4d bb3b 3289 83ba ef48 353e fdfc 84be
00000060: 7b09 7fbe 5648 0a3e 0bb4 29bd b5b9 f8bd
00000070: 123f 863e 2c2c 713e 778d 48be 3f97 953e
00000080: 3d3b d5bc 69ad 14bd 053c 473e a3ec 5ebe
00000090: 55da e73d 9dc2 42be 5463 93bd b991 9bba
000000a0: 1240 da3d 29af 913e 8f7b dd3d b368 12be
000000b0: 8b34 01be 07b7 63be 5df5 fdbd 9578 04be
000000c0: 57ee 8fbe bd80 6fbe 8ff6 073b e95c e13b
000000d0: 47fd 873c c069 f3bd 22a8 7b3d cb5c 783d
000000e0: 0154 86be 82e4 503e 1546 2f3e fcb6 3cbd
000000f0: 36c2 6cbe 380a 313e 006a 62be 547f a13e
00000100: 3b40 22be 43d6 0d3d 21f2 613d aaec b2bd
00000110: 323c 97be ecc9 d03d 2a7a 9ebd 7a9c 263e
00000120: 08d3 c9bd a0b7 3fbe 2d73 393e 4020 74bd
00000130: b97c 143e aa2b 5cbe 53b7 9c3e 6e98 763e
00000140: 06ad 5c3e f327 2dbe b7e3 7dbd 488c 9cbe
00000150: 87a9 953e f9b7 fc3d d32a 8b3e eceb e73c
00000160: 1bdf 9d3e 9928 c53d 3981 df3d bc38 1b3e
00000170: dfc9 41be f691 093e 4330 123e d343 9c3e
00000180: b88d cc3d a20e 3c3e 9b17 17be 0e1d 9e3d

bias f4 [10]
-0.26120254 0.0069174143 0.22923389 0.030340549 0.24784873 0.025983382 -0.2178012 -0.03587896
0.023092603 0.30722478
00000000: 57bc 85be 7aab e23b 4abc 6a3e be8c f83c
00000010: 0fcc 7d3e 1adb d43c 4707 5fbe d1f5 12bd
00000020: b32c bd3c 914c 9d3e

weight f4 [1, 10]
-18.74677 15.168348 -28.40296 -30.318867 -16.325014 -18.103985 6.557184 -33.596497
-21.050688 11.460725
00000000: 63f9 95c1 8eb1 7241 4339 e3c1 0a8d f2c1
00000010: a199 82c1 f6d4 90c1 74d4 d140 d062 06c2
00000020: cf67 a8c1 215f 3741

weight f4 [10, 2]
-0.68076754 0.07350756 -0.12624843 -0.050105352 -0.6626982 -0.29309407 -0.5896452 -0.6849001
0.08522838 2.5696714 0.05709011 0.22505404 0.29586795 -5.004382 -0.08777553 -0.1102489
-0.3021247 -0.44817996 -0.67985934 -0.13111791
00000000: c846 2ebf 228b 963d 4547 01be 453b 4dbd
00000010: 97a6 29bf 6d10 96be fdf2 16bf 9d55 2fbf
00000020: 388c ae3d 7f75 2440 52d7 693d 9174 663e
00000030: 017c 973e e623 a0c0 a8c3 b3bd 2dca e1bd
00000040: 17b0 9abe d877 e5be 430b 2ebf c643 06be

bias f4 [10]
-0.12015055 -0.06584105 -0.10282819 -0.6165823 -6.546782 4.908074 2.8027945 0.29622295
-0.6584517 0.3469895
00000000: 7e11 f6bd acd7 86bd 9697 d2bd 56d8 1dbf
00000010: 3d7f d1c0 f10e 9d40 fc60 3340 89aa 973e
00000020: 4a90 28bf 9ca8 b13e

weight f4 [10, 10]
-0.31364256 -0.0875737 -0.10188966 0.035358284 -0.651387 -0.06993696 0.7908913 -0.13520713
-0.01723976 -0.091476426 -0.26916087 0.013268955 -0.25671065 -0.1380045 0.16333862 -0.71273667
0.3937234 0.12453186 -0.108847484 -0.16906016 0.06037311 0.25673565 0.019148564 0.093524404
4.1729884 -2.466903 -0.19798571 0.16371913 -0.1629322 0.16948 -0.07147504 0.040191982
0.102853544 0.2528459 6.4281964 -2.1042025 -1.2863433 -0.20610128 0.2776825 -0.11279541
-0.09617249 0.27247426 0.11910571 0.08421898 -5.1188664 1.877721 1.3649448 -0.27647892
0.19389087 -0.07540215 -0.29566047 -0.20380843 0.10859499 0.13825616 4.968389 -1.8287596
-1.4358449 0.29058427 -0.26771837 0.3099496 -0.068745755 -0.27947992 -0.30946955 0.1520626
-0.8491863 -0.2622723 0.89463043 -0.0677683 -0.25575867 -0.0019542275 -0.19048409 -0.18698597
0.14416035 0.013559337 2.6812084 -2.3745773 0.23729303 -0.28290972 0.110147625 0.3060294
0.060056265 -0.10202503 0.18233997 0.27250898 -4.8698535 -0.16969222 1.6778561 0.14970404
-0.004677894 -0.16865197 -0.16936298 -0.15600754 -0.14159037 -0.24530707 5.1703467 -1.8808585
-1.392127 -0.29121643 0.27525482 0.29044983
00000000: c295 a0be d759 b3bd 87ab d0bd d9d3 103d
00000010: 4cc1 26bf 1c3b 8fbd da77 4a3f bd73 0abe
00000020: 663a 8dbc fe57 bbbd 74cf 89be 0866 593c
00000030: 946f 83be 0d51 0dbe 3d42 273e e975 36bf
00000040: 1d96 c93e 8f0a ff3d 6eeb debd 1b1e 2dbe
00000050: cb49 773d db72 833e 73dd 9c3c b989 bf3d
00000060: 1f89 8540 bde1 1dc0 c4bc 4abe fda5 273e
00000070: b3d7 26be 2a8c 2d3e 8161 92bd 59a0 243d
00000080: e1a4 d23d 0575 813e c9b3 cd40 41ab 06c0
00000090: e6a6 a4bf 370c 53be 672c 8e3e 4801 e7bd
000000a0: 15f6 c4bd bf81 8b3e b2ed f33d 007b ac3d
000000b0: c1cd a3c0 2959 f03f 83b6 ae3f a58e 8dbe
000000c0: 548b 463e 716c 9abd cf60 97be 28b3 50be
000000d0: 0d67 de3d 0693 0d3e 0bfd 9e40 cb14 eabf
000000e0: c4c9 b7bf 76c7 943e 6212 89be b7b1 9e3e
000000f0: 93ca 8cbd fe17 8fbe cb72 9ebe 4cb6 1b3e
00000100: 4664 59bf 8e48 86be 8006 653f 1bca 8abd
00000110: cdf2 82be 7f12 00bb 430e 43be 4079 3fbe
00000120: c59e 133e fb27 5e3c eb98 2b40 13f9 17c0
00000130: f2fc 723e 8bd9 90be 1495 e13d e3af 9c3e
00000140: 8ffd 753d 80f2 d0bd 54b7 3a3e 4c86 8b3e
00000150: d7d5 9bc0 ccc3 2dbe fdc3 d63f 044c 193e
00000160: 0549 99bb 1ab3 2cbe 7d6d 2dbe 71c0 1fbe
00000170: 11fd 10be c731 7bbe 7b73 a540 f9bf f0bf
00000180: 3831 b2bf 521a 95be 33ee 8c3e d7b5 943e

bias f4 [10]
0.6471778 -0.47029456 -5.2154374 -4.40807 3.9318442 -3.7094433 -0.032036964 -3.3563268
1.3930974 -4.221704
00000000: 72ad 253f 73ca f0be dde4 a6c0 e90e 8dc0
00000010: 56a3 7b40 8567 6dc0 3139 03bd 0fce 56c0
00000020: 0451 b23f 3318 87c0

weight f4 [10, 10]
10.869832 17.96997 -10.939419 -22.0036 -21.566086 11.885051 4.2167635 -1.180265
-33.54794 11.562813 6.242838 17.98402 8.883536 -19.512218 -17.222576 10.586935
3.6853752 6.19463 -41.090885 11.275697 12.578543 22.228712 -12.080434 -36.815994
-25.873121 13.1461735 17.836966 18.476255 -27.441017 13.914067 3.312684 18.883413
9.8411455 -18.46961 -17.58474 8.352859 7.7967334 3.8044856 -39.98801 8.627237
12.047319 22.201965 -7.659111 -39.634865 -27.685696 14.096589 21.77146 15.409716
-28.255405 15.459261 7.3777256 19.636368 11.028686 -20.04427 -16.71032 10.473386
-0.18237773 3.8480754 -41.385303 10.915221 0.6448394 20.056154 9.653428 -11.703841
-20.637592 0.9433386 11.755473 1.01487 -39.707813 2.2459207 12.836297 22.627184
-11.846942 -37.796703 -25.985294 13.688329 18.004145 18.548487 -27.98997 14.351607
8.159982 14.266266 4.3656554 -13.061272 -22.784224 7.762816 -2.1239002 9.133506
-44.39607 8.820862 3.7877226 18.287619 11.5154915 -19.832657 -16.22483 9.581763
5.0662794 3.352282 -40.42849 10.066795
00000000: d5ea 2d41 80c2 8f41 dc07 2fc1 5f07 b0c1
00000010: 5887 acc1 2b29 3e41 baef 8640 ec12 97bf
00000020: 1731 06c2 4801 3941 54c5 c740 46df 8f41
00000030: f722 0e41 0619 9cc1 d6c7 89c1 1664 2941
00000040: 30dd 6b40 693a c640 115d 24c2 4169 3441
00000050: b641 4941 67d4 b141 7549 41c1 9443 13c2
00000060: 27fc cec1 ba56 5241 1bb2 8e41 5fcf 9341
00000070: 3487 dbc1 05a0 5e41 0403 5440 3b11 9741
00000080: 5575 1d41 c3c1 93c1 8cad 8cc1 4fa5 0541
00000090: d77e f940 b17c 7340 b9f3 1fc2 2a09 0a41
000000a0: d2c1 4041 a09d b141 7017 f5c0 1a8a 1ec2
000000b0: 4e7c ddc1 a18b 6141 f32b ae41 328e 7641
000000c0: 120b e2c1 2259 7741 5416 ec40 4817 9d41
000000d0: 7f75 3041 aa5a a0c1 bcae 85c1 fd92 2741
000000e0: 3ac1 3abe de46 7640 8d8a 25c2 bfa4 2e41
000000f0: 3214 253f 0173 a041 7174 1a41 ef42 3bc1
00000100: ca19 a5c1 a37e 713f 6b16 3c41 43e7 813f
00000110: cdd4 1ec2 2abd 0f40 7961 4d41 7904 b541
00000120: 138d 3dc1 d32f 17c2 e2e1 cfc1 6503 5b41
00000130: 7d08 9041 4d63 9441 75eb dfc1 2fa0 6541
00000140: 498f 0241 a042 6441 73b3 8b40 f8fa 50c1
00000150: 1746 b6c1 fd68 f840 fbed 07c0 d722 1241
00000160: 9395 31c2 4022 0d41 0c6a 7240 0b4d 9241
00000170: 743f 3841 48a9 9ec1 74cc 81c1 e74e 1941
00000180: f61e a240 ca8b 5640 c6b6 21c2 9811 2141

bias f4 [10]
-6.10341 -6.2481766 -0.69868165 -7.763366 -1.5948002 -5.272156 -10.193571 -0.8904767
-7.178044 -6.3726563
00000000: 224f c3c0 10f1 c7c0 cddc 32bf 7f6d f8c0
00000010: 6a22 ccbf 80b5 a8c0 de18 23c1 48f6 63bf
00000020: 89b2 e5c0 cdec cbc0

weight f4 [10, 10]
-0.11223628 0.20243436 -0.09747995 -0.103304625 -0.17423731 0.028111773 -0.10364492 -0.14395513
-0.30915397 -0.016134815 0.26213402 0.21086653 -0.25838414 0.14829125 -0.16590773 -0.03821585
0.17929234 0.27118888 0.12064896 0.15784405 -0.14679779 -0.21448621 0.20495468 -0.13143729
-0.27519107 0.13228905 0.27817988 -0.26635602 -0.12481689 -0.30042705 0.25712776 0.17642029
0.18711554 -0.15688816 0.07447804 0.18219714 0.11365182 0.2689391 -0.16631708 0.13332109
-0.20628943 0.2291338 0.11811273 0.20011021 -0.31083202 -0.018995248 0.008753008 -0.23759262
0.30302915 -0.08699882 -0.07103194 -0.11879297 0.23807156 0.028679002 -0.08824109 -0.12897135
-0.19328564 -0.13909337 -0.23266573 0.11521071 -0.06406533 -0.10516838 0.18733467 0.09606641
-0.01183593 -0.085343905 0.02715494 0.035068844 0.17066795 -0.2968781 -0.220312 -0.116083704
0.13772741 -0.08994154 0.19196194 0.25265354 -0.08290749 -0.25735685 0.09525841 -0.1483769
0.14817227 0.29076767 -0.05400359 0.062087882 0.009171976 0.2022154 0.035138056 -0.17873935
-0.13312815 -0.022971105 0.08973557 -0.17636646 -0.28068107 -0.23505653 0.0023284107 -0.18778414
-0.22667617 0.041655954 0.25267923 -0.28296512
00000000: 23dc e5bd f44a 4f3e 91a3 c7bd 6091 d3bd
00000010: 446b 32be a94a e63c ca43 d4bd f968 13be
00000020: 6e49 9ebe 292d 84bc 6e36 863e 65ed 573e
00000030: ed4a 84be a9d9 173e b7e3 29be 3988 1cbd
00000040: 6998 373e 45d9 8a3e cd16 f73d dfa1 213e
00000050: 2952 16be 46a2 5bbe a4df 513e 7f97 06be
00000060: d8e5 8cbe c876 073e 986d 8e3e d15f 88be
00000070: ff9f ffbd 93d1 99be 40a6 833e 85a7 343e
00000080: 379b 3f3e 4aa7 20be f187 983d e391 3a3e
00000090: 49c2 e83d 63b2 893e 064f 2abe 5385 083e
000000a0: 893d 53be 0da2 6a3e 16e5 f13d b1e9 4c3e
000000b0: 6025 9fbe ec9b 9bbc c768 0f3c 7b4b 73be
000000c0: a326 9b3e 702c b2bd 3279 91bd bb49 f3bd
000000d0: 08c9 733e 3af0 ea3c bfb7 b4bd 1111 04be
000000e0: acec 45be 7e6e 0ebe ed3f 6ebe 98f3 eb3d
000000f0: af34 83bd 8562 d7bd a9d4 3f3e 77be c43d
00000100: 7deb 41bc c9c8 aebd 0974 de3c 59a4 0f3d
00000110: 94c3 2e3e 6800 98be 7899 61be 4bbd edbd
00000120: 6a08 0d3e 4533 b8bd ac91 443e ce5b 813e
00000130: 67cb a9bd 47c4 83be d716 c33d 1df0 17be
00000140: 79ba 173e 80df 943e de32 5dbd dd4f 7e3d
00000150: 0e46 163c 8e11 4f3e ecec 0f3d 7307 37be
00000160: bf52 08be e62d bcbc 48c7 b73d 6999 34be
00000170: 6eb5 8fbe a9b2 70be 4098 183b 7c4a 40be
00000180: cc1d 68be 6f9f 2a3d 2c5f 813e cee0 90be

bias f4 [10]
-0.1277981 0.23818955 0.26143688 -0.08516153 -0.018223133 -0.29543737 0.057010964 -0.3149329
-0.21471097 0.05456984
00000000: 81dd 02be f6e7 733e 0edb 853e 2b69 aebd
00000010: ae48 95bc 9143 97be 5484 693d e33e a1be
00000020: 31dd 5bbe a084 5f3d

weight f4 [10, 10]
-0.06947979 -0.26324874 -0.23439397 0.2118038 0.1768901 0.20957701 -0.27754423 0.04204107
0.15901214 -0.14992139 0.20736682 -0.15373383 -0.14782 -0.11538627 -0.31254354 -0.0046335245
0.18265109 -0.08907115 0.09792485 -0.18775666 -0.19453323 0.017288316 -0.067508 0.1879929
0.06706803 -0.18735473 0.25342092 0.03677623 0.08354978 0.08995806 -0.0773986 -0.20510498
-0.11119923 -0.14969136 -0.09021296 0.094986945 -0.23307577 0.19692773 -0.17028731 0.1381336
0.15088004 0.052741446 -0.1678091 0.28139135 0.15156831 -0.17213634 -0.16434819 -0.22888786
0.047919698 -0.15798669 -0.22684297 0.09088951 0.10084737 0.029873593 -0.22455105 0.13552102
0.14729151 -0.20279975 -0.06351386 -0.21566188 -0.09928919 -0.1533909 -0.07154014 -0.05944229
-0.098666765 -0.187586 0.037100088 -0.12381862 -0.26776162 0.20261097 -0.048204616 -0.09827607
-0.24511409 -0.24536407 -0.25042474 -0.17523463 0.1860918 -0.054026507 0.07768826 -0.24985272
0.067189984 -0.13796616 -0.24552515 -0.20626806 0.031292554 -0.16230813 0.035741817 -0.2452249
-0.029485537 0.061315242 0.18793613 0.0004138785 0.006250248 0.26580626 -0.20188771 -0.16855276
0.057406183 0.23282859 -0.00932269 0.054043546
00000000: 6c4b 8ebd 8ac8 86be f904 70be 18e3 583e
00000010: ae22 353e 5b9b 563e 471a 8ebe 4233 2c3d
00000020: 14d4 223e fe84 19be f857 543e 676c 1dbe
00000030: 205e 17be a34f ecbd b505 a0be d2d4 97bb
00000040: e308 3b3e ef6a b6bd d38c c83d 4843 40be
00000050: b833 47be 3aa0 8d3c a241 8abd 3681 403e
00000060: f75a 893d ebd9 3fbe 63c0 813e aca2 163d
00000070: 261c ab3d ee3b b83d 2883 9ebd 0a07 52be
00000080: 6cbc e3bd b148 19be 93c1 b8bd 8488 c23d
00000090: 6aab 6ebe 6ca7 493e cc5f 2ebe e572 0d3e
000000a0: 4c80 1a3e 6a07 583d 26d6 2bbe 8712 903e
000000b0: b934 1b3e 8244 30be e44a 28be 9461 6abe
000000c0: 7247 443d 43c7 21be 8649 68be 4824 ba3d
000000d0: 1189 ce3d 77b9 f43c b6f0 65be 06c6 0a3e
000000e0: 96d3 163e bdaa 4fbe 8e13 82bd 78d6 5cbe
000000f0: 2158 cbbd 8112 1dbe a383 92bd c279 73bd
00000100: cd11 cabd 8b16 40be 43f6 173d 9e94 fdbd
00000110: 0d18 89be 4079 4f3e 3472 45bd f744 c9bd
00000120: 30ff 7abe b840 7bbe ac37 80be b570 33be
00000130: d98e 3e3e e64a 5dbd 061b 9f3d 64d9 7fbe
00000140: e79a 893d 0047 0dbe f26a 7bbe ef37 53be
00000150: 9f2c 003d 1a34 26be 0366 123d 3c1c 7bbe
00000160: a78b f1bc b125 7b3d 5472 403e d5fd d839
00000170: e1ce cc3b c217 883e a7bb 4ebe 1899 2cbe
00000180: bf22 6b3d 9e6a 6e3e 32be 18bc c45c 5d3d

bias f4 [10]
0.2265775 -0.21581274 -0.004522619 0.22707191 -0.117634684 0.06524194 -0.11131232 -0.22103383
-0.043576177 -0.031464454
00000000: ef03 683e 04fe 5cbe 7a32 94bb 8a85 683e
00000010: 74ea f0bd 919d 853d b7f7 e3bd b156 62be
00000020: ef7c 32bd dfe0 00bd

weight f4 [1, 10]
-52.684242 -29.38178 -25.02945 -28.896955 -27.643967 -30.603558 -23.873253 -26.281488
-45.956036 -29.372005
00000000: aabc 52c2 e30d ebc1 503c c8c1 f72c e7c1
00000010: d826 ddc1 16d4 f4c1 6cfc bec1 7d40 d2c1
00000020: fbd2 37c2 def9 eac1
